models/densenet-cifar/40-12-pp/checkpoint.pth.tar (torch_old, 775170 bytes, 197 tensors)

features.conv0.push.weight f4 [24, 3, 3, 3]
-0.15548888 0.011574749 0.14001238 0.6227743 0.0689241 -0.65676963 -0.06676369 0.08351879
0.1831656 0.08491349 0.057418343 0.0051420177 0.78006756 -0.07318358 -0.88938016 -0.15566626
-0.07315444 0.1655666 -0.07816852 0.14440612 0.048140313 0.6542906 0.22340558 -0.80606556
-0.09288602 0.07886271 -0.028401688 -0.14843531 0.5046214 -0.23019773 0.27786532 -1.378296
0.25210306 -0.1628137 0.4745014 -0.09539051 -0.116545334 -0.2145804 -0.031024985 0.08752453
-2.1694732 0.23504597 0.071046 0.19119251 0.011290825 -0.016700579 0.19447678 0.01610815
0.12973143 -0.9372234 0.20858502 -0.1028942 0.077438876 -0.07763787 -0.11564174 0.2164892
0.45020455 -0.6514568 -0.13038355 0.52880627 -0.53891164 -0.3474238 0.2429247 0.04136088
-0.10821777 0.04151176 0.038784374 -0.098422915 -0.14159569 0.07623393 -0.024514794 0.069507204
0.21215643 -0.14736757 -0.4177797 0.7214626 0.32705146 -0.6146979 0.53840226 0.28869575
-0.27626327 -0.119565174 -0.258597 0.01568326 -0.42676225 0.19795386 -0.7716952 -0.14033061
-0.26735973 0.07399916 0.0024067247 -0.22971256 0.023097824 -0.08747612 0.6604325 -0.7554778
0.0808231 0.041364513 0.1403964 -0.23948891 -0.31870627 0.114727706 -0.20519438 0.43193766
-0.5525865 0.064097464 0.0051354053 0.11502443 -0.34212238 0.8074858 0.038608275 0.42102513
1.68197 1.2282977 -0.456392 0.5268005 -0.17386883 -0.039690197 -0.30727068 -0.5282272
0.18170483 -1.3995048 -0.5082279 0.08046779 -0.04971511 -0.22218008 0.021259077 -0.31047913
0.017436571 0.11236303 -1.726741 -0.24813327 0.0004184447 -0.048306495 0.083381854 -0.04883993
-0.10866411 -0.0546486 0.090749584 -0.0018060831 -0.043288425 -0.031464655 -0.13410556 -0.046728928
0.03992496 -0.0018372677 0.023716873 0.21257074 0.15598945 0.071877405 0.03280953 -0.011169994
0.04452531 -0.00645704 -0.037841678 0.00717035 0.1466649 0.13669541 0.083311364 -0.008342902
-0.031065483 0.025973294 0.10064984 -0.44619033 0.09483055 -0.43754992 0.13381132 -0.26821038
0.017176937 -0.5414905 -0.09489018 0.21251543 -0.0038985824 0.15621135 -0.23788263 1.0680492
-0.053357136 0.16906524 -0.16528194 0.10597826 0.031081362 0.12637703 -0.019093426 -0.06328036
1.5586247 0.033980574 0.056272276 0.1644868 -0.0029915287 0.16249964 0.112913884 0.13706017
0.045423128 -0.2558218 0.102862954 -0.01268508 0.013265015 0.074884705 0.109459125 0.0066361898
0.094214596 0.030099466 -0.39164358 0.03275267 0.043341234 0.0068024034 0.03084009 0.121642604
0.09647083 0.1352238 0.05776761 -0.2143114 0.065402225 0.037029874 0.013153187 0.019288873
-0.09060046 -0.2355216 0.021825323 0.5074126 0.39868638 -0.07341306 -0.022719707 -0.130695
0.011299947 0.087692365 -0.06938451 0.12831531 0.7068625 0.48871782 -0.048650328 0.05179578
-0.13501666 -0.0040795184 -0.10162789 -0.31352502 -0.040776987 0.26476657 -0.046032164 -0.29990375
-0.06274103 -0.25245643 -0.06828821 -0.004358732 -0.0045514633 -0.0044881934 -0.005184027 0.012749892
-0.007070801 -0.003843013 -0.0022180737 0.0007856075 -0.0031708088 -0.002505791 -0.0042474703 -0.0058769286
00000000: 7a38 1fbe 04a4 3d3c 685f 0f3e 236e 1f3f
00000010: 1428 8d3d 0e22 28bf 67bb 88bd e60b ab3d
00000020: c38f 3b3e 20e7 ad3d 7f2f 6b3d 5f7e a83b
00000030: 82b2 473f 46e1 95bd 6bae 63bf fa66 1fbe
00000040: ffd1 95bd 4a8a 293e d116 a0bd 33df 133e
00000050: c72e 453d 977f 273f 6fc4 643e 505a 4ebf
00000060: 073b bebd c682 a13d a8aa e8bc 6dff 17be
00000070: de2e 013f f4b8 6bbe 5d44 8e3e 016c b0bf
00000080: a713 813e a2b8 26be d9f1 f23e 1a5c c3bd
00000090: 52af eebd f7ba 5bbe 1c28 febc 1040 b33d
000000a0: a6d8 0ac0 e4af 703e 9180 913d f8c7 433e
000000b0: 27fd 383c a7cf 88bc ec24 473e 3df5 833c
000000c0: 51d8 043e dfed 6fbf 5097 553e 32ba d2bd
000000d0: 4698 9e3d 9b00 9fbd 94d5 ecbd 58af 5d3e
000000e0: 3681 e63e dfc5 26bf 4483 05be d95f 073f
000000f0: 1df6 09bf 88e1 b1be 41c1 783e 076a 293d
00000100: 47a1 ddbd 3c08 2a3d 5ddc 1e3d f491 c9bd
00000110: 76fe 10be 8920 9c3d 40d3 c8bc cb59 8e3d
00000120: 893f 593e 86e7 16be 39e7 d5be c6b1 383f
00000130: 4a73 a73e d75c 1dbf bbd4 093f eecf 933e
00000140: 6172 8dbe 96de f4bd d366 84be 2e7a 803c
00000150: 9580 dabe 6bb4 4a3e d18d 45bf d4b2 0fbe
00000160: 60e3 88be df8c 973d 24ba 1d3b c539 6bbe
00000170: a637 bd3c ae26 b3bd 1b12 293f fe66 41bf
00000180: 9586 a53d d66d 293d 13c4 0f3e 953c 75be
00000190: 782d a3be 5cf6 ea3d 7a1e 52be ef26 dd3e
000001a0: 4f76 0dbf 8845 833d e746 a83b ee91 eb3d
000001b0: aa2a afbe 64b7 4e3f b623 1e3d 9b90 d73e
000001c0: cb4a d73f dc38 9d3f 36ac e9be 66dc 063f
000001d0: ac0a 32be 3092 22bd 9552 9dbe e639 07bf
000001e0: d510 3a3e f922 b3bf 391b 02bf 4ccc a43d
000001f0: 12a2 4bbd 2d83 63be 8427 ae3c 1ff7 9ebe
00000200: 24d7 8e3c 971e e63d d905 ddbf a616 7ebe
00000210: b262 db39 08dd 45bd 1bc4 aa3d 610c 48bd
00000220: 4a8b debd 36d7 5fbd ebda b93d 18ba ecba
00000230: 344f 31bd 15e1 00bd f852 09be d566 3fbd
00000240: 5b88 233d 79d0 f0ba e349 c23c 25ac 593e
00000250: b3bb 1f3e 7634 933d 4963 063d 5a02 37bc
00000260: 2c60 363d 9495 d3bb e0ff 1abd 41f5 ea3b
00000270: 532f 163e e2f9 0b3e 269f aa3d abb0 08bc
00000280: 0a7d febc f2c5 d43c 8121 ce3d 0f73 e4be
00000290: 8536 c23d 8b06 e0be d605 093e df52 89be
000002a0: a6b6 8c3c 1f9f 0abf c855 c2bd a59d 593e
000002b0: 5c7f 7fbb def5 1f3e 8197 73be d6b5 883f
000002c0: 038d 5abd 701f 2d3e ab3f 29be 210b d93d
000002d0: 579e fe3c fb68 013e d169 9cbc 2299 81bd
000002e0: 0481 c73f 372f 0b3d c27d 663d 3a6f 283e
000002f0: 860d 44bb 4e66 263e 653f e73d 8059 0c3e
00000300: 9a0d 3a3d 13fb 82be d0a9 d23d 15d5 4fbc
00000310: 8155 593c 275d 993d 1b2c e03d 6574 d93b
00000320: 95f3 c03d 2893 f63c 8285 c8be aa27 063d
00000330: 9486 313d b2e6 de3b 5ba4 fc3c c21f f93d
00000340: 8092 c53d 1c78 0a3e bb9d 6c3d 7374 5bbe
00000350: 9af1 853d a3ac 173d 7780 573c b303 9e3c
00000360: bc8c b9bd 932c 71be 05cb b23c cbe5 013f
00000370: 9f20 cc3e 9659 96bd ae1e babc e9d4 05be
00000380: 6a23 393c 0e98 b33d 7719 8ebd 1765 033e
00000390: f1f4 343f 3939 fa3e 9145 47bd d027 543d
000003a0: cf41 0abe 7bad 85bb 4822 d0bd 5a86 a0be
000003b0: c505 27bd 7c8f 873e 398c 3cbd fc8c 99be
000003c0: 5e7e 80bd f841 81be b0da 8bbd b2d3 8ebb
000003d0: 7124 95bb b211 93bb c5de a9bb ece4 503c
000003e0: 2eb2 e7bb 0fdb 7bbb 1a5d 11bb 3af1 4d3a
000003f0: 58cd 4fbb 3238 24bb 5d2e 8bbb 4093 c0bb

features.denseblock1.denselayer1.norm1.weight f4 [24]
0.003175455 1.6557947 0.00027125207 0.00014912689 1.282394 0.09914534 1.3388364 0.0009584338
0.8590563 8.0221354e-05 0.0003628296 0.76133186 0.16058026 1.9663099e-05 0.6814769 0.12082317
1.2231297 2.876856e-06 0.62242025 0.029185265 0.0016215207 7.333795e-05 1.0670899 0.8748615
00000000: 4b1b 503b 15f1 d33f d636 8e39 f25e 1c39
00000010: 7d25 a43f b60c cb3d fe5e ab3f 673f 7b3a
00000020: 1deb 5b3f 833c a838 2a3a be39 a5e6 423f
00000030: 276f 243e 2ff2 a437 4575 2e3f 2372 f73d
00000040: 848f 9c3f 0210 4136 ef56 1f3f f015 ef3c
00000050: 3589 d43a 03cd 9938 6796 883f ecf6 5f3f

features.denseblock1.denselayer1.norm1.bias f4 [24]
-0.006575569 -0.58550125 -0.0007271081 -0.00028350324 -0.41775197 -0.14836305 -0.97204936 -0.0019217564
-0.543925 -0.00018719667 -0.00071167154 -0.44947687 0.0064160377 -4.751804e-05 -0.30814242 -0.12218397
-0.72351986 -6.6618595e-06 -0.4065081 -0.06348939 -0.003083026 -0.0001768162 -0.35304326 -0.4824727
00000000: df77 d7bb 69e3 15bf 669b 3eba 29a3 94b9
00000010: 96e3 d5be 7cec 17be 3ad8 78bf 72e3 fbba
00000020: ab3e 0bbf 394a 44b9 788f 3aba d521 e6be
00000030: a03d d23b 1b4e 47b8 d8c4 9dbe 973b fabd
00000040: 9938 39bf f088 dfb6 d421 d0be ba06 82bd
00000050: 980c 4abb bd67 39b9 16c2 b4be a906 f7be

features.denseblock1.denselayer1.norm1.running_mean f4 [24]
-3.018565 -6.469265 -1.0296154 -1.4272434 -4.382357 -1.7877434 -8.245197 -0.80897224
-3.9870715 -0.019351536 -1.4619288 -2.6697872 -4.287638 -2.3051515 -2.2688243 -1.8012565
-6.2141967 -4.679457 -2.3428307 -3.8906555 -0.058208775 -2.8047173 -3.664476 -5.963368
00000000: 2b30 41c0 3804 cfc0 70ca 83bf e9af b6bf
00000010: 453c 8cc0 c7d4 e4bf 54ec 03c1 ce18 4fbf
00000020: 2e2c 7fc0 1d87 9ebc 7c20 bbbf cbdd 2ac0
00000030: 5534 89c0 9a87 13c0 6b34 11c0 938f e6bf
00000040: b3da c6c0 1dbe 95c0 f0f0 15c0 8000 79c0
00000050: 536c 6ebd 7d80 33c0 c686 6ac0 e9d3 bec0

features.denseblock1.denselayer1.norm1.running_var f4 [24]
36.529278 231.39494 5.7692695 27.792234 108.964485 6.3081822 109.6429 3.2863176
35.467804 0.00728175 6.6176543 21.878014 60.422153 25.512423 35.264767 21.380434
82.376656 96.14724 24.909554 60.79922 0.007997047 27.204956 85.451035 83.57113
00000000: fb1d 1242 1b65 6743 db9d b840 7f56 de41
00000010: d1ed d942 a1dc c940 2a49 db42 0753 5240
00000020: 08df 0d42 bf9b ee3b d3c3 d340 2c06 af41
00000030: 49b0 7142 7119 cc41 1f0f 0d42 210b ab41
00000040: d9c0 a442 634b c042 c446 c741 6732 7342
00000050: 0c06 033c c0a3 d941 eee6 aa42 6b24 a742

features.denseblock1.denselayer1.conv1.weight f4 [48, 24, 1, 1]
0.00063515635 0.52402776 -7.1387134e-05 2.0361294e-06 -0.11461318 0.013733154 0.12235018 -0.00017859894
-0.018604781 -1.8054954e-05 -7.3481126e-05 -0.0591639 -0.08742947 -1.9255195e-07 -0.09804273 0.023690375
-0.015359934 -2.1687117e-06 -0.046272088 0.00633401 -0.0005332205 2.7906959e-05 -0.04235282 0.023099612
0.0002278089 0.09553693 -4.359643e-05 -5.20027e-06 0.009082267 0.04394744 0.34147877 -0.00024410417
0.021040374 2.5405966e-06 0.00016941881 0.04591385 -0.0320898 1.5600345e-06 0.055517152 0.010095252
0.19253394 6.763332e-07 0.07858235 0.013203699 0.0007526823 -5.0027734e-07 0.15332799 0.071494564
-0.0010004474 -0.0740084 0.00020324512 -6.580302e-06 -0.069020346 -0.012204298 -0.1110291 -0.00079958694
-0.040389266 -4.6256497e-05 0.00014569386 0.011427766 -0.010769234 -3.9898578e-06 0.0020746328 -0.02786087
-0.08891866 1.5668444e-07 0.010759862 0.076947026 0.0013838885 4.252322e-05 -0.0640407 0.87987864
0.0005752035 -0.14593682 1.3415526e-05 -4.7530507e-06 -0.08316625 -0.0067271376 0.03431513 -0.00019203799
0.01013441 -2.0167763e-05 5.3579304e-05 0.08368008 0.020095726 -1.4892547e-06 -0.014577991 0.027163794
0.083717845 2.4834165e-07 -0.134347 0.055625882 0.00055544806 4.4361488e-05 0.6785294 -0.010559477
-0.0020487132 -0.23362404 -6.524704e-05 -9.603072e-06 -0.1069324 -0.051704213 0.047470227 0.00032111042
-0.12578222 2.9797637e-05 -0.00013147629 -0.11208199 0.03162981 1.0003477e-05 -0.20598294 0.045447357
0.06302795 1.72856e-06 -0.021087015 0.009534836 -0.00047385204 -1.6215748e-05 -0.06965366 -0.17490284
-2.8497656e-05 -0.04941051 -1.3893722e-05 1.6932216e-05 0.46323293 -0.028506916 -0.12126443 -0.00014315525
-0.047724172 -1.7128032e-05 0.000179951 0.071862735 -0.038771845 -2.0043467e-06 -0.101029016 -0.01172297
0.30658823 -8.211557e-07 0.22401065 0.02078379 0.00016547229 1.2560554e-05 -0.03740812 0.09713202
0.0022186178 0.017951531 -5.2091997e-05 -6.752863e-05 0.05513188 -0.028968338 -0.22430895 -0.00017375512
0.014117122 -1.1168188e-05 2.1302236e-05 -0.06589732 -0.05946723 5.8707474e-07 0.0175556 -0.014050304
-0.09845097 3.1622199e-06 0.063008785 -0.044559415 0.0001982542 2.945951e-05 0.57244086 -0.06429156
8.072113e-05 -0.08866255 -6.4288484e-05 -2.1368387e-06 -0.063411675 -0.011894832 0.041898005 0.00019820419
-0.025984699 -3.72555e-06 9.518109e-05 -0.05220613 -0.0041948794 -8.5312024e-07 -0.055065878 -0.0035899046
-0.118263766 -1.1402503e-06 0.023680687 0.006326489 -0.00024515204 3.4687542e-05 0.5613696 -0.052269325
0.0019297024 -0.06153093 0.00023754458 -3.979509e-05 0.57306254 -0.0058766734 -0.02509423 -6.153234e-05
-0.057966262 -4.206518e-05 9.3755116e-05 -0.082293 0.010676379 -2.4912916e-07 -0.09041444 -0.0092055965
-0.19844064 3.1941192e-07 0.092355214 0.029417077 0.0010492408 5.3284683e-05 -0.016299382 -0.099088676
-0.00089751696 -0.05715553 3.831271e-05 3.0616975e-05 -0.13081382 0.06377952 0.25827616 0.00016482049
0.45196703 1.572868e-05 0.00015592607 -0.08431297 -0.021831498 1.973815e-06 0.0016419336 0.019473614
0.077519596 1.8813913e-06 0.0340939 -0.040414162 0.0003579351 -1.8342627e-05 -0.052643526 0.08324638
-0.0011173812 0.13327833 8.072334e-05 -1.5806012e-05 0.03789806 -0.002253696 -0.19020794 -0.00025247314
-0.043964628 -2.2253255e-06 7.0617876e-05 0.040175315 -0.0041743154 -2.2018705e-06 -0.002056952 -0.03961541
00000000: 9f80 263a af26 063f adb5 95b8 70a4 0836
00000010: 51ba eabd 0601 613c bb92 fa3d 4a46 3bb9
00000020: 0e69 98bc b874 97b7 e119 9ab8 d855 72bd
00000030: 390e b3bd 47c0 4eb4 a0ca c8bd 5112 c23c
00000040: 3ca8 7bbc 2f8a 11b6 cd87 3dbd 878d cf3b
00000050: d2c7 0bba bd19 ea37 277a 2dbd 663b bd3c
00000060: fcdf 6e39 dea8 c33d 4fdb 36b8 fb7d aeb6
00000070: cacd 143c 3b02 343d 4ed6 ae3e 37f6 7fb9
00000080: dd5c ac3c 1e7f 2a36 04a6 3139 2910 3c3d
00000090: 9870 03bd 6162 d135 f465 633d 8e66 253c
000000a0: 9e27 453e 438d 3535 c8ef a03d 5454 583c
000000b0: a74f 453a cc4a 06b5 0302 1d3e be6b 923d
000000c0: 7221 83ba b791 97bd 321e 5539 5dcc dcb6
000000d0: 8a5a 8dbd 89f4 47bc 3a63 e3bd 5f9b 51ba
000000e0: 376f 25bd 8903 42b8 66c5 1839 863b 3b3c
000000f0: 7171 30bc 9ee0 85b6 90f6 073b 7b3c e4bc
00000100: fd1a b6bd 173d 2834 224a 303c 6796 9d3d
00000110: 9863 b53a f65a 3238 c527 83bd ba3f 613f
00000120: 41c9 163a 7670 15be 3f13 6137 657c 9fb6
00000130: 1153 aabd 526f dcbb 068e 0c3d ce5d 49b9
00000140: cc0a 263c f12d a9b7 57ba 6038 7660 ab3d
00000150: cb9f a43c 67e2 c7b5 87d8 6ebc 9b86 de3c
00000160: 4374 ab3d d153 8534 4392 09be f7d7 633d
00000170: 7d9b 113a c910 3a38 1ab4 2d3f a801 2dbc
00000180: b443 06bb 243b 6fbe 3dd5 88b8 e11c 21b7
00000190: 60ff dabd ccc7 53bd 2470 423d b65a a839
000001a0: 0ecd 00be f0f5 f937 e6dc 09b9 3e8b e5bd
000001b0: 428e 013d 9bd4 2737 31ed 52be 0227 3a3d
000001c0: cc14 813d df00 e835 adbe acbc 0038 1c3c
000001d0: 586f f8b9 0e07 88b7 94a6 8ebd bb19 33be
000001e0: 400e efb7 ad62 4abd 1519 69b7 a809 8e37
000001f0: de2c ed3e 5687 e9bc 7c59 f8bd f21b 16b9
00000200: 6c7a 43bd 2bae 8fb7 3bb1 3c39 c52c 933d
00000210: 3acf 1ebd 6a82 06b6 4de8 cebd b311 40bc
00000220: 22f9 9c3e 646d 5cb5 0c63 653e c442 aa3c
00000230: a182 2d39 2bbb 5237 4239 19bd 27ed c63d
00000240: 3b66 113b 170f 933c 5b7d 5ab8 289e 8db8
00000250: f7d1 613d 024f edbc 3fb1 65be 0932 36b9
00000260: 804b 673c 015f 3bb7 34b2 b237 2df5 86bd
00000270: e993 73bd 7897 1d35 c3d0 8f3c 3f33 66bc
00000280: aaa0 c9bd 8636 5436 c00a 813d ef83 36bd
00000290: 75e2 4f39 d11f f737 7c8b 123f 4bab 83bd
000002a0: d448 a938 b694 b5bd 9ed2 86b8 9c66 0fb6
000002b0: fbdd 81bd 8be2 42bc 3e9d 2b3d 08d5 4f39
000002c0: dddd d4bc 7604 7ab6 f59b c738 18d6 55bd
000002d0: 3375 89bb fa01 65b5 c28c 61bd 9b44 6bbb
000002e0: 4634 f2bd b40a 99b5 00fe c13c 704e cf3b
000002f0: c087 80b9 777d 1138 ebb5 0f3f 5c18 56bd
00000300: 11ee fc3a db07 7cbd 6315 7939 a7e9 26b8
00000310: 3ab4 123f 1c91 c0bb 6a92 cdbc ec0a 81b8
00000320: 086e 6dbd 256f 30b8 659e c438 3b89 a8bd
00000330: fbeb 2e3c 0dc0 85b4 352b b9bd 12d3 16bc
00000340: 0634 4bbe a47b ab34 bb24 bd3d 15fc f03c
00000350: ae86 893a fe7d 5f38 4886 85bc 01ef cabd
00000360: 5847 6bba eb1b 6abd f6b1 2038 ba6a 0038
00000370: 0ff4 05be d69e 823d c63c 843e aad3 2c39
00000380: 3968 e73e 15f1 8337 1680 2339 47ac acbd
00000390: f8d7 b2bc e275 0436 2636 d73a 2187 9f3c
000003a0: 98c2 9e3d 1d84 fc35 0ca6 0b3d 5289 25bd
000003b0: 3ca9 bb39 7ede 99b7 bda0 57bd 147d aa3d
000003c0: 1775 92ba 1d7a 083e 034a a938 2797 84b7
000003d0: ff3a 1b3d bfb2 13bb dfc5 42be 5f5e 84b9
000003e0: 4114 34bd cd56 15b6 af18 9438 df8e 243d
000003f0: b2c8 88bb d9c3 13b6 eecd 06bb c543 22bd

features.denseblock1.denselayer1.norm2.weight f4 [48]
0.53735846 0.3248482 0.45644495 0.46988356 0.17436375 0.36019984 0.55204 0.4104992
0.36251011 0.3962138 0.12752762 0.4507009 0.4712569 0.39362267 0.22975276 0.6786871
0.2207692 0.456489 0.3258979 0.48490515 0.023374543 0.24306427 0.3615927 0.21629536
0.56489134 0.3514486 0.39209214 0.7335174 0.55053264 0.49795425 0.36995682 0.29485586
0.031994186 0.28801814 0.24265738 0.47800663 0.36678708 0.111051895 0.26220354 0.45399538
0.18518648 0.25310385 0.5269075 0.4396747 0.23571287 0.1178915 0.3556855 0.00978056
00000000: 5390 093f 8152 a63e 27b3 e93e 9494 f03e
00000010: 698c 323e 1d6c b83e 7e52 0d3f f32c d23e
00000020: ed9a b93e 89dc ca3e 9a96 023e 45c2 e63e
00000030: 9648 f13e e988 c93e 4f44 6b3e 70be 2d3f
00000040: 5211 623e edb8 e93e 17dc a63e 7d45 f83e
00000050: f87b bf3c d7e5 783e ae22 b93e 887c 5d3e
00000060: b89c 103f 12f1 b33e 4dc0 c83e ccc7 3b3f
00000070: b5ef 0c3f dcf3 fe3e fb6a bd3e 59f7 963e
00000080: 560c 033d 1d77 933e 2d7b 783e 49bd f43e
00000090: 84cb bb3e 2d6f e33d 8b3f 863e 1572 e83e
000000a0: 86a1 3d3e d496 813e 69e3 063f 0b1d e13e
000000b0: b75e 713e 1971 f13d 691c b63e a43e 203c

features.denseblock1.denselayer1.norm2.bias f4 [48]
-0.23299874 -0.3273759 -0.12954031 -0.020253193 0.4206891 0.15267073 0.022153275 -0.020763122
0.096433446 -0.00466702 -0.21507074 -0.33809626 -0.13078532 -0.25113788 0.010368617 0.22062553
-0.051650226 -0.06254468 0.2879335 -0.00847205 -0.13103692 0.01145512 -0.09080279 0.25750262
-0.11598722 -0.03429462 -0.19154672 -0.35421062 0.15593697 -0.48054022 -0.15827976 0.21650068
-0.22323582 0.025128653 -0.025926474 -0.24849491 0.044159085 0.20305532 -0.2258438 -0.023925316
0.39450994 -0.11076991 -0.25480768 0.047235083 0.006467668 0.13322985 -0.33036992 -0.04805087
00000000: 3997 6ebe d09d a7be 37a6 04be 06ea a5bc
00000010: 9064 d73e b755 1c3e c97a b53c 6c17 aabc
00000020: e67e c53d cded 98bb 813b 5cbe f41a adbe
00000030: 96ec 05be 2595 80be 22e1 293c a9eb 613e
00000040: 308f 53bd 6d17 80bd 056c 933e 5ace 0abc
00000050: 8b2e 06be 41ae 3b3c d0f6 b9bd 62d7 833e
00000060: b58a edbd 8478 0cbd d324 44be 185b b5be
00000070: f1ad 1f3e 5e09 f6be 1714 22be 5bb2 5d3e
00000080: ee97 64be 9bda cd3c c263 d4bc 7375 7ebe
00000090: 28e0 343d bced 4f3e 9943 67be 06ff c3bc
000000a0: 35fd c93e 56db e2bd 2776 82be 9379 413d
000000b0: bbee d33b 686d 083e 3f26 a9be fdd0 44bd

features.denseblock1.denselayer1.norm2.running_mean f4 [48]
0.10877889 0.13673504 0.018282644 0.07493571 -0.124205306 0.10421101 0.06021299 0.035081502
0.041498397 0.02733689 0.034376528 0.102297485 0.03717047 0.12721634 0.06800389 0.17185935
0.023014214 0.02902238 0.016916566 0.10487046 -0.011523133 0.02555802 0.016373996 -0.04983795
0.05987708 0.08468009 -0.036669783 -0.016410386 0.14286281 0.17707616 0.108324476 0.111172475
0.044258703 0.035241306 -0.019549886 0.107586086 0.08471546 -0.078073576 0.041174565 0.12559614
-0.1073716 0.0050926977 0.12575968 0.054513425 0.07839372 0.052492533 -0.007373508 0.02301046
00000000: 77c7 de3d 4504 0c3e 7cc5 953c e577 993d
00000010: 5a5f febd 956c d53d e5a1 763d 9fb1 0f3d
00000020: 39fa 293d 9df1 df3c 67ce 0c3d 5881 d13d
00000030: 1040 183d 0045 023e a045 8b3d e6fb 2f3e
00000040: 4e88 bc3c 58c0 ed3c 9c94 8a3c 53c6 d63d
00000050: 86cb 3cbc 0e5f d13c c222 863c e122 4cbd
00000060: ab41 753d c16c ad3d 0e33 16bd 136f 86bc
00000070: a14a 123e 7453 353e 39d9 dd3d 65ae e33d
00000080: 9d48 353d 3059 103d 1527 a0bc 1856 dc3d
00000090: 4d7f ad3d 0ae5 9fbd a9a6 283d 469c 003e
000000a0: a4e5 dbbd a5e0 a63b 25c7 003e 7849 5f3d
000000b0: e38c a03d 6902 573d 789d f1bb 6f80 bc3c

features.denseblock1.denselayer1.norm2.running_var f4 [48]
0.016216489 0.0054227426 0.015839214 0.014670078 0.008778035 0.022537502 0.019376164 0.0148402685
0.013307529 0.013487007 0.0040717227 0.007775307 0.03190159 0.009904297 0.0061672283 0.08833688
0.0027398649 0.017998807 0.021677269 0.022178162 0.00036618658 0.00816939 0.018428782 0.016810784
0.03680989 0.012936963 0.012902321 0.048634626 0.04886288 0.010615003 0.016556576 0.016552422
0.0023806745 0.0072045443 0.0021998682 0.017969202 0.015474525 0.0021787763 0.002842094 0.027010458
0.011498404 0.004822668 0.018026365 0.015073426 0.009441568 0.0028843407 0.0064533376 0.000558601
00000000: 71d8 843c 43b1 b13b 3dc1 813c c45a 703c
00000010: bfd1 0f3c 91a0 b83c c3ba 9e3c 9924 733c
00000020: d207 5a3c 9bf8 5c3c 166c 853b 01c8 fe3b
00000030: 3eab 023d a245 223c 7616 ca3b f7e9 b43d
00000040: 4e8f 333b 3c72 933c 8794 b13c faae b53c
00000050: bbfc bf39 e8d8 053c f5f7 963c c5b6 893c
00000060: f8c5 163d 8ef5 533c 4264 533c 1a35 473d
00000070: 7124 483d 8dea 2d3c a8a1 873c f298 873c
00000080: 1705 1c3b 1914 ec3b aa2b 103b 2634 933c
00000090: dd88 7d3c cdc9 0e3b 6d42 3a3b 0945 dd3c
000000a0: cd63 3c3c 7907 9e3b 07ac 933c 88f6 763c
000000b0: ceb0 1a3c 3507 3d3b 8576 d33b 146f 123a

features.denseblock1.denselayer1.conv2.weight f4 [12, 48, 3, 3]
0.0024158314 0.12917905 0.054752033 -0.03641383 -0.0668122 0.047484938 -0.12247281 -0.21955109
-0.09965305 -0.05601619 -0.07460158 -0.06641724 -0.03266194 -0.014152507 -0.06389536 0.009408286
0.027677007 -0.0037577855 -0.034684323 -0.031426486 0.0041046003 0.078447394 -0.042049155 -0.013017975
0.20032492 0.04856876 0.065990165 0.0009463614 -0.06385034 -0.006488877 0.008472156 -0.08604533
-0.048676472 0.027512042 -0.020016568 0.02729874 -0.05166428 -0.13600351 -0.038091026 -0.046085577
0.024459252 -0.030818328 0.048818342 0.16226086 0.0116461795 -0.082313955 -0.0556239 0.003952384
-0.03371919 -0.06847692 -0.04052439 0.037704498 0.106772825 0.02738168 0.11639156 0.077628784
0.08742583 0.0836234 -0.009464747 -0.03182296 0.009062395 -0.054921996 0.005200843 -0.02175234
-0.040647678 0.011926091 -0.012340535 -0.09833449 -0.044318125 0.031125676 -0.029346962 0.008961799
0.0232822 0.05015269 0.02505756 -0.021182768 -0.097216256 -0.042372257 -0.013371494 -0.047199193
-0.056825593 0.04815177 -0.054349985 -0.011116678 -0.0005757683 0.015569349 0.0073302663 0.057884283
0.08769724 0.0841881 -0.05041481 -0.013290358 0.021196162 0.005598106 -0.009660194 0.021799864
0.08506572 0.0063960836 0.033222802 -0.0322205 -0.05654568 -0.040877484 -0.0047288383 -0.011102398
-0.03661405 0.049786408 0.02301656 -0.023751378 -0.031277664 -0.0854062 -0.017822266 -0.0136595545
-0.010569013 -0.027896402 0.11987347 0.0808902 0.03184697 0.02812278 0.18689169 0.086203456
-0.011090878 -0.009928727 0.05181278 -0.05355759 -0.14068465 -0.03823054 -0.03637277 -0.0017308688
0.018093608 -0.017502747 -0.038725793 -0.025311759 0.008309562 0.038255326 -0.010497601 0.14605825
0.46981403 0.22301693 0.07401352 -0.047549117 0.10454036 -0.10021418 -0.44666967 -0.13461798
0.029149301 -0.018164994 -0.03658663 -0.027268877 -0.011037818 -0.00054851786 0.0061121564 0.019975202
0.043188807 0.040185336 0.09823004 0.061749637 -0.018188383 -0.078904375 -0.025184993 -0.03807775
-0.08743081 -0.056999505 0.026194224 0.10017613 0.01341009 0.041926082 -0.043151878 -0.01232001
0.013814398 -0.08605957 0.003497384 0.014615259 0.1884435 0.0916202 -0.0073897745 -0.03399423
0.049987044 -0.088946775 -0.20620416 -0.0916382 0.008269749 -0.0111872265 -0.011593948 0.006427428
-0.011734168 0.001527247 0.006737228 0.021731231 0.03226817 0.039500132 -0.039278608 -0.14853503
0.0134837795 0.0017819471 -0.03762895 0.016585797 0.03435969 0.08992421 -0.007501417 -0.10149889
0.014646725 -0.025772281 -0.0029561971 -0.036339343 0.04100059 0.08497997 0.015967617 -0.029231684
-0.047301866 -0.044765208 -0.06585888 -0.024054084 -0.033803053 0.031631377 0.06363337 0.043155815
-0.06318559 -0.14235047 -0.004047199 -0.040150113 -0.021405322 -0.101786725 0.024000496 0.11296998
-0.02146185 0.028645284 0.15677726 0.046665218 -0.01293524 -0.016444951 0.040232938 -0.05428323
-0.12623705 -0.034926467 -0.027986038 -0.09040972 0.0026673914 -0.015278036 0.041917436 -0.05903625
0.025042705 0.08056473 -0.011580095 -0.077370964 -0.12924744 -0.092002034 -0.014009731 -0.037408914
-0.03794082 0.12134066 0.08801205 0.024740942 0.1305588 0.2813616 0.16676202 0.11137104
00000000: ed52 1e3b 8347 043e ab43 603d ab26 15bd
00000010: d6d4 88bd 917f 423d 06d3 fabd 00d2 60be
00000020: e616 ccbd 3c71 65bd b7c8 98bd c305 88bd
00000030: 87c8 05bd ebdf 67bc 92db 82bd 3625 1a3c
00000040: e4ba e23c 2e45 76bb 2611 0ebd 0fb9 00bd
00000050: e27f 863b 07a9 a03d bc3b 2cbd 5849 55bc
00000060: fa21 4d3e 09f0 463d da25 873d 3d15 783a
00000070: f8c3 82bd a5a0 d4bb ccce 0a3c 8938 b0bd
00000080: fb60 47bd ef60 e13c c9f9 a3bc 9ba1 df3c
00000090: ed9d 53bd 8144 0bbe 5605 1cbd 3bc4 3cbd
000000a0: c55e c83c b876 fcbc bef5 473d b627 263e
000000b0: 9ecf 3e3c 3894 a8bd e3d5 63bd 0083 813b
000000c0: 221d 0abd a13d 8cbd e7fc 25bd 0870 1a3d
000000d0: b6ab da3d 8c4f e03c b35e ee3d d7fb 9e3d
000000e0: 500c b33d bf42 ab3d 0712 1bbc cb58 02bd
000000f0: 717a 143c e3f5 60bd d56b aa3b f731 b2bc
00000100: 2e7e 26bd a765 433c f52f 4abc 9863 c9bd
00000110: ec86 35bd 46fb fe3c 0a69 f0bc 82d4 123c
00000120: 50ba be3c e86c 4d3d 8345 cd3c 7c87 adbc
00000130: 5119 c7bd 888e 2dbd 1c14 5bbc f153 41bd
00000140: f4c1 68bd ca3a 453d 179e 5ebd ba22 36bc
00000150: 28ef 16ba 9516 7f3c bb32 f03b 1218 6d3d
00000160: 9c9a b33d d06a ac3d c37f 4ebd cdbf 59bc
00000170: 93a3 ad3c 5170 b73b ca45 1ebc a195 b23c
00000180: f036 ae3d 3d96 d13b a214 083d a5f9 03bd
00000190: 719c 67bd 266f 27bd 5ff4 9abb d5e6 35bc
000001a0: 9df8 15bd d5ec 4b3d 3a8d bc3c 4092 c2bc
000001b0: 021d 00bd 72e9 aebd 0000 92bc 53cc 5fbc
000001c0: a729 2dbc ff86 e4bc 3980 f53d c3a9 a53d
000001d0: f871 023d bf61 e63c 8960 3f3e 708b b03d
000001e0: 84b6 35bc 19ac 22bc a339 543d 345f 5bbd
000001f0: a30f 10be a097 1cbd 9dfb 14bd 52de e2ba
00000200: 0c39 943c ec61 8fbc f09e 1ebd 9b5a cfbc
00000210: d424 083c 9eb1 1c3d 21fe 2bbc 4b90 153e
00000220: 778b f03e 8d5e 643e 6694 973d ddc2 42bd
00000230: 4219 d63d 183d cdbd e3b1 e4be 4cd9 09be
00000240: 84ca ee3c c1ce 94bc dddb 15bd fb62 dfbc
00000250: f7d7 34bc 69ca 0fba 7c48 c83b 09a3 a33c
00000260: bfe6 303d 6199 243d d52c c93d 30ed 7c3d
00000270: ceff 94bc 9e98 a1bd c250 cebc 6af7 1bbd
00000280: ed0e b3bd 5078 69bd 4595 d63c 2529 cd3d
00000290: feb5 5b3c afba 2b3d 06c0 30bd ded9 49bc
000002a0: c955 623c 0040 b0bd 5e34 653b d774 6f3c
000002b0: 55f7 403e 5fa3 bb3d ec25 f2bb 893d 0bbd
000002c0: 37bf 4c3d ba29 b6bd 2f27 53be cfac bbbd
000002d0: d77d 073c a14a 37bc 8bf4 3dbc 2d9d d23b
000002e0: ab40 40bc e82d c83a f7c3 dc3b b205 b23c
000002f0: a12b 043d e4ca 213d 9be2 20bd 9119 18be
00000300: 12eb 5c3c 3990 e93a d020 1abd f0de 873c
00000310: bfbc 0c3d 2f2a b83d 72ce f5bb a6de cfbd
00000320: d1f8 6f3c 6420 d3bc c2bc 41bb 90d8 14bd
00000330: 3cf0 273d fa09 ae3d 85ce 823c 4977 efbc
00000340: 9abf 41bd b95b 37bd 05e1 86bd 120d c5bc
00000350: 1275 0abd e78f 013d 3652 823d 27c4 303d
00000360: 7267 81bd 52c4 11be 5e9e 84bb 7274 24bd
00000370: 375a afbc 8f75 d0bd b09c c43c ce5c e73d
00000380: c3d0 afbc 84a9 ea3c 388a 203e 0724 3f3d
00000390: 54ee 53bc 90b7 86bc 4bcb 243d 1858 5ebd
000003a0: 4944 01be 0e0f 0fbd fa42 e5bc bb28 b9bd
000003b0: 67cf 2e3b ba50 7abc 9eb1 2b3d ffcf 71bd
000003c0: 5c26 cd3c 1fff a43d 70ba 3dbc ab74 9ebd
000003d0: 7159 04be 906b bcbd 1289 65bc 173a 19bd
000003e0: d567 1bbd 7481 f83d a93f b43d 84ad ca3c
000003f0: 35b1 053e a10e 903e aac3 2a3e 8016 e43d

features.denseblock1.denselayer2.norm1.weight f4 [36]
5.55265e-05 0.21169817 1.7808303e-05 0.9576918 8.009904e-06 0.099175744 1.9933768e-06 2.59487e-06
1.607518e-05 6.9723505e-06 0.08467563 0.3136346 1.1655033 7.4145755e-06 0.9291227 0.7933746
0.1433729 1.222514 -8.513037e-05 1.1582788 0.005836789 0.8359552 0.0005344987 0.17430855
0.2829935 0.2597134 1.1081528e-06 0.27382925 3.8207713e-06 0.001796949 0.2406441 0.27358073
5.7307653e-07 0.33703542 0.35137644 0.5572847
00000000: 20e5 6838 68c7 583e 0a63 9537 4a2b 753f
00000010: 4762 0637 a71c cb3d f4c5 0536 8723 2e36
00000020: 30d9 8637 09f4 e936 6b6a ad3d b794 a03e
00000030: 362f 953f b8ca f836 fcda 6d3f 991a 4b3f
00000040: 58d0 123e 577b 9c3f 0588 b2b8 7b42 943f
00000050: 8942 bf3b 2901 563f 9a1d 0c3a f17d 323e
00000060: 86e4 903e 28f9 843e d7bb 9435 5933 8c3e
00000070: 2d34 8036 9a87 eb3a 686b 763e c612 8c3e
00000080: 85d5 1935 e88f ac3e 9de7 b33e 36aa 0e3f

features.denseblock1.denselayer2.norm1.bias f4 [36]
-0.00012414795 0.58896226 -6.556387e-05 -0.28814316 -2.4494182e-05 -0.15189317 -4.6179657e-06 -7.3936367e-06
-3.1439304e-05 -1.7889563e-05 -0.14276119 -0.16809432 -0.65299803 -1.8285285e-05 -0.32783747 -0.29324287
-0.12499216 -0.57968885 -0.01252573 -0.56961733 -0.011001071 -0.46045777 -0.001018912 0.04962113
0.19511917 -0.26399288 -1.9690968e-05 0.6383905 -7.301772e-05 -0.0041978615 0.41281447 0.7407953
-1.1316494e-05 0.44452354 -0.03902934 -0.53077686
00000000: b62d 02b9 3bc6 163f 567f 89b8 8087 93be
00000010: db78 cdb7 e289 1bbe 06f4 9ab6 db16 f8b6
00000020: b2dd 03b8 8b11 96b7 fd2f 12be eb20 2cbe
00000030: e12a 27bf 5a63 99b7 50da a7be ee23 96be
00000040: e4fb ffbd 7d66 14bf b838 4dbc 71d2 11bf
00000050: d63d 34bc 1fc1 ebbe 038d 85ba 873f 4b3d
00000060: 52cd 473e 132a 87be 082e a5b7 8f6d 233f
00000070: 1721 99b8 378e 89bb 6b5c d33e c3a4 3d3f
00000080: f9db 3db7 9798 e33e 3bdd 1fbd fee0 07bf

features.denseblock1.denselayer2.norm1.running_mean f4 [36]
-3.018565 -6.469265 -1.0296154 -1.4272434 -4.382357 -1.7877434 -8.245197 -0.80897224
-3.9870715 -0.019351536 -1.4619288 -2.6697872 -4.287638 -2.3051515 -2.2688243 -1.8012565
-6.2141967 -4.679457 -2.3428307 -3.8906555 -0.058208775 -2.8047173 -3.664476 -5.963368
0.04888265 1.0480858 -0.12283111 0.11193048 1.9555264 -2.5800467 -0.35859385 -0.6303078
-0.14947425 -0.16026779 -0.03214751 0.7722983
00000000: 2b30 41c0 3804 cfc0 70ca 83bf e9af b6bf
00000010: 453c 8cc0 c7d4 e4bf 54ec 03c1 ce18 4fbf
00000020: 2e2c 7fc0 1d87 9ebc 7c20 bbbf cbdd 2ac0
00000030: 5534 89c0 9a87 13c0 6b34 11c0 938f e6bf
00000040: b3da c6c0 1dbe 95c0 f0f0 15c0 8000 79c0
00000050: 536c 6ebd 7d80 33c0 c686 6ac0 e9d3 bec0
00000060: 2c39 483d ad27 863f e18e fbbd cf3b e53d
00000070: b04e fa3f 7c1f 25c0 9d99 b7be da5b 21bf
00000080: c70f 19be 3d1d 24be 1cad 03bd 57b5 453f

features.denseblock1.denselayer2.norm1.running_var f4 [36]
36.529278 231.39494 5.7692695 27.792234 108.964485 6.3081822 109.6429 3.2863176
35.467804 0.00728175 6.6176543 21.878014 60.422153 25.512423 35.264767 21.380434
82.376656 96.14724 24.909554 60.79922 0.007997047 27.204956 85.451035 83.57113
1.3474197 0.7646404 1.3528851 0.9202406 1.0477376 1.0461224 0.5836606 1.068693
1.122558 1.6720716 0.53588164 1.1237361
00000000: fb1d 1242 1b65 6743 db9d b840 7f56 de41
00000010: d1ed d942 a1dc c940 2a49 db42 0753 5240
00000020: 08df 0d42 bf9b ee3b d3c3 d340 2c06 af41
00000030: 49b0 7142 7119 cc41 1f0f 0d42 210b ab41
00000040: d9c0 a442 634b c042 c446 c741 6732 7342
00000050: 0c06 033c c0a3 d941 eee6 aa42 6b24 a742
00000060: 4078 ac3f 79bf 433f 572b ad3f e394 6b3f
00000070: 441c 863f 57e7 853f c86a 153f efca 883f
00000080: fbaf 8f3f 7106 d63f 8a2f 093f 96d6 8f3f

features.denseblock1.denselayer2.conv1.weight f4 [48, 36, 1, 1]
7.795914e-07 -0.14552703 -1.1030144e-06 0.050592 -2.004224e-06 0.00046549074 6.39817e-08 -1.6465624e-07
7.6610445e-07 1.9310241e-06 -0.0028960686 0.025945194 0.08581223 4.4571803e-07 -0.13428248 0.05005722
0.0020483483 0.025445322 0.0007513027 -0.07135478 -0.000982897 -0.027695192 0.00011991481 0.014127976
0.13797072 -0.075173505 1.42834915e-05 0.2128756 -8.986567e-06 0.0010724254 -0.03775925 0.07842228
1.2432637e-06 0.053870473 0.09083662 0.2894403 -5.490877e-06 -0.096581236 -2.8604652e-06 -0.022664677
2.0651596e-07 -0.0020632716 2.1883825e-06 8.138722e-07 -1.2144098e-06 -1.5763735e-06 0.004347428 -0.12226218
-0.19309728 1.8661557e-06 -0.011468575 0.17212163 0.0558108 0.1209236 0.0028946977 -0.058796357
-0.0013465405 -0.12157536 -0.00044635255 -0.09676047 -0.2522461 -0.041728627 7.802669e-06 0.15408546
-6.831769e-08 -0.00031694912 0.18391237 -0.065837234 2.0932525e-06 -0.08022963 0.14618623 -0.13933516
-3.3275803e-06 -0.07886572 -7.2152984e-06 -0.005836515 -1.3127166e-05 0.01387625 -1.0700295e-06 9.692883e-07
-1.2634057e-07 1.728613e-06 0.008492657 0.06664352 0.19266522 8.368188e-07 0.046624467 0.038471162
0.03506329 -0.06369608 -0.0023782814 0.079504594 -2.0851843e-05 0.0633246 -4.130283e-05 0.033447422
0.0010523009 0.03028931 1.2627287e-07 -0.098549694 8.240459e-07 -0.00048072616 0.07556924 0.083653025
3.4840036e-06 -0.03414989 0.018803153 0.021179168 -5.1350394e-06 0.041144505 -3.1025832e-06 0.616317
-4.5957595e-06 0.02465502 -3.534898e-07 -5.395153e-07 -4.525055e-06 3.5440993e-07 -0.08849991 -0.033494588
0.041609455 6.99787e-07 0.018109612 0.012788065 -0.015077981 -0.120676264 0.0026129144 -0.018816799
5.0461098e-05 -0.00042142568 -0.00014210375 -0.060677525 -0.17035463 0.028992688 3.9581223e-06 -0.06215742
-1.6404749e-05 -8.135911e-05 -0.08143488 -0.079673015 -5.9216217e-07 -0.046327595 -0.085159704 -0.122951806
5.3437334e-06 -0.002641297 -8.1322787e-07 -0.042034402 1.1738659e-06 0.0030787596 2.5831753e-06 -1.8748327e-06
1.0809615e-06 -5.5076526e-07 -0.00015361425 -0.00055775896 -0.0025823351 1.0904495e-06 0.012815917 -0.069515005
0.00091432343 0.084707566 -0.00040297338 0.123393945 0.00014451926 0.0086632185 0.00011048149 -0.013916738
-0.12958223 0.22538593 -5.9485205e-06 -0.08000413 7.564548e-08 0.0005842549 -0.0907448 -0.011348883
-1.4228328e-06 0.12128622 -0.013801949 0.2628315 -1.6953172e-05 0.044736512 -6.3330926e-06 0.057642765
-1.4220766e-06 -0.040619332 -1.7867444e-06 7.0376615e-07 -6.690928e-06 1.0486596e-06 0.07061938 -0.107705794
-0.1043636 2.0463126e-06 -0.20203374 0.17065361 0.027663581 -0.12949663 0.005277707 0.0009020795
-0.003876616 -0.23748598 -0.00022498266 0.015625171 -0.17897353 0.007890716 3.0183935e-06 0.3917193
-2.1408283e-05 0.0007372597 -0.021879798 -0.11304123 -3.2359444e-06 0.10552466 -0.20608531 -0.070259474
1.6314291e-06 0.1613967 9.719868e-06 -0.068644896 1.0100178e-05 -0.0037790968 -6.6474065e-08 3.8342463e-07
-3.671691e-06 -3.85056e-06 0.031724285 0.08114262 -0.018266406 -5.9203926e-06 0.05211181 -0.10110768
-0.014970585 0.023745874 0.0017830638 -0.040104892 0.0017823483 0.032539655 0.00038206868 0.019225394
-0.042992655 -0.049845424 -5.7766115e-06 -0.0329261 -7.020125e-06 0.00036957348 -0.29838562 -0.4159756
-3.2100982e-06 -0.08555335 -0.0103774555 -0.072488375 -1.6103633e-05 0.40630838 -5.9155914e-06 -0.0528904
00000000: 1d45 5135 0a05 15be 490b 94b5 8f39 4f3d
00000010: 4e80 06b6 1c0d f439 5066 8933 5dcc 30b4
00000020: 4ca6 4d35 be96 0136 f8cb 3dbb 048b d43c
00000030: 53be af3d 054b ef34 5981 09be cd08 4d3d
00000040: 953d 063b b572 d03c 12f3 443a 7422 92bd
00000050: 8dd4 80ba 07e1 e2bc c67a fb38 0779 673c
00000060: 3248 0d3e 91f4 99bd 21a3 6f37 10fc 593e
00000070: 03c5 16b7 a090 8c3a 71a9 1abd dc9b a03d
00000080: 37de a635 49a7 5c3d 8d08 ba3d 8531 943e
00000090: 463e b8b6 62cc c5bd 6bf6 3fb6 46ab b9bc
000000a0: adbe 5d34 f437 07bb 20dc 1236 df78 5a35
000000b0: cefe a2b5 c893 d3b5 df74 8e3b 9864 fabd
000000c0: 4bbb 45be 9f78 fa35 b1e6 3bbc a740 303e
000000d0: de99 643d cba6 f73d f8b4 3d3b 73d4 70bd
000000e0: 677e b0ba 81fc f8bd 6d04 eab9 5a2a c6bd
000000f0: 6726 81be a3eb 2abd 35e8 0237 94c8 1d3e
00000100: 0cb6 92b3 312c a6b9 8653 3c3e acd5 86bd
00000110: ce79 0c36 6f4f a4bd d8b1 153e e0ad 0ebe
00000120: 654f 5fb6 5a84 a1bd f11a f2b6 3d40 bfbb
00000130: c03c 5cb7 3659 633c ef9d 8fb5 7e18 8235
00000140: 3ba8 07b4 b102 e835 c924 0b3c 667c 883d
00000150: 084a 453e c0a1 6035 4cf9 3e3d f093 1d3d
00000160: 869e 0f3d 1773 82bd f1dc 1bbb 4ed3 a23d
00000170: feea aeb7 54b0 813d 933c 2db8 2a00 093d
00000180: 5ced 893a 4921 f83c 9f95 0734 6cd4 c9bd
00000190: 0134 5d35 f909 fcb9 0cc4 9a3d 4752 ab3d
000001a0: bace 6936 c1e0 0bbd 1209 9a3c ef7f ad3c
000001b0: a74d acb6 2487 283d f935 50b6 f3c6 1d3f
000001c0: 4635 9ab6 53f9 c93c 45c7 bdb4 36d3 10b5
000001d0: edd5 97b6 bb45 be34 713f b5bd 9f31 09bd
000001e0: ad6e 2a3d ffd8 3b35 9c5a 943c 0885 513c
000001f0: a309 77bc 1e25 f7bd 6e3d 2b3b b025 9abc
00000200: 31a6 5338 ccf2 dcb9 af01 15b9 ff88 78bd
00000210: 7271 2ebe 1382 ed3c 03d0 8436 c798 7ebd
00000220: ee9c 89b7 579f aab8 55c7 a6bd 9b2b a3bd
00000230: 13f5 1eb5 01c2 3dbd 3668 aebd 28ce fbbd
00000240: 524e b336 9c19 2dbb 984c 5ab5 442c 2cbd
00000250: ba8d 9d35 04c5 493b 9d5a 2d36 c3a2 fbb5
00000260: 8e15 9135 4dd8 13b5 8313 21b9 9236 12ba
00000270: 653c 29bb 8f5b 9235 daf9 513c e25d 8ebd
00000280: 35af 6f3a 297b ad3d 2c46 d3b9 f7b5 fc3d
00000290: 188a 1739 2cf0 0d3c 4cb2 e738 0803 64bc
000002a0: 34b1 04be 92cb 663e 6799 c7b6 35d9 a3bd
000002b0: 8b72 a233 af28 193a 69d8 b9bd aaf0 39bc
000002c0: 2af8 beb5 e964 f83d 9221 62bc da91 863e
000002d0: a936 8eb7 a23d 373d da80 d4b6 d21a 6c3d
000002e0: 2ede beb5 7560 26bd 12d0 efb5 71ea 3c35
000002f0: a282 e0b6 abbf 8c35 e5a0 903d db94 dcbd
00000300: 95bc d5bd 6253 0936 efe1 4ebe d2bf 2e3e
00000310: bc9e e23c c49a 04be 9df0 ac3b 8879 6c3a
00000320: d30e 7ebb 862f 73be 53e9 6bb9 5c00 803c
00000330: d644 37be 1048 013c 9b8f 4a36 6f8f c83e
00000340: f095 b3b7 a944 413a 433d b3bc 2982 e7bd
00000350: 1a29 59b6 501d d83d 0708 53be 33e4 8fbd
00000360: 7af7 da35 2d45 253e 8412 2337 b295 8cbd
00000370: ef73 2937 b9aa 77bb 81c0 8eb3 7bd9 cd34
00000380: 2c67 76b6 0f34 81b6 53f1 013d 1a2e a63d
00000390: 6ea3 95bc c9a7 c6b6 3173 553d 8b11 cfbd
000003a0: 2f47 75bc b586 c23c b1b5 e93a 0745 24bd
000003b0: af9d e93a 4d48 053d 6450 c839 937e 9d3c
000003c0: 1119 30bd b72a 4cbd b7d4 c1b6 85dd 06bd
000003d0: 6a8e ebb6 50c3 c139 00c6 98be c1fa d4be
000003e0: 116d 57b6 9836 afbd 3406 2abc c974 94bd
000003f0: 4a16 87b7 a707 d03e 8b7e c6b6 9ba3 58bd

features.denseblock1.denselayer2.norm2.weight f4 [48]
0.42111018 0.2019315 0.23328851 0.122091524 0.44335127 0.32001534 0.24359147 0.3159464
0.23729104 0.23023665 0.43118456 0.14387454 0.19263244 0.23937505 0.0006245648 0.26548123
0.07459183 0.08881512 0.15458038 0.23453398 0.28077152 0.23567846 0.21771446 0.25867775
0.44323424 0.24601798 0.2934003 0.30785552 0.3429471 0.3866517 0.26109892 0.27495524
0.30607194 0.2821905 0.06771037 0.27420703 0.13330403 0.23066506 0.105071105 0.113039516
0.042498395 0.4116124 0.16536337 0.28092924 0.2374152 0.29016966 0.26894403 0.06728312
00000000: c19b d73e 22c7 4e3e 2fe3 6e3e 1f0b fa3d
00000010: f0fe e23e 0dd9 a33e 0b70 793e bac3 a13e
00000020: 6cfc 723e 28c3 6b3e 39c4 dc3e d953 133e
00000030: 7041 453e bc1e 753e d6b9 233a 28ed 873e
00000040: 9ac3 983d b4e4 b53d 524a 1e3e ad29 703e
00000050: 49c1 8f3e b255 713e 8af0 5e3e 6971 843e
00000060: 99ef e23e 23ec 7b3e 9038 963e 3d9f 9d3e
00000070: c396 af3e 36f7 c53e c2ae 853e efc6 8c3e
00000080: 76b5 9c3e 467b 903e bcab 8a3d dd64 8c3e
00000090: da80 083e 7633 6c3e 852f d73d 4381 e73d
000000a0: cc12 2e3d dcbe d23e 0455 293e f5d5 8f3e
000000b0: f81c 733e 1e91 943e 08b3 893e bbcb 893d

features.denseblock1.denselayer2.norm2.bias f4 [48]
-0.48375595 0.23932442 -0.17563412 -0.3490392 -0.4501619 0.31682807 0.37069467 -0.0016559871
0.19491677 -0.22150595 -0.45681494 -0.08342015 0.042282645 0.43247655 -0.006404898 0.02380424
0.19221129 -0.038520742 0.0026775778 0.19059354 0.38232175 0.35372752 -0.1154394 0.10887971
0.4591741 0.40606922 0.43756256 -0.014281178 -0.4041871 -0.14021768 -0.20927997 -0.17584708
-0.15530635 0.07212621 0.117327325 0.1357416 0.096689634 0.2200003 0.12991495 -0.33902478
-0.06869699 -0.20939973 0.264703 -0.012482515 -0.11443667 0.15140362 0.010361572 0.15651466
00000000: dcae f7be 7611 753e 6ed9 33be 44b5 b2be
00000010: 9f7b e6be 4a37 a23e b1cb bd3e b50d d9ba
00000020: 4398 473e 75d2 62be a6e3 e9be 2fd8 aabd
00000030: 9130 2d3d 916d dd3e 2ee0 d1bb 1c01 c33c
00000040: 09d3 443e edc7 1dbd 4d7a 2f3b f42a 433e
00000050: adbf c33e c61b b53e 7e6b ecbd 53fc de3d
00000060: de18 eb3e 4ee8 cf3e 3308 e03e 9afb 69bc
00000070: 9df1 cebe 3995 0fbe 7d4d 56be 4211 34be
00000080: a108 1fbe e8b6 933d 4f49 f03d d9ff 0a3e
00000090: 3705 c63d c247 613e 6d08 053e a894 adbe
000000a0: 02b1 8cbd e26c 56be 2787 873e 7683 4cbc
000000b0: c65d eabd 8d09 1b3e 95c3 293c 6145 203e

features.denseblock1.denselayer2.norm2.running_mean f4 [48]
0.18668804 -0.04113583 0.008061679 -0.08623182 -0.03765437 0.13347045 -0.43419573 0.013208759
0.013265559 -0.07800265 0.033379246 -0.040632617 -0.050245382 -0.3577471 0.002765943 0.28904787
-0.030605162 0.05605953 -0.084896944 -0.20502983 0.020861143 -0.014698532 0.267252 0.009825335
-0.39579204 -0.23052338 0.14733443 0.38115445 0.15048295 0.14058153 0.12697153 0.24348186
0.26821172 -0.13279866 -0.05280017 -0.08371861 0.10711483 -0.09891098 -0.0061474387 0.0033967332
0.033830177 0.23401736 0.012313031 -0.013251946 -0.0717952 -0.17307211 0.03433256 0.0083931405
00000000: 262b 3f3e 0b7e 28bd 2215 043c 4f9a b0bd
00000010: 783b 1abd 7aac 083e e74e debe 8d69 583c
00000020: ca57 593c dabf 9fbd adb8 083d 636e 26bd
00000030: 1ace 4dbd a12a b7be d344 353b 15fe 933e
00000040: adb7 fabc ad9e 653d 73de adbd 57f3 51be
00000050: fde4 aa3c 1dd2 70bc 41d5 883e 71fa 203c
00000060: 41a5 cabe 520e 6cbe d6de 163e ad26 c33e
00000070: 3418 1a3e 9bf4 0f3e d304 023e 4f53 793e
00000080: 0c53 893e 5ffc 07be fe44 58bd aa74 abbd
00000090: 055f db3d d791 cabd 7470 c9bb ba9b 5e3b
000000a0: 8391 0a3d 3fa2 6f3e 98bc 493c b11e 59bc
000000b0: 5d09 93bd d139 31be 4ca0 0c3d 6283 093c

features.denseblock1.denselayer2.norm2.running_var f4 [48]
0.011559501 0.030074196 0.0038186915 0.021830633 0.008050845 0.027023887 0.01810115 0.013440891
0.023660915 0.0022315364 0.006608979 0.0010973021 0.0063525615 0.021926304 4.450572e-06 0.024650922
0.005499917 0.00066719716 0.0014964876 0.023694867 0.032129705 0.022559827 0.004269198 0.022361508
0.058531795 0.024831424 0.030786812 0.007884161 0.007556289 0.0116815595 0.0038246245 0.006470286
0.006717131 0.03173952 0.0042214054 0.027420096 0.0039071655 0.028768277 0.0061891037 0.022533296
0.00097185856 0.013919704 0.011134836 0.0064295316 0.00669611 0.039489515 0.0099163465 0.0037077393
00000000: 1064 3d3c 295e f63c 0343 7a3b 28d6 b23c
00000010: b1e7 033c 3361 dd3c dd48 943c 2f37 5c3c
00000020: 89d4 c13c f83e 123b 2290 d83b 59d3 8f3a
00000030: 2629 d03b cb9e b33c 1f56 9536 bbf0 c93c
00000040: a638 b43b d8e6 2e3a cb25 c43a bd1b c23c
00000050: 709a 033d 63cf b83c a1e4 8b3b 7b2f b73c
00000060: 09bf 6f3d 456b cb3c a034 fc3c 912c 013c
00000070: bf9a f73b 0364 3f3c 8da6 7a3b b104 d43b
00000080: 611b dc3b 4d01 023d b753 8a3b 1ca0 e03c
00000090: ae07 803b 73ab eb3c f7cd ca3b bf97 b83c
000000a0: 53c4 7e3a 780f 643c e36e 363c d2ae d23b
000000b0: 0b6b db3b c2bf 213d 2c78 223c 8bfd 723b

features.denseblock1.denselayer2.conv2.weight f4 [12, 48, 3, 3]
0.03249694 0.043352265 0.0494504 0.04468863 -0.031361137 -0.083522044 0.034022227 0.029907344
0.043928683 0.07957311 0.010055811 -0.08219665 -0.014157203 -0.04393132 0.011327237 -0.11943775
-0.03459217 0.11970887 -0.0150265135 0.04534586 0.1166337 -0.05957112 -0.00012615047 0.041528154
0.027277082 -0.02449007 -0.08176563 -0.030604543 -0.017764315 0.015202906 -0.09188972 -0.059221752
0.06022138 -0.059031375 0.052220754 -0.041911494 -0.08974278 -0.02879197 0.0026000477 -0.08969648
-0.039244093 0.022774473 -0.10883142 -0.0536582 0.025935348 -0.12307503 0.027502535 0.09362406
0.11188034 0.024000261 -0.06177464 -0.12920602 -0.017132608 0.14717324 -0.000121100245 0.07994253
-0.025841586 0.13845317 0.10578807 -0.08385913 0.084536195 0.0016948474 -0.052316926 -0.02935315
0.044200346 0.031542514 0.16586539 -0.04316471 -0.058542464 0.025744736 -0.08138502 0.0025165745
-0.0924481 -0.029408522 0.06607208 -0.17995162 -0.0006855905 0.1256244 -0.08657154 0.029332792
-0.06525137 0.060865216 0.00035869103 -0.033726126 -0.05536524 -0.046760492 -0.03737578 -0.034679964
-0.0004339027 0.03687754 -0.08235396 -0.032240048 0.0026690508 -0.08974701 -0.042921323 0.017575122
-0.11425355 -0.06244889 0.018668624 0.0018274272 0.009667242 -0.010645687 0.04680165 -0.027959064
-0.05146741 -0.001975998 -0.016346868 -0.0031158142 0.066099934 0.016929707 -0.053136237 0.103119485
-0.0117031215 -0.08739899 0.11145429 -0.0014222632 -0.058073603 -0.0039833547 0.04161776 -0.029685374
0.06779985 0.0494026 -0.09318566 0.025289275 -0.047586437 -0.06578737 0.00020898682 0.00011108672
-0.00025552663 -0.0008742221 0.00042429785 -0.0010256626 -0.0011808994 -0.0015850156 -0.00041993463 -0.047506038
-0.001922019 0.02654581 -0.11566354 -0.018130027 0.023265356 -0.19622935 0.045572132 0.13386498
0.043015625 0.009377376 -0.05062808 -0.011939506 -0.020063566 -0.006891936 -0.073971845 -0.01908651
0.060400374 -0.023844283 -0.011820299 0.0037865096 -0.0234692 -0.0075138616 0.017437289 -0.022703499
-0.017594509 0.009035031 -0.011243748 0.012399225 -0.022034759 0.045124065 -0.027077975 -0.06547252
0.021171758 -0.02269276 -0.025623407 -0.035404462 0.04490796 0.009212802 0.039175183 0.11183089
-0.0033580505 0.036620524 -0.035725147 -0.089169264 -0.124373645 -0.025383353 0.06597506 -0.14608905
0.08026844 0.1926886 -0.05805748 0.09900227 -0.012109868 0.02490057 -0.021871218 -0.09360301
-0.08151849 -0.08530894 -0.024651753 -0.09953226 -0.021318637 0.055541795 0.01825546 0.0019122318
-0.02894865 -0.021826353 -0.013233373 -0.011824595 -0.0070190015 0.01765994 0.0010128523 -0.043046437
0.052186318 0.0054029427 -0.00823742 0.080389164 -0.031662516 0.0047297482 -0.05323144 -0.04304911
-0.024381101 -0.040691633 -0.100033045 -0.15457802 -0.020182166 0.1927733 0.024841482 0.04574726
-0.03149659 -0.07783024 -0.013937181 -0.013774182 -0.15220882 0.049603816 0.13659674 -0.0043228325
0.042621918 -0.05724235 -0.15223306 -0.049952585 0.018598227 -0.2370385 -0.02055098 0.17967808
-0.21491995 0.08579323 0.07714771 0.098834984 -0.028018817 -0.004365345 -0.091286585 -0.048140988
0.026656056 -0.040126663 -0.0058217333 0.043658465 0.02830877 0.040523775 0.049735647 0.03493092
00000000: 831b 053d 2592 313d 818c 4a3d 6d0b 373d
00000010: 8974 00bd 9b0d abbd e45a 0b3d 3f00 f53c
00000020: 90ee 333d 3af7 a23d 21c1 243c b856 a8bd
00000030: 9df3 67bc 54f1 33bd e095 393c c79b f4bd
00000040: 85b0 0dbd ed29 f53d c431 76bc 95bc 393d
00000050: a6dd ee3d d900 74bd 4247 04b9 6d19 2a3d
00000060: 3074 df3c 669f c8bc bd74 a7bd 61b6 fabc
00000070: 7886 91bc 9c15 793c ad30 bcbd 8292 72bd
00000080: b2aa 763d e2ca 71bd 6ee5 553d 63ab 2bbd
00000090: 10cb b7bd 23dd ebbc 9065 2a3b cab2 b7bd
000000a0: 6abe 20bd 8891 ba3c 02e3 debd b3c8 5bbd
000000b0: 5e76 d43c c30e fcbd ff4c e13c f9bd bf3d
000000c0: 8521 e53d 329c c43c 6807 7dbd 954e 04be
000000d0: af59 8cbc 95b4 163e 33f7 fdb8 e9b8 a33d
000000e0: bcb1 d3bc abc6 0d3e 6aa7 d83d 56be abbd
000000f0: 5021 ad3d a425 de3a 464a 56bd 0476 f0bc
00000100: 6c0b 353d b932 013d 9ed8 293e 7bcd 30bd
00000110: 39ca 6fbd a0e6 d23c 30ad a6bd 1ded 243b
00000120: 6e55 bdbd 24ea f0bc cc50 873d 3d45 38be
00000130: 33b9 33ba afa3 003e 6b4c b1bd 534b f03c
00000140: 83a2 85bd ce4d 793d b20e bc39 6824 0abd
00000150: a9c6 62bd ee87 3fbd 5917 19bd 940c 0ebd
00000160: 6f7d e3b9 e70c 173d 31a9 a8bd 240e 04bd
00000170: 3eeb 2e3b 48cd b7bd 45ce 2fbd b4f9 8f3c
00000180: c4fd e9bd 68ca 7fbd f1ee 983c 4886 ef3a
00000190: 5a63 1e3c 3f6b 2ebc 16b3 3f3d 680a e5bc
000001a0: 7ecf 52bd bf7f 01bb dee9 85bc b032 4cbb
000001b0: 675f 873d 2bb0 8a3c 62a5 59bd 4f30 d33d
000001c0: 73be 3fbc 3efe b2bd 2642 e43d 3c6b baba
000001d0: 96de 6dbd cd86 82bb 6277 2a3d be2e f3bc
000001e0: a6da 8a3d 615a 4a3d 20d8 bebd 742b cf3c
000001f0: ffe9 42bd 87bb 86bd 7923 5b39 3bf7 e838
00000200: 34f8 85b9 0d2c 65ba 4b74 de39 876f 86ba
00000210: 69c8 9aba 4cc0 cfba ac2a dcb9 b195 42bd
00000220: 41ec fbba 9976 d93c 02e1 ecbd 6c85 94bc
00000230: fd96 be3c 59f0 48be d8a9 3a3d e713 093e
00000240: 2731 303d 91a3 193c 645f 4fbd eb9d 43bc
00000250: 595c a4bc c0d5 e1bb 8d7e 97bd 505b 9cbc
00000260: 6266 773d 1655 c3bc eda9 41bc 1727 783b
00000270: 7b42 c0bc d736 f6bb a5d8 8e3c b0fc b9bc
00000280: 5c22 90bc ab07 143c b237 38bc 1e26 4b3c
00000290: 3d82 b4bc 03d4 383d a1d2 ddbc 7516 86bd
000002a0: 6570 ad3c 2be6 b9bc 2ee8 d1bc 4504 11bd
000002b0: 69f1 373d 4bf1 163c 2876 203d 9807 e53d
000002c0: bd12 5cbb 67ff 153d 8854 12bd 609e b6bd
000002d0: 9cb7 febd c0f0 cfbc ef1d 873d 5e98 15be
000002e0: c863 a43d 2950 453e aecd 6dbd b4c1 ca3d
000002f0: 7868 46bc 48fc cb3c 452b b3bc efb2 bfbd
00000300: 2bf3 a6bd 74b6 aebd 79f2 c9bc 92d7 cbbd
00000310: 6ca4 aebc cb7f 633d 798c 953c daa3 fa3a
00000320: b825 edbc 2ecd b2bc cad0 58bc f2bb 41bc
00000330: a7ff e5bb 94ab 903c afc1 843a 7651 30bd
00000340: 52c1 553d 2b0b b13b 3ef6 06bc 13a3 a43d
00000350: 8eb0 01bd 01fc 9a3b 3609 5abd 4354 30bd
00000360: e0ba c7bc 45ac 26bd 20de ccbd b349 1ebe
00000370: 1255 a5bc 5d66 453e 5d80 cb3c 7b61 3b3d
00000380: 9102 01bd 7665 9fbd c658 64bc 1bad 61bc
00000390: a1dc 1bbe 5f2d 4b3d 04e0 0b3e 8ca6 8dbb
000003a0: 5294 2e3d f476 6abd fce2 1bbe 159b 4cbd
000003b0: 4f5b 983c 38ba 72be 875a a8bc 88fd 373e
000003c0: fa13 5cbe 5cb4 af3d 9eff 9d3d ff69 ca3d
000003d0: b887 e5bc 2b0b 8fbb 76f4 babd 7c2f 45bd
000003e0: cd5d da3c db5b 24bd 3dc4 bebb 38d3 323d
000003f0: cbe7 e73c 42fc 253d 9bb7 4b3d b913 0f3d

features.denseblock1.denselayer3.norm1.weight f4 [48]
0.90496457 0.00023780215 7.0955025e-07 0.102879584 0.0029034282 0.22984219 0.048882805 0.18008867
2.9375205e-06 0.0037663563 0.0008562008 7.272339e-06 0.1589675 1.0474182 0.17725502 0.019784652
4.32874e-06 0.12679799 0.1691512 0.27451015 0.00024960385 2.2966135e-06 0.095863864 0.005842275
0.24610354 0.14409652 0.19053277 0.041988965 1.3842773e-06 0.0043103476 0.1854025 0.27534214
0.0006008225 0.3860131 7.823814e-07 0.24799593 0.29916707 0.2819648 0.32360625 0.3342541
0.33236519 0.29934892 0.25259402 0.35037166 0.3628081 0.10326592 0.36778644 0.45999023
00000000: c2ab 673f 875a 7939 ec77 3e35 88b2 d23d
00000010: 7147 3e3b c05b 6b3e 5639 483d 2a69 383e
00000020: 3822 4536 f9d4 763b aa72 603a eb04 f436
00000030: 60c8 223e cd11 863f 5782 353e 6c13 a23c
00000040: 983f 9136 55d7 013e f935 2d3e 988c 8c3e
00000050: 43dd 8239 851f 1a36 4654 c43d 8e70 bf3b
00000060: 9102 7c3e 0a8e 133e 061b 433e 9ffc 2b3d
00000070: 68cb b935 d13d 8d3b 27da 3d3e a5f9 8c3e
00000080: 8480 1d3a 82a3 c53e d704 5235 a5f2 7d3e
00000090: 6d2c 993e b15d 903e b8af a53e 5a23 ab3e
000000a0: c52b aa3e 4344 993e 0154 813e ea63 b33e
000000b0: fcc1 b93e 157d d33d 814e bc3e d783 eb3e

features.denseblock1.denselayer3.norm1.bias f4 [48]
-0.42095053 -0.00025538763 -3.2319113e-06 0.20977288 -0.0042660106 0.044654995 -0.07045959 0.10955941
-6.2613353e-06 -0.0072030234 -0.0014677175 -1.7944256e-05 0.2312565 -0.45233744 0.18114692 -0.006447723
-9.448033e-06 0.26069042 0.37118936 0.25603634 -0.00048314148 -5.9089452e-06 0.100138634 -0.007862465
0.107062705 -0.03085497 -0.069126405 0.10913897 -2.6510108e-05 -0.010017308 0.1258975 0.19506739
-0.010212175 0.13285135 -4.69272e-06 0.03070466 0.07058171 0.054578684 -0.16591872 0.028823216
-0.08828718 0.19513535 0.1234629 0.117104106 0.35955662 0.0033634969 0.6604333 0.37443456
00000000: d486 d7be 8ce5 85b9 d0e3 58b6 b4ce 563e
00000010: e4c9 8bbb 28e8 363d 1e4d 90bd af60 e03d
00000020: 7618 d2b6 5707 ecbb 6d60 c0ba ff86 96b7
00000030: 81ce 6c3e c698 e7be 947e 393e 6c47 d3bb
00000040: fe82 1eb7 3779 853e 880c be3e 3217 833e
00000050: 274e fdb9 7445 c6b6 7c15 cd3d 92d1 00bc
00000060: b143 db3d 90c3 fcbc 2592 8dbd 4184 df3d
00000070: 0662 deb7 a31f 24bc 46eb 003e bfbf 473e
00000080: f750 27bc 2f0a 083e 2876 9db6 5788 fb3c
00000090: 258d 903d e68d 5f3d 99e6 29be aa1e ec3c
000000a0: e9cf b4bd 90d1 473e 1eda fc3d 47d4 ef3d
000000b0: ce17 b83e 1d6e 5c3b 2812 293f e3b5 bf3e
