models/densenet-cifar/40-12-pp/model_best.pth.tar (torch_old, 775169 bytes, 197 tensors)

features.conv0.push.weight f4 [24, 3, 3, 3]
0	0xbe1aebfb	-0.15129082
1	0x3cab7254	0.02092854
2	0x3e0cee23	0.13762717
3	0x3f27c1e8	0.6553025
4	0x3d886af2	0.06661023
5	0xbf3256ad	-0.69663507
6	0xbd949ede	-0.07256864
7	0x3dafddff	0.08587264
8	0x3e4c1fed	0.19934054
9	0x3de3b80c	0.111190885
10	0x3dad5eb0	0.08465326
11	0x3a32fd46	0.0006827902
12	0x3f553326	0.8328117
13	0xbd76c750	-0.060248673
14	0xbf6e3be3	-0.9306013
15	0xbe1f365b	-0.15548079
16	0xbd81135a	-0.06302519
17	0x3e40ce2d	0.1882865
18	0xbd92cce3	-0.07167985
19	0x3e29cc70	0.16581893
20	0x3d0ebc2f	0.034847435
21	0x3f30f0b3	0.6911728
22	0x3e713874	0.23556691
23	0xbf5b4749	-0.8565565
24	0xbdce8980	-0.1008482
25	0x3da865a4	0.082225114
26	0xbcac2549	-0.021013873
27	0xbe11bcb8	-0.14232147
28	0x3f0667bf	0.52502054
29	0xbe77eaa4	-0.24210602
30	0x3e9f8c6e	0.31161827
31	0xbfbb2b05	-1.4622504
32	0x3e82d690	0.25554323
33	0xbe46221f	-0.19348954
34	0x3f01109e	0.5041598
35	0xbdea08e4	-0.11427477
36	0xbde78e94	-0.113064915
37	0xbe6d10cf	-0.23150943
38	0xbd0ead64	-0.034833327
39	0x3dde1cd0	0.10845339
40	0xc01281dc	-2.289176
41	0x3e7af340	0.24506855
42	0x3d450606	0.048101448
43	0x3e431c8b	0.19053857
44	0xbb79f965	-0.0038143035
45	0xbc0a974a	-0.008458922
46	0x3e5b473c	0.21413893
47	0x3cb2c080	0.021820307
48	0x3e0f50d4	0.13995677
49	0xbf7ce280	-0.9878311
50	0x3e77e613	0.2420886
51	0xbe18c098	-0.14917219
52	0x3db92d14	0.09041801
53	0xbd4fac75	-0.050701577
54	0xbdcc3c1a	-0.09972401
55	0x3e77a306	0.24183282
56	0x3eefb952	0.46821076
57	0xbf29fde2	-0.6640302
58	0xbe125907	-0.14291774
59	0x3f0d9076	0.55298555
60	0xbf0bf3d7	-0.54668945
61	0xbebb7bcb	-0.36617884
62	0x3e87e1fd	0.26539603
63	0x3d546d0d	0.05186181
64	0xbdf6cb68	-0.120505154
65	0x3cda3e74	0.026641108
66	0x3d2f2145	0.042756338
67	0xbe0b61e2	-0.13611558
68	0xbe2a55ad	-0.16634245
69	0x3dc2c5c6	0.095103785
70	0xbd19e2ac	-0.037569687
71	0x3d8e0d89	0.069361754
72	0x3e6edc1c	0.23326153
73	0xbe2d9cd2	-0.16954353
74	0xbeecc04c	-0.4624046
75	0x3f4434ca	0.7664305
76	0x3ea07aea	0.31343776
77	0xbf2947d3	-0.6612522
78	0x3f17a1fd	0.5923155
79	0x3e9c8c7d	0.30575934
80	0xbe8f68f9	-0.28009775
81	0xbdfa2dd5	-0.12215773
82	0xbe8b6a26	-0.27229422
83	0x3c39efed	0.011348707
84	0xbee50819	-0.4473274
85	0x3e52815c	0.20557159
86	0xbf52fa65	-0.8241332
87	0xbe194865	-0.14969023
88	0xbe954d6a	-0.29160625
89	0x3d84cf48	0.06484848
90	0xb9d20ae1	-0.00040062427
91	0xbe7ec87d	-0.24881168
92	0x3c9d2b06	0.019185554
93	0xbdbefa1f	-0.093250506
94	0x3f2ffcec	0.68745303
95	0xbf4ed699	-0.807962
96	0x3daad4db	0.0834138
97	0x3d0e19e4	0.03469266
98	0x3e09a87a	0.13443175
99	0xbe84e4c2	-0.25955778
100	0xbeb15731	-0.34636834
101	0x3df2c578	0.118540704
102	0xbe6933ba	-0.22773638
103	0x3edd8d14	0.43271697
104	0xbf1823f7	-0.5942988
105	0x3d78417e	0.060609333
106	0xbc49d363	-0.012318465
107	0x3ddb6925	0.10713414
108	0xbeb0508a	-0.34436446
109	0x3f59907b	0.84986085
110	0x3d1e271a	0.03861151
111	0x3edc6329	0.43044403
112	0x3fe46277	1.7842549
113	0x3fa78c85	1.3089758
114	0xbef69ca1	-0.48166373
115	0x3f11e153	0.5698444
116	0xbe34a0ed	-0.17639513
117	0xbd0bb8ea	-0.034111895
118	0xbead4d53	-0.33848056
119	0xbf166a18	-0.58755636
120	0x3e2d3364	0.16914135
121	0xbfbc7a2a	-1.4724782
122	0xbf0ef290	-0.5583887
123	0x3d9390d1	0.07205356
124	0xbd578c74	-0.05262418
125	0xbe8596fa	-0.26091748
126	0x3d2380f3	0.039917897
127	0xbea8500f	-0.3287358
128	0x3bbfd04a	0.0058536874
129	0x3de5ac63	0.11214521
130	0xbfe7623c	-1.8076854
131	0xbe8a9f03	-0.2707444
132	0x3c121b33	0.008917618
133	0xbd208d54	-0.03919728
134	0x3dc4bda7	0.09606486
135	0xbd3d9d68	-0.046292692
136	0xbde9c27f	-0.1141405
137	0xbd575ddd	-0.05257975
138	0x3dbff0e0	0.09372115
139	0xbbc40633	-0.0059821843
140	0xbd346292	-0.044039316
141	0xbd0413cf	-0.032245453
142	0xbe11fec2	-0.14257339
143	0xbd59c874	-0.053169683
144	0x3d42212e	0.047394924
145	0xbb0f9153	-0.0021906688
146	0x3cf64212	0.030060802
147	0x3e66f2c9	0.22553553
148	0x3e26fddc	0.16307777
149	0x3da31ddc	0.079646796
150	0x3d1ed6e6	0.038779162
151	0xbc35b8bd	-0.011091408
152	0x3d3c380b	0.045951884
153	0xbba94e6a	-0.0051668184
154	0xbd31971c	-0.043357
155	0x3c0efc35	0.008727123
156	0x3e1f8974	0.15579778
157	0x3e12b90a	0.143284
158	0x3db8a470	0.09015739
159	0xbb817748	-0.003950987
160	0xbcf588e3	-0.0299725
161	0x3ce1bd38	0.027556047
162	0x3d78943d	0.060688246
163	0xbef22a2c	-0.472978
164	0x3ddc7c5e	0.10765909
165	0xbef22c5a	-0.47299463
166	0x3e1f8103	0.15576558
167	0xbe80d066	-0.25158995
168	0x3ccb5fbe	0.024825927
169	0xbf10907d	-0.5647047
170	0xbdcf9d02	-0.10137369
171	0x3e456674	0.19277364
172	0xbb92ed29	-0.004483838
173	0x3e2ae983	0.1669064
174	0xbe864e93	-0.26231822
175	0x3f91475b	1.1349901
176	0xbd13fd4b	-0.03613023
177	0x3e3773dd	0.17915292
178	0xbe3c0f9b	-0.18365328
179	0x3de485d9	0.11158342
180	0x3c8f883f	0.017521022
181	0x3e0f19c5	0.13974674
182	0xbc001773	-0.007818091
183	0xbd97f9d9	-0.074207015
184	0x3fd31a12	1.6492331
185	0x3d71a3c2	0.058994062
186	0x3d989591	0.074504025
187	0x3e3ed50c	0.18635958
188	0x3c874d83	0.016516453
189	0x3e2f2e6a	0.1710755
190	0x3de8970e	0.113569364
191	0x3e0e7a4f	0.13913845
192	0x3d4732f7	0.04863259
193	0xbe8c9206	-0.27455157
194	0x3dd8519b	0.1056244
195	0xbc0e963c	-0.008702811
196	0x3c62a276	0.013832679
197	0x3d9f1030	0.077667594
198	0x3defdbda	0.11711855
199	0x3b399a6b	0.00283208
200	0x3dc44b9f	0.09584736
201	0x3d0ffe7f	0.035154816
202	0xbed303fa	-0.4121397
203	0x3d1677b4	0.03673525
204	0x3d51bb6c	0.05120413
205	0x3c195a15	0.009359856
206	0x3d0bcbb3	0.03412981
207	0x3e0aac5a	0.1354231
208	0x3dcd3494	0.10019794
209	0x3e1227d6	0.14273009
210	0x3d993b7c	0.07482049
211	0xbe5ac0ce	-0.21362612
212	0x3da4eb8f	0.08052742
213	0x3d6143ea	0.05499641
214	0x3d03bdc9	0.032163415
215	0x3cfbd7cf	0.030742554
216	0xbdb83f7f	-0.08996486
217	0xbe81431b	-0.2524651
218	0x3bf3b595	0.0074374177
219	0x3f0a7713	0.5408794
220	0x3ecbbe9f	0.3979387
221	0xbdc1d548	-0.09464508
222	0xbd08bc46	-0.033382677
223	0xbe1eb848	-0.15499985
224	0xbbd8003f	-0.006591826
225	0x3ded99d5	0.11601607
226	0xbd78dd81	-0.060758118
227	0x3e08958f	0.13338302
228	0x3f44c364	0.7686064
229	0x3f0361a7	0.5132088
230	0xbd552f00	-0.052046776
231	0x3d71ec09	0.05906299
232	0xbe0ca7d3	-0.13735895
233	0xbb9aab54	-0.004720131
234	0xbdadb311	-0.0848142
235	0xbe9bcd5c	-0.30430114
236	0xbd24fe9f	-0.040281888
237	0x3e9da6f0	0.30791426
238	0xbcc5421a	-0.024079371
239	0xbe9c4911	-0.30524495
240	0xbd751c3b	-0.059841376
241	0xbe811fa8	-0.25219464
242	0xbd8e18d0	-0.06938326
243	0xbb9700d7	-0.0046082544
244	0xbb9bb8f5	-0.004752273
245	0xbb9d3b42	-0.004798324
246	0xbbb3544b	-0.005472695
247	0x3c60c802	0.013719561
248	0xbbf4b0c8	-0.007467363
249	0xbb81d437	-0.0039620656
250	0xbb0606f4	-0.0020450922
251	0x3a756be5	0.0009362086
252	0xbb5f501f	-0.0034074856
253	0xbb3039c9	-0.0026889911
254	0xbb969170	-0.004594974
255	0xbbcdad36	-0.006276752

features.denseblock1.denselayer1.norm1.weight f4 [24]
0	0x3b5c1f36	0.003358794
1	0x3fdfd80d	1.7487808
2	0x39992883	0.00029212618
3	0x392594c4	0.00015791046
4	0x3fad1d96	1.3524654
5	0x3dd6dcc4	0.104913265
6	0x3fb32ae5	1.3997465
7	0x3a8583f7	0.0010186423
8	0x3f65b043	0.8972208
9	0x38ba2b1e	8.877202e-05
10	0x39c96249	0.00038410936
11	0x3f4b9803	0.79528826
12	0x3e1551a8	0.1458193
13	0x37ae7add	2.0799629e-05
14	0x3f39f331	0.72636706
15	0x3e015962	0.12631753
16	0x3fa6e8e4	1.3039823
17	0x364c3b60	3.043293e-06
18	0x3f2697b1	0.6507521
19	0x3cfd52c1	0.03092325
20	0x3ae0fc4e	0.0017165036
21	0x38a2d4b3	7.76438e-05
22	0x3f8f9160	1.121624
23	0x3f6ca134	0.92433476

features.denseblock1.denselayer1.norm1.bias f4 [24]
0	0xbbe3da63	-0.006953524
1	0xbf2173e6	-0.6306747
2	0xba47f444	-0.0007627646
3	0xb99d5c1e	-0.00030014006
4	0xbeed4ef7	-0.46349308
5	0xbe20e3ce	-0.157119
6	0xbf84f41f	-1.0387
7	0xbb04ee5f	-0.0020283682
8	0xbf155aca	-0.5834166
9	0xb94f416c	-0.0001976543
10	0xba456b8d	-0.000753098
11	0xbefe7360	-0.496974
12	0x3ccf6528	0.02531679
13	0xb852ce40	-5.0259987e-05
14	0xbeaccd23	-0.33750257
15	0xbe05867f	-0.13039587
16	0xbf4115cc	-0.75423884
17	0xb6ec4306	-7.0411506e-06
18	0xbee8dfe3	-0.45483312
19	0xbd89d273	-0.06729593
20	0xbb55bb2e	-0.0032612788
21	0xb9441b33	-0.00018702149
22	0xbeb71646	-0.3575918
23	0xbf02553e	-0.5091132

features.denseblock1.denselayer1.norm1.running_mean f4 [24]
0	0xc054c0e8	-3.324274
1	0xc0da09cb	-6.8136954
2	0xbf71bdf0	-0.94430447
3	0xbfd4a017	-1.6611356
4	0xc07685cc	-3.8519163
5	0xbff67398	-1.9254026
6	0xc10dd2ee	-8.8639965
7	0xbf474102	-0.7783357
8	0xc08d3676	-4.412898
9	0xbca7aa88	-0.020467058
10	0xbfc5233a	-1.5401375
11	0xc0300465	-2.7502682
12	0xc08f73ab	-4.4828696
13	0xc01ba842	-2.4321446
14	0xc0180f83	-2.3759468
15	0xbfea15f2	-1.8287947
16	0xc0d1cf2b	-6.556539
17	0xc09ad41c	-4.8383923
18	0xc015ee09	-2.3426535
19	0xc089e321	-4.3089757
20	0xbd8129af	-0.06306779
21	0xc020ed54	-2.5144854
22	0xc0701ac8	-3.7516346
23	0xc0c127b9	-6.036099

features.denseblock1.denselayer1.norm1.running_var f4 [24]
0	0x42257892	41.367744
1	0x438ae9f1	277.82767
2	0x40a1feda	5.06236
3	0x421ae1ed	38.72063
4	0x42c162b3	96.69277
5	0x40dfcced	6.9937654
6	0x42f41e6f	122.05944
7	0x404d1246	3.2042403
8	0x42264b26	41.573387
9	0x3c0e73f5	0.0086946385
10	0x40e3da4a	7.1203966
11	0x41bb92e7	23.44673
12	0x428587fc	66.765594
13	0x41f135bb	30.151236
14	0x423223e8	44.535065
15	0x41c18292	24.188755
16	0x42b5e5c8	90.94879
17	0x42c41729	98.045235
18	0x41c4b768	24.589554
19	0x429014a9	72.04035
20	0x3c10a38f	0.008828058
21	0x41cb6260	25.423035
22	0x42b00002	88.000015
23	0x42a51161	82.53394

features.denseblock1.denselayer1.conv1.weight f4 [48, 24, 1, 1]
0	0x3a301664	0.00067172037
1	0x3f0d0e3d	0.5509985
2	0xb89e9611	-7.561979e-05
3	0x36108dac	2.1540136e-06
4	0xbe04c0a1	-0.12964107
5	0x3c6debc7	0.014521546
6	0x3e096978	0.1341914
7	0xb9463447	-0.00018902226
8	0xbca0b020	-0.019615233
9	0xb7a02dae	-1.9094758e-05
10	0xb8a31598	-7.776468e-05
11	0xbd82c6e0	-0.06385589
12	0xbda3099f	-0.079608195
13	0xb45ab81e	-2.0369814e-07
14	0xbdeae09c	-0.11468622
15	0x3ccaa7cf	0.02473822
16	0xbc90099c	-0.017582707
17	0xb61a4323	-2.2986867e-06
18	0xbd4785e7	-0.048711684
19	0x3bdb8607	0.006699327
20	0xba13fed7	-0.0005645579
21	0x37f8385b	2.9590146e-05
22	0xbd04b3e0	-0.032398105
23	0x3cf2e239	0.029648887
24	0x397d289f	0.00024143093
25	0x3dc06e36	0.09396021
26	0xb841b8c5	-4.6186866e-05
27	0xb6b8cdad	-5.507571e-06
28	0xbc469f87	-0.012122995
29	0x3d3e6686	0.046484493
30	0x3ebd0d6e	0.3692431
31	0xb987bd74	-0.0002589036
32	0x3d335b3d	0.043788183
33	0x363471e6	2.6888388e-06
34	0x393bfe6a	0.00017928486
35	0x3d7ff718	0.062491506
36	0xbd0a07d8	-0.033698887
37	0x35dd5c15	1.6492583e-06
38	0x3d796e2f	0.060896095
39	0x3c2fd1a0	0.010731131
40	0x3e360647	0.17775832
41	0x353ffe9b	7.1523544e-07
42	0x3dac3e0d	0.08410273
43	0x3c64cd54	0.01396497
44	0x3a50a892	0.0007959689
45	0xb50e36bd	-5.2978777e-07
46	0x3e2548ae	0.16141006
47	0x3dafc411	0.085823186
48	0xba8b0aad	-0.001060804
49	0xbda646d9	-0.08118982
50	0x39616751	0.0002149616
51	0xb6e993ec	-6.9611615e-06
52	0xbdac1c6d	-0.08403859
53	0xbc53ae1a	-0.012919927
54	0xbde4ab8f	-0.11165535
55	0xba5da859	-0.0008455567
56	0xbcd9332b	-0.026513657
57	0xb84d2ba7	-4.8916463e-05
58	0x39219f11	0.00015413413
59	0x3bdc6321	0.0067256843
60	0x3b53f8a6	0.003234425
61	0xb68dc9da	-4.225626e-06
62	0xba9c70e8	-0.0011935504
63	0xbcf2601b	-0.029586842
64	0xbdafa6d8	-0.08576745
65	0x3431fc10	1.657611e-07
66	0x3d21abbd	0.039470423
67	0x3da6eb1e	0.08150314
68	0x3abfd19b	0.0014634611
69	0x383cb37b	4.4989847e-05
70	0xbdc32b1d	-0.095297076
71	0x3f6d9966	0.9281219
72	0x3a1f8286	0.0006084818
73	0xbe25f3da	-0.16206303
74	0x376f4c3f	1.42632625e-05
75	0xb6a901f6	-5.0368208e-06
76	0xbdd1f5f1	-0.10251988
77	0xbbe91d66	-0.0071141003
78	0x3ba4d426	0.005030173
79	0xb954f9c9	-0.00020310948
80	0x3c53dde4	0.012931321
81	0xb7b30215	-2.1339432e-05
82	0x386d92f0	5.664205e-05
83	0x3da7f409	0.08200843
84	0x3c09765f	0.008390038
85	0xb5d36df4	-1.5752726e-06
86	0xbc092701	-0.008371116
87	0x3ceb5a3b	0.028729549
88	0x3d9b5a78	0.07585615
89	0x348d3d0c	2.6307714e-07
90	0xbe1a6d5a	-0.15080777
91	0x3d70e840	0.05881524
92	0x3a1a5453	0.0005887199
93	0x3844e251	4.6940815e-05
94	0x3f3714ad	0.71515924
95	0xbc795656	-0.015218338
96	0xbb0e2cf1	-0.0021694268
97	0xbe6e87cb	-0.23293988
98	0xb89105de	-6.915232e-05
99	0xb72aa58e	-1.0171336e-05
100	0xbdd20b30	-0.1025604
101	0xbd5ff17a	-0.05467365
102	0x3d3ff310	0.04686266
103	0x39b2212e	0.00033975526
104	0xbe10322e	-0.14081642
105	0x3804849e	3.1594762e-05
106	0xb911dd5e	-0.00013910743
107	0xbdf2fab8	-0.11864227
108	0x3d012d92	0.0315376
109	0x37318944	1.0581982e-05
110	0xbe5bf21c	-0.21479076
111	0x3d448d91	0.04798657
112	0x3d928824	0.07154873
113	0x35f5fba4	1.832716e-06
114	0xbccbe2e7	-0.024888469
115	0x3c2569c4	0.010096017
116	0xba03a8f0	-0.0005022427
117	0xb78ff04a	-1.7158822e-05
118	0xbd98f88c	-0.074692816
119	0xbe51b599	-0.2047943
120	0xb7fd5934	-3.0201489e-05
121	0xbd8f658d	-0.07001791
122	0xb775dedb	-1.4655026e-05
123	0x379680e0	1.7941406e-05
124	0x3ef887db	0.4854115
125	0xbcf78eee	-0.030219521
126	0xbde2b919	-0.11070461
127	0xb91f0276	-0.00015164338
128	0xbd590139	-0.05297968
129	0xb79853e3	-1.8158875e-05
130	0x3947bacb	0.00019047705
131	0x3da97aaa	0.082753494
132	0xbd21d961	-0.03951395
133	0xb60e6ba6	-2.1222309e-06
134	0xbdfde4a9	-0.12397129
135	0xbc4974c5	-0.012295906
136	0x3ea6e077	0.32593128
137	0xb5693106	-8.68706e-07
138	0x3e6fb6a5	0.23409517
139	0x3cb42ffa	0.021995533
140	0x3937bb8d	0.00017522108
141	0x375ecdb8	1.3280129e-05
142	0xbd52d733	-0.05147476
143	0x3dd2ebe9	0.102989025
144	0x3b1a1f2f	0.0023517122
145	0xbb2a5056	-0.0025987825
146	0xb867236c	-5.510768e-05
147	0xb896096e	-7.154314e-05
148	0x3cc85903	0.024456507
149	0xbcfb7e40	-0.03069985
150	0xbe6e4903	-0.2327004
151	0xb940b524	-0.00018378027
152	0x3cc33cf9	0.023832785
153	0xb7464c0b	-1.1819425e-05
154	0x37bd0a9a	2.2535492e-05
155	0xbd94f944	-0.07274106
156	0xbd7dccd2	-0.06196291
157	0x3526ec8b	6.2184034e-07
158	0x3c2365c3	0.009972992
159	0xbc7208c3	-0.014772597
160	0xbdd98a26	-0.10622053
161	0x366063f5	3.3436784e-06
162	0x3d4ca30b	0.049960177
163	0xbd41097b	-0.047128182
164	0x395bda50	0.00020966795
165	0x3802ebf9	3.1214182e-05
166	0x3f1c34f6	0.6101831
167	0xbd8c8ba3	-0.06862571
168	0x38b320a4	8.541465e-05
169	0xbddf676d	-0.10908399
170	0xb88ec992	-6.808633e-05
171	0xb618049a	-2.2652443e-06
172	0xbd84ce8b	-0.064847074
173	0xbc4e1bbe	-0.012579856
174	0x3d040895	0.032234747
175	0x395bdaa8	0.00020966923
176	0xbc8e66b4	-0.017382957
177	0xb6848cae	-3.950284e-06
178	0x38d32217	0.00010067614
179	0xbd4fc60b	-0.050725978
180	0xbc4a8c49	-0.012362548
181	0xb572c998	-9.044538e-07
182	0xbd46f0d0	-0.0485695
183	0xbb834aac	-0.0040067043
184	0xbddea139	-0.108705945
185	0xb5a1eb4d	-1.2063916e-06
186	0x3c646aa6	0.013941443
187	0x3bdb465e	0.006691738
188	0xb9885f02	-0.00026010728
189	0x381a366c	3.6767146e-05
190	0x3f18ea76	0.5973276
191	0xbd582112	-0.052765913
192	0x3b061bd6	0.002046337
193	0xbd8874ff	-0.0666294
194	0x39840514	0.00025180785
195	0xb83088f4	-4.2089217e-05
196	0x3f1b0613	0.60556144
197	0xbbcbb659	-0.006216806
198	0xbcabcc80	-0.020971537
199	0xb888ecdb	-6.529103e-05
200	0xbd801337	-0.06253665
201	0xb83ac798	-4.4531742e-05
202	0x38cfe9a3	9.9140474e-05
203	0xbd9cdb25	-0.07658986
204	0x3c43def5	0.011955013
205	0xb48da949	-2.6386468e-07
206	0xbdd0747d	-0.101784684
207	0xbc1fc965	-0.009752606
208	0xbe4c25b1	-0.19936253
209	0x34b5854e	3.381087e-07
210	0x3ded8e50	0.115994096
211	0x3cff65a7	0.031176401
212	0x3a917d95	0.0011100048
213	0x386c458f	5.6331566e-05
214	0xbcba3abd	-0.022733087
215	0xbddd144f	-0.10794889
216	0xba797920	-0.0009516645
217	0xbd717293	-0.058947157
218	0x3829f38d	4.0519564e-05
219	0x38083e6a	3.2483054e-05
220	0xbe1e6697	-0.15468822
221	0x3d8a7c96	0.06762044
222	0x3e9182b2	0.28420025
223	0x3936e315	0.00017441467
224	0x3eee77e9	0.4657586
225	0x378bda53	1.6671756e-05
226	0x392d08c4	0.00016501831
227	0xbdaf7f33	-0.08569183
228	0xbccf68fc	-0.025318615
229	0x360c5f1d	2.091699e-06
230	0x3a8ba286	0.0010653294
231	0x3caa164a	0.020762581
232	0x3d9854dc	0.07438061
233	0x3605e3d8	1.9951167e-06
234	0x3d51df88	0.051238567
235	0xbd2f1201	-0.04274178
236	0x39c69d16	0.0003788254
237	0xb7a2d4b3	-1.941095e-05
238	0xbd7e1f4e	-0.062041573
239	0x3db1aecc	0.08675918
240	0xba9b2e0c	-0.0011839285
241	0x3e110c5d	0.14164872
242	0x38b320b1	8.5414744e-05
243	0xb78c8062	-1.6749083e-05
244	0x3d239230	0.039934337
245	0xbb1c6dfe	-0.0023869271
246	0xbe4dff94	-0.20117027
247	0xb98c47ac	-0.0002675628
248	0xbd3e83bc	-0.04651235
249	0xb61e0fc2	-2.3553007e-06
250	0x389cd1a4	7.477708e-05
251	0x3d2dae29	0.04240242
252	0xbb931f9e	-0.004489853
253	0xb61c7cce	-2.3318457e-06
254	0xbb02b017	-0.0019941384
255	0xbd2bc7c1	-0.041938547

features.denseblock1.denselayer1.norm2.weight f4 [48]
0	0x3f0f6e87	0.56028026
1	0x3ea3e229	0.32008484
2	0x3ef8045c	0.48440826
3	0x3f01488a	0.5050131
4	0x3e52e46b	0.20594947
5	0x3ec367b5	0.3816506
6	0x3f10cb4f	0.56560224
7	0x3edf41d0	0.43604898
8	0x3ec04d23	0.3755885
9	0x3ed6f640	0.4198475
10	0x3e0bcec1	0.13653089
11	0x3eea9b48	0.45821595
12	0x3f000d4a	0.5002028
13	0x3eca06b9	0.39458254
14	0x3e83f407	0.25772116
15	0x3f364ea6	0.7121376
16	0x3e697836	0.22799763
17	0x3ef02abc	0.46907604
18	0x3eb524b8	0.35379577
19	0x3f052c8e	0.5202111
20	0x3cd33a4a	0.02578463
21	0x3e8405b1	0.25785592
22	0x3ec37c54	0.38180792
23	0x3e75b277	0.2399386
24	0x3f1c6cee	0.61103714
25	0x3ebc816d	0.36817494
26	0x3ed41fc8	0.41430497
27	0x3f4b5180	0.79421234
28	0x3f177df4	0.59176564
29	0x3f06e600	0.526947
30	0x3ec54f80	0.38537216
31	0x3e9698c7	0.29413435
32	0x3d0f51b6	0.034990035
33	0x3e9cce7d	0.30626288
34	0x3e836dc8	0.25669694
35	0x3f048e9b	0.517801
36	0x3ec42d91	0.38316014
37	0x3dfa199a	0.12211914
38	0x3e93a9b3	0.28840408
39	0x3f00341d	0.5007952
40	0x3e5c2da5	0.21501787
41	0x3e951130	0.29114676
42	0x3f0d9759	0.55309063
43	0x3eec3957	0.46137497
44	0x3e752d18	0.23942983
45	0x3e07e847	0.132722
46	0x3ebc9cff	0.3683853
47	0x3c318fa8	0.010837473

features.denseblock1.denselayer1.norm2.bias f4 [48]
0	0xbe82fc92	-0.2558332
1	0xbeb3552f	-0.35025927
2	0xbe085c35	-0.13316424
3	0x3cb8e6b0	0.022570938
4	0x3ee1bb12	0.44088036
5	0x3e38f3af	0.18061708
6	0x3cdb879c	0.026798062
7	0xbd3c8a97	-0.046030607
8	0x3de62373	0.1123723
9	0xbcc5bb7a	-0.024137247
10	0xbe680de3	-0.22661547
11	0xbebeaadb	-0.37239727
12	0xbe296af1	-0.16544701
13	0xbe91a6cd	-0.2844757
14	0x3d031319	0.032000635
15	0x3e8e8bac	0.27840936
16	0xbd4e231e	-0.05032646
17	0xbdb1b8dd	-0.08677838
18	0x3ea44350	0.32082605
19	0x3c8d5363	0.017251676
20	0xbe0e20a4	-0.13879639
21	0x3d72e9e1	0.059305076
22	0xbddad1a8	-0.1068452
23	0x3e8de59b	0.27714238
24	0xbe022ba7	-0.12711965
25	0xbc3512a1	-0.011051805
26	0xbe3d7826	-0.18502864
27	0xbea7d87b	-0.3278235
28	0x3e1d6641	0.15371038
29	0xbefae29e	-0.4900102
30	0xbe362329	-0.1778685
31	0x3e7657bd	0.24056907
32	0xbe71e04b	-0.23620717
33	0x3d12468b	0.035711806
34	0xbd083703	-0.03325559
35	0xbe68cb4f	-0.22733806
36	0x3d5455d9	0.051839683
37	0x3e59bd20	0.21263552
38	0xbe5c1339	-0.21491708
39	0xbcb8f3f3	-0.022577262
40	0x3ed8aa77	0.42317554
41	0xbda57204	-0.080783874
42	0xbe885537	-0.26627514
43	0x3d186b92	0.037211962
44	0x3d003e6e	0.031309538
45	0x3e085f50	0.13317609
46	0xbeac9dab	-0.3371404
47	0xbd502913	-0.05082042

features.denseblock1.denselayer1.norm2.running_mean f4 [48]
0	0x3deb697c	0.11494729
1	0x3e14470c	0.14480227
2	0x3ca91412	0.020639453
3	0x3daa4d4a	0.08315523
4	0xbe019ee3	-0.12658267
5	0x3dd7e20d	0.10541163
6	0x3d739e8c	0.059477374
7	0x3d33e77d	0.043921936
8	0x3d06b6a8	0.03288904
9	0x3ce5c76c	0.028049193
10	0x3d12aa85	0.03580715
11	0x3dd588d5	0.10426489
12	0x3d43784d	0.04772215
13	0x3e0b0ef5	0.13579924
14	0x3d952f73	0.07284441
15	0x3e3c3f2d	0.18383475
16	0x3ca119bc	0.019665591
17	0x3cecb3ae	0.028894272
18	0x3b518d7b	0.0031975198
19	0x3dc4bd05	0.09606365
20	0xbc5401ba	-0.012939865
21	0x3ce405d9	0.02783482
22	0x3d2c2ac1	0.04203296
23	0xbd94fdf6	-0.07275002
24	0x3db76d30	0.08956373
25	0x3db9091e	0.09034942
26	0xbc8952b6	-0.016763072
27	0xbd1346f4	-0.035956338
28	0x3e1b63ee	0.15174839
29	0x3e3d0d89	0.18462195
30	0x3df0a1f8	0.11749643
31	0x3df20e21	0.11819101
32	0x3d58653f	0.05283093
33	0x3cb014e7	0.021494342
34	0xbcadb727	-0.021205498
35	0x3de90d58	0.11379498
36	0x3dc76eb7	0.09737914
37	0xbda674ad	-0.08127723
38	0x3d442c20	0.047893643
39	0x3dfb7ef9	0.122800775
40	0xbdf1909c	-0.1179516
41	0xbb57f2b7	-0.0032951066
42	0x3e02a2be	0.12757394
43	0x3d7d66d9	0.06186566
44	0x3d9cbb2c	0.07652888
45	0x3d6b7cc3	0.05749203
46	0xbb9aa2c3	-0.0047191097
47	0x3cc8f60e	0.02453139

features.denseblock1.denselayer1.norm2.running_var f4 [48]
0	0x3c90918e	0.01764753
1	0x3beed32e	0.007288358
2	0x3cb07a0e	0.021542575
3	0x3c88c540	0.016695619
4	0x3c18f891	0.009336607
5	0x3ce2398f	0.027615337
6	0x3cc98761	0.024600687
7	0x3c8ebad6	0.017423075
8	0x3c8489b2	0.01617894
9	0x3c91017b	0.017700901
10	0x3ba75e39	0.0051076678
11	0x3c0ef321	0.008724959
12	0x3d134dbf	0.035962816
13	0x3c212c69	0.009837248
14	0x3c041faf	0.008064195
15	0x3dca6c57	0.098839454
16	0x3b6208a0	0.0034490004
17	0x3cb2de18	0.021834418
18	0x3cdf1a90	0.027234346
19	0x3cc9cd3a	0.024633992
20	0x39ca05fd	0.00038532904
21	0x3c101c55	0.008795817
22	0x3cd8b996	0.026455682
23	0x3c9d7164	0.019219108
24	0x3d495c38	0.049160212
25	0x3c55ee6c	0.0130573325
26	0x3c99c9eb	0.01877304
27	0x3d5fcec5	0.05464055
28	0x3d61508f	0.055008467
29	0x3c3b8b57	0.011446795
30	0x3c946657	0.018115206
31	0x3c9a22f7	0.0188155
32	0x3b5b1bbc	0.003343328
33	0x3c019ef5	0.0079114335
34	0x3b2f151f	0.002671547
35	0x3ca4e48f	0.020128516
36	0x3c87be4c	0.016570233
37	0x3b2643e8	0.0025370065
38	0x3b8b6ab2	0.0042546624
39	0x3d0d5fcb	0.034515183
40	0x3c564e4b	0.01308019
41	0x3bbe771d	0.0058125393
42	0x3ca650e4	0.020302244
43	0x3c97a4f8	0.01851128
44	0x3c2c9c2e	0.010535283
45	0x3b6eda0a	0.003644588
46	0x3c12148b	0.008916031
47	0x3a3b0c2e	0.0007135299

features.denseblock1.denselayer1.conv2.weight f4 [12, 48, 3, 3]
0	0x3c1e4d0f	0.009661927
1	0x3e1369b2	0.14395788
2	0x3d83cda6	0.06435709
3	0xbd0b7f3a	-0.03405688
4	0xbd878b29	-0.066183396
5	0x3d62496d	0.055245806
6	0xbe02953f	-0.12752245
7	0xbe69b419	-0.22822608
8	0xbdceab2a	-0.10091241
9	0xbd7485ee	-0.059698038
10	0xbda3c0b6	-0.07995741
11	0xbd8eb275	-0.06967632
12	0xbd0d3e79	-0.034483407
13	0xbc8fda76	-0.017560225
14	0xbd8580c3	-0.065187
15	0x3c14729f	0.009060531
16	0x3cf1dc1b	0.0295239
17	0xbb10c3cb	-0.0022089358
18	0xbd0c30fc	-0.034226403
19	0xbd169e5c	-0.036772117
20	0x3bf58373	0.0074924766
21	0x3dadbd71	0.08483399
22	0xbd37d4da	-0.044880725
23	0xbbe5c89e	-0.007012441
24	0x3e594db8	0.21221054
25	0x3d711efa	0.058867432
26	0x3da51837	0.08061259
27	0xbba7f5ca	-0.005125736
28	0xbd94ee2b	-0.072719894
29	0xbc172d9f	-0.0092271855
30	0x3bf27bbb	0.0074000037
31	0xbdc6de42	-0.09710361
32	0xbd5ccc8b	-0.053906005
33	0x3ce32a18	0.027730033
34	0xbce85ad2	-0.028363619
35	0x3c93049b	0.017946532
36	0xbd6eb1d4	-0.05827506
37	0xbe0ed3f9	-0.13948049
38	0xbd1e976f	-0.038718637
39	0xbd55a09d	-0.052155126
40	0x3cdaaf22	0.026694838
41	0xbd0dec25	-0.034649033
42	0x3d42d4f0	0.047566354
43	0x3e2b83d9	0.16749515
44	0x3bd7305f	0.0065670456
45	0xbdaa87ba	-0.08326669
46	0xbd820e9e	-0.06350444
47	0x388f2cb1	6.827096e-05
48	0xbd064d7b	-0.032788735
49	0xbd9fa364	-0.07794836
50	0xbd4d0143	-0.05005003
51	0x3d27f9b7	0.04100963
52	0x3ddd6c2f	0.1081165
53	0x3cae4406	0.02127267
54	0x3df232cf	0.11826097
55	0x3da225f5	0.07917396
56	0x3db8166b	0.08988651
57	0x3daf5a79	0.08562178
58	0xbc82b1e2	-0.015953962
59	0xbd0c817e	-0.03430318
60	0x3b2fe6b4	0.002684039
61	0xbd8ff656	-0.07029407
62	0xbbfb1abf	-0.0076631005
63	0xbcdef112	-0.02721456
64	0xbd3e6101	-0.04647923
65	0x3c46c016	0.012130758
66	0xbc6a5d34	-0.014304448
67	0xbddde424	-0.1083453
68	0xbd48243f	-0.048862692
69	0x3d00d84b	0.031456273
70	0xbd181354	-0.037127808
71	0x3a5d4c6d	0.0008441869
72	0x3ce4129c	0.027840905
73	0x3d5d2ad1	0.05399591
74	0x3cd21a2b	0.025647243
75	0xbca45a42	-0.02006257
76	0xbdcc070f	-0.09962284
77	0xbd3bcd04	-0.045849815
78	0xbc3fad82	-0.011699082
79	0xbd373462	-0.04472769
80	0xbd66f5af	-0.056386646
81	0x3d3ebb4c	0.04656534
82	0xbd71500a	-0.05891422
83	0xbc3fa560	-0.011697143
84	0xbbca469c	-0.006172968
85	0x3c38707e	0.011257289
86	0x3c15e755	0.009149392
87	0x3d6ad79c	0.057334527
88	0x3db5d4da	0.08878489
89	0x3db902ab	0.09033712
90	0xbd5af841	-0.05345941
91	0xbc65e895	-0.014032503
92	0x3cb888f3	0.02252624
93	0x3bbf81c1	0.0058443253
94	0xbc23c6f0	-0.009996161
95	0x3cbda895	0.023151675
96	0x3db864c4	0.090035945
97	0x3be282c0	0.0069125593
98	0x3d107602	0.03526879
99	0xbd145a31	-0.036218826
100	0xbd794b48	-0.06086281
101	0xbd2a3760	-0.041556716
102	0xbc29cd02	-0.010363819
103	0xbc956789	-0.018237846
104	0xbd265ddf	-0.040616866
105	0x3d466f40	0.04844594
106	0x3cb838f7	0.0224881
107	0xbcc78946	-0.02435745
108	0xbd24b0b7	-0.04020759
109	0xbdba3813	-0.090927266
110	0xbc92b195	-0.017906943
111	0xbcc05ede	-0.023482736
112	0xbc5366b3	-0.012902903
113	0xbce3b76a	-0.02779742
114	0x3df3c8bd	0.11903522
115	0x3dab92b3	0.0837759
116	0x3d129f5a	0.0357965
117	0x3d0d2e97	0.03446826
118	0x3e4b73f2	0.19868448
119	0x3dc0deb4	0.09417477
120	0xbc18b4a7	-0.009320415
121	0xbbf2b5df	-0.0074069346
122	0x3d673599	0.0564476
123	0xbd69f98b	-0.05712275
124	0xbe16dc26	-0.14732417
125	0xbd20dd05	-0.03927328
126	0xbd160307	-0.03662398
127	0xbbd4565c	-0.0064800214
128	0x3c9bd03a	0.019020189
129	0xbc741cb4	-0.0148994215
130	0xbd32fe01	-0.04369927
131	0xbce090bb	-0.027412763
132	0x3c5f9847	0.013647146
133	0x3d291173	0.041276406
134	0xbc336c51	-0.010951118
135	0x3e24f1bb	0.16107838
136	0x3efe9720	0.49724674
137	0x3e70fb67	0.23533402
138	0x3da492ac	0.08035788
139	0xbd53e205	-0.05172922
140	0x3de71d76	0.11284916
141	0xbdd90ed6	-0.10598533
142	0xbef09e94	-0.46995986
143	0xbe06a48f	-0.13148712
144	0x3cf53ce1	0.029936256
145	0xbc8fc4a7	-0.017549826
146	0xbd1bdbe4	-0.0380515
147	0xbcdbe857	-0.026844187
148	0xbc574eb4	-0.013141323
149	0xba3f7d43	-0.0007304737
150	0x3bda47e3	0.0066614016
151	0x3cad0fe2	0.021125738
152	0x3d349793	0.044089865
153	0x3d3122e2	0.043246157
154	0x3dd24d90	0.102687
155	0x3d840f73	0.06448259
156	0xbc875e73	-0.01652453
157	0xbda780ea	-0.08178885
158	0xbcc3c91d	-0.02389961
159	0xbd13713d	-0.035996664
160	0xbdb0601d	-0.08612082
161	0xbd59ecf5	-0.053204495
162	0x3ce364ea	0.02775808
163	0x3dd646b8	0.10462707
164	0x3c701aea	0.014654854
165	0x3d2e8114	0.042603567
166	0xbd412205	-0.047151584
167	0xbc4753ee	-0.0121660065
168	0x3c5457e2	0.012960406
169	0xbdbe25b7	-0.09284537
170	0x3b92affc	0.0044765454
171	0x3cad15a2	0.02112848
172	0x3e4f9cab	0.20274608
173	0x3dc5e93b	0.09663626
174	0xbbfe6621	-0.0077636396
175	0xbd119b63	-0.03554858
176	0x3d5fbfa8	0.054626137
177	0xbdc87eeb	-0.09789833
178	0xbe6193c3	-0.22029023
179	0xbdc34c79	-0.095360704
180	0x3c0f91d9	0.0087628
181	0xbc41e90e	-0.01183535
182	0xbc4905e3	-0.01226947
183	0x3bdede2d	0.0068013878
184	0xbc4b6a80	-0.012415528
185	0x3ad408d1	0.0016176944
186	0x3be9aafa	0.0071309777
187	0x3cbc685d	0.022998983
188	0x3d0c11df	0.03419673
189	0x3d1b2a28	0.037882
190	0xbd32f594	-0.043691233
191	0xbe23e7d6	-0.16006407
192	0x3c5113a8	0.012761034
193	0x3a5df3b1	0.0008466794
194	0xbd31665f	-0.04331052
195	0x3c80907c	0.015693896
196	0x3d1ee9a9	0.038797054
197	0x3dbd4a9f	0.092427485
198	0xbc17d050	-0.009265974
199	0xbdd51be4	-0.1040571
200	0x3c5513f8	0.013005249
201	0xbcd49aa3	-0.025952643
202	0xbb81592e	-0.0039473986
203	0xbd1eccf5	-0.03876968
204	0x3d296cd6	0.04136356
205	0x3daa8bc9	0.08327443
206	0x3c4830dd	0.012218681
207	0xbd085306	-0.033282302
208	0xbd42d4a9	-0.04756609
209	0xbd387067	-0.04502907
210	0xbd94046b	-0.07227405
211	0xbcc57a85	-0.024106273
212	0xbd07f17f	-0.033189293
213	0x3d03cecb	0.032179635
214	0x3d8a2a43	0.06746342
215	0x3d400264	0.04687728
216	0xbd8489b2	-0.06471576
217	0xbe1abd20	-0.15111208
218	0xbbee9821	-0.007281319
219	0xbd223d6a	-0.03960935
220	0xbcddecd0	-0.02709046
221	0xbde501e9	-0.11182005
222	0x3ceee74b	0.029163023
223	0x3de63e07	0.112422995
224	0xbd008559	-0.03137717
225	0x3d0fa8e5	0.03507318
226	0x3e2ae0f2	0.16687372
227	0x3d478ac7	0.048716333
228	0xbc30ede2	-0.010798903
229	0xbc8b6f28	-0.017020777
230	0x3d32bf8d	0.04363971
231	0xbd6830cd	-0.056687165
232	0xbe08173a	-0.1329011
233	0xbd02bb99	-0.03191719
234	0xbd00e59d	-0.031468976
235	0xbdbfb808	-0.09361273
236	0x3adddeb3	0.0016927331
237	0xbc77bb45	-0.015120332
238	0x3d314ca9	0.043286
239	0xbd76796b	-0.060174387
240	0x3cc4002d	0.023925865
241	0x3da4838b	0.08032902
242	0xbc7edc34	-0.01555543
243	0xbdb0ee40	-0.086391926
244	0xbe0b583f	-0.13607882
245	0xbdc0e7b5	-0.094191946
246	0xbcd6452a	-0.026156027
247	0xbd36416c	-0.044495985
248	0xbd2325a2	-0.03983081
249	0x3df773ae	0.12082611
250	0x3dc0c212	0.09412016
251	0x3d0ad0e9	0.03389064
252	0x3e10344b	0.14082448
253	0x3e98eef0	0.29869795
254	0x3e335bb4	0.1751545
255	0x3deb18d4	0.11479345

features.denseblock1.denselayer2.norm1.weight f4 [36]
0	0x3876ef78	5.8873993e-05
1	0x3e6efdfe	0.23339078
2	0x379ee95b	1.8943732e-05
3	0x3f813bb0	1.009634
4	0x370e4b8a	8.481447e-06
5	0x3dd736df	0.10508513
6	0x360daf30	2.111261e-06
7	0x36386b00	2.7480419e-06
8	0x378ec26c	1.7018254e-05
9	0x36ff93d5	7.616802e-06
10	0x3db7a477	0.08966916
11	0x3eb1fda2	0.3476382
12	0x3f9db143	1.2319721
13	0x3703dc34	7.8594785e-06
14	0x3f7e3260	0.99295616
15	0x3f575337	0.8411135
16	0x3e221f91	0.15832354
17	0x3fa73e04	1.3065801
18	0xb8bce06b	-9.00634e-05
19	0x3f9cd030	1.2251034
20	0x3bca8995	0.006180952
21	0x3f63adc1	0.88937
22	0x3a1517dc	0.0005687454
23	0x3e396f3d	0.1810884
24	0x3e9ed404	0.3102113
25	0x3e848dd8	0.25889468
26	0x359dcea0	1.1757547e-06
27	0x3e9d78a9	0.3075612
28	0x3688010b	4.0532373e-06
29	0x3af94d08	0.001902015
30	0x3e787522	0.24263433
31	0x3ea65424	0.3248607
32	0x3522df5c	6.0674734e-07
33	0x3eb45ff2	0.3522945
34	0x3eabc043	0.33545122
35	0x3f1992c0	0.5998955

features.denseblock1.denselayer2.norm1.bias f4 [36]
0	0xb90a16d1	-0.00013169205
1	0x3f221003	0.6330568
2	0xb8911c60	-6.919424e-05
3	0xbea85c78	-0.32883048
4	0xb7d970b2	-2.5920894e-05
5	0xbe249cae	-0.16075394
6	0xb6a4058d	-4.888227e-06
7	0xb7037708	-7.835923e-06
8	0xb80bc6ed	-3.3325447e-05
9	0xb79ea63e	-1.891248e-05
10	0xbe1ace3c	-0.15117735
11	0xbe205350	-0.15656781
12	0xbf2fdd89	-0.6869741
13	0xb7a24cd0	-1.9347674e-05
14	0xbebe7717	-0.37200233
15	0xbea4ca59	-0.3218563
16	0xbdf8bf32	-0.121458426
17	0xbf188e57	-0.59592193
18	0xbc592d5f	-0.013255446
19	0xbf1c783c	-0.61120963
20	0xbc3e9709	-0.011632689
21	0xbee9d107	-0.45667288
22	0xba8d47c5	-0.0010778835
23	0x3d0bd9b7	0.034143176
24	0x3e4a62f4	0.1976431
25	0xbe8dec88	-0.27719522
26	0xb7aeabd6	-2.0822434e-05
27	0x3f2ac32c	0.6670406
28	0xb8a203ed	-7.725493e-05
29	0xbb91a636	-0.0044448627
30	0x3ee014fd	0.43766013
31	0x3f427332	0.75957024
32	0xb748fd0c	-1.1979846e-05
33	0x3eeb2614	0.4592749
34	0xbcd889d6	-0.026432913
35	0xbf080020	-0.5312519

features.denseblock1.denselayer2.norm1.running_mean f4 [36]
0	0xc054c0e8	-3.324274
1	0xc0da09cb	-6.8136954
2	0xbf71bdf0	-0.94430447
3	0xbfd4a017	-1.6611356
4	0xc07685cc	-3.8519163
5	0xbff67398	-1.9254026
6	0xc10dd2ee	-8.8639965
7	0xbf474102	-0.7783357
8	0xc08d3676	-4.412898
9	0xbca7aa88	-0.020467058
10	0xbfc5233a	-1.5401375
11	0xc0300465	-2.7502682
12	0xc08f73ab	-4.4828696
13	0xc01ba842	-2.4321446
14	0xc0180f83	-2.3759468
15	0xbfea15f2	-1.8287947
16	0xc0d1cf2b	-6.556539
17	0xc09ad41c	-4.8383923
18	0xc015ee09	-2.3426535
19	0xc089e321	-4.3089757
20	0xbd8129af	-0.06306779
21	0xc020ed54	-2.5144854
22	0xc0701ac8	-3.7516346
23	0xc0c127b9	-6.036099
24	0x3c5d0d10	0.013491884
25	0x3f998c86	1.1996009
26	0xbe1cb271	-0.15302445
27	0x3db8976b	0.09013256
28	0x4011e579	2.279631
29	0xc03b5b96	-2.927465
30	0xbeba3c41	-0.36374095
31	0xbf1d4489	-0.614327
32	0xbe403599	-0.18770446
33	0xbe46d46f	-0.19416974
34	0xbd2dcf45	-0.042433996
35	0x3f5b8898	0.857553

features.denseblock1.denselayer2.norm1.running_var f4 [36]
0	0x42257892	41.367744
1	0x438ae9f1	277.82767
2	0x40a1feda	5.06236
3	0x421ae1ed	38.72063
4	0x42c162b3	96.69277
5	0x40dfcced	6.9937654
6	0x42f41e6f	122.05944
7	0x404d1246	3.2042403
8	0x42264b26	41.573387
9	0x3c0e73f5	0.0086946385
10	0x40e3da4a	7.1203966
11	0x41bb92e7	23.44673
12	0x428587fc	66.765594
13	0x41f135bb	30.151236
14	0x423223e8	44.535065
15	0x41c18292	24.188755
16	0x42b5e5c8	90.94879
17	0x42c41729	98.045235
18	0x41c4b768	24.589554
19	0x429014a9	72.04035
20	0x3c10a38f	0.008828058
21	0x41cb6260	25.423035
22	0x42b00002	88.000015
23	0x42a51161	82.53394
24	0x3fda9dde	1.7079427
25	0x3f86502f	1.049322
26	0x40000f1f	2.000923
27	0x3f9e4dee	1.2367532
28	0x3fc1ae13	1.5131248
29	0x3fbb8ef5	1.4653002
30	0x3f3d871a	0.74034274
31	0x3fbfdec1	1.4989854
32	0x3fc97e08	1.5741587
33	0x400dc810	2.2153358
34	0x3f330370	0.6992712
35	0x3fbf0473	1.4923233

features.denseblock1.denselayer2.conv1.weight f4 [48, 36, 1, 1]
0	0x355d3cf4	8.2417614e-07
1	0xbe16e76f	-0.14736722
2	0xb59cc485	-1.16801e-06
3	0x3d725b06	0.059168838
4	0xb60e698a	-2.122108e-06
5	0x3a00d38d	0.0004914336
6	0x3391599b	6.768388e-08
7	0xb43b24c3	-1.7429106e-07
8	0x35599e23	8.106892e-07
9	0x36097ff9	2.048908e-06
10	0xbb48eb4f	-0.0030657833
11	0x3cd0e523	0.025499886
12	0x3dc19ff5	0.094543375
13	0x34fd9993	4.7236662e-07
14	0xbe15312f	-0.14569543
15	0x3d6a1db2	0.057157226
16	0x3b098d19	0.0020988642
17	0x3d015b00	0.031580925
18	0x3a5044d4	0.00079448265
19	0xbd9e38d0	-0.0772568
20	0xba88b43f	-0.0010429694
21	0xbcfc41f9	-0.030793177
22	0x39055778	0.00012716453
23	0x3c72f389	0.014828571
24	0x3e200a41	0.15628912
25	0xbda27901	-0.07933236
26	0x377df730	1.5137528e-05
27	0x3e6f16b8	0.2334851
28	0xb71f7df8	-9.506468e-06
29	0x3a94de00	0.0011357665
30	0xbd0f73d5	-0.035022575
31	0x3d8ad280	0.06778431
32	0x35b07c7a	1.3149249e-06
33	0x3d52f3bd	0.05150198
34	0x3dc66b2f	0.096884124
35	0x3e97d497	0.2965438
36	0xb6c2e8eb	-5.8087658e-06
37	0xbdccd104	-0.10000804
38	0xb64b2595	-3.0271233e-06
39	0xbca11f95	-0.01966838
40	0x346a863d	2.1841784e-07
41	0xbb0f2b13	-0.0021845743
42	0x361b9515	2.3183577e-06
43	0x356718c1	8.609023e-07
44	0xb5ac877c	-1.285443e-06
45	0xb5dfb5a2	-1.6667657e-06
46	0x3b96f240	0.004606515
47	0xbe078a60	-0.1323638
48	0xbe53af49	-0.20672335
49	0x3604ce07	1.9789456e-06
50	0xbc7182ac	-0.014740627
51	0x3e41a0ee	0.18909046
52	0x3d73aed4	0.0594929
53	0x3e03f353	0.1288579
54	0x3b48d42d	0.0030644045
55	0xbd7b5739	-0.06136248
56	0xbabad6d2	-0.0014254695
57	0xbdfe31f1	-0.12411869
58	0xb9f82153	-0.00047327075
59	0xbdc326f8	-0.09528917
60	0xbe874a61	-0.26423934
61	0xbd2735b2	-0.040822692
62	0x370ad16d	8.274202e-06
63	0x3e27140e	0.16316244
64	0xb39b6f01	-7.2379414e-08
65	0xb9afc653	-0.00033526364
66	0x3e50f6c1	0.20406629
67	0xbd78b4b4	-0.060719207
68	0x3614c498	2.2168151e-06
69	0xbdb77e5f	-0.0895965
70	0x3e16069d	0.1465096
71	0xbe13a349	-0.14417757
72	0xb66c16f8	-3.518011e-06
73	0xbdb17edc	-0.08666775
74	0xb70046de	-7.645895e-06
75	0xbc7a0ac0	-0.015261352
76	0xb768fce8	-1.3887162e-05
77	0x3c70a191	0.014686958
78	0xb5984213	-1.1344113e-06
79	0x358a01b9	1.0282303e-06
80	0xb40f9177	-1.3370833e-07
81	0x35f5fdd4	1.8327796e-06
82	0x3c134e64	0.008990858
83	0x3d956a10	0.072956204
84	0x3e4f8069	0.20263828
85	0x356d78b6	8.846504e-07
86	0x3d3e971b	0.046530824
87	0x3d2f71f3	0.04283328
88	0x3d17a1f9	0.037019704
89	0xbd8e2c14	-0.06942001
90	0xbb2505c3	-0.0025180436
91	0x3da417a7	0.08012324
92	0xb7b93549	-2.2078531e-05
93	0x3d8929aa	0.066974
94	0xb8376a65	-4.3729688e-05
95	0x3d1a92f7	0.037737813
96	0xbb31abb3	-0.0027110397
97	0x3d07c19c	0.033143625
98	0x340f7ee5	1.3364077e-07
99	0xbdd22791	-0.10261453
100	0x3569fb90	8.7165336e-07
101	0xba05a3b1	-0.0005097939
102	0x3d9b6ed6	0.075895
103	0x3db6eac5	0.089314975
104	0x3677e852	3.6941096e-06
105	0xbd1b3067	-0.037887957
106	0x3c86ce70	0.016455859
107	0x3c9c210d	0.019058729
108	0xb6b66a69	-5.4364104e-06
109	0x3d3249ce	0.043527417
110	0xb65c2dd0	-3.280922e-06
111	0x3f271e09	0.65280205
112	0xb6a333ba	-4.8638003e-06
113	0x3cd5adf6	0.026083928
114	0xb4c8e801	-3.7421708e-07
115	0xb5198c2a	-5.7200907e-07
116	0xb6a097a5	-4.7860253e-06
117	0x34c96dce	3.751906e-07
118	0xbdbfaa2f	-0.09358632
119	0xbd112d82	-0.03544379
120	0x3d3448c1	0.044014696
121	0x3546d08a	7.406421e-07
122	0x3c9d0c8e	0.019171026
123	0x3c5dc3e1	0.013535471
124	0xbc82de05	-0.015975008
125	0xbe02ed51	-0.12785842
126	0x3b354170	0.0027657412
127	0xbca31c80	-0.01991105
128	0x385fc94f	5.3354826e-05
129	0xb9e583b1	-0.000437764
130	0xb91dbaa4	-0.00015042216
131	0xbd83ad6a	-0.064295605
132	0xbe38b482	-0.18037608
133	0x3cfbaad6	0.03072111
134	0x368cb93e	4.19389e-06
135	0xbd86e508	-0.06586653
136	0xb791964a	-1.735533e-05
137	0xb8b494fa	-8.610818e-05
138	0xbdb07e09	-0.08617789
139	0xbdaccc83	-0.08437445
140	0xb5286d1c	-6.274365e-07
141	0xbd48e12b	-0.049042862
142	0xbdb8a92a	-0.090166405
143	0xbe056f2f	-0.13030694
144	0x36bda6b8	5.6520475e-06
145	0x3c04fb78	0.008116595
146	0xb566eab8	-8.602324e-07
147	0xbd10bef1	-0.035338346
148	0x35a6e1d4	1.2433688e-06
149	0x3b557626	0.0032571643
150	0x36378fd2	2.735284e-06
151	0xb6056c8b	-1.9881725e-06
152	0x3599ce82	1.145949e-06
153	0xb51c9142	-5.8325907e-07
154	0xb92cf96b	-0.00016496114
155	0x3a9b474d	0.0011846811
156	0xbba63a79	-0.0050728885
157	0x359b1484	1.1554371e-06
158	0x3ce28904	0.027653225
159	0xbd953d83	-0.07287123
160	0x3a78cfc3	0.0009491408
161	0x3da25379	0.079260774
162	0xb9df626e	-0.0004260721
163	0x3e08de68	0.13366091
164	0x3920450a	0.00015284508
165	0x3c88f747	0.016719474
166	0x38f5ae7e	0.00011715012
167	0xbc8e9149	-0.017403262
168	0xbe0b76ac	-0.13619488
169	0x3e6c5aa3	0.2308145
170	0xb6d31f57	-6.2919385e-06
171	0xbdad911c	-0.08474943
172	0x33abfb39	8.008505e-08
173	0x3a220c5b	0.00061816507
174	0xbdcde310	-0.10053074
175	0xbcbbccec	-0.022924863
176	0xb5ca2049	-1.5059569e-06
177	0x3e0e7886	0.13913164
178	0xbc18890d	-0.009310019
179	0x3e8e4f38	0.27794814
180	0xb796b2e1	-1.796469e-05
181	0x3d3fd1f1	0.046831075
182	0xb6e0b3a5	-6.6966336e-06
183	0x3d8fbe61	0.07018734
184	0xb5ca064d	-1.5052007e-06
185	0xbd2ff76d	-0.042960573
186	0xb5fe26f0	-1.8935807e-06
187	0x3547f8c6	7.449529e-07
188	0xb6ed5785	-7.073339e-06
189	0x3595123a	1.110667e-06
190	0x3d99591b	0.07487699
191	0xbdf1cf61	-0.118071325
192	0xbdee922f	-0.11648976
193	0x36114492	2.1646597e-06
194	0xbe6bdd42	-0.23033622
195	0x3e3977da	0.18112126
196	0x3cf93ccb	0.030424496
197	0xbe0f8ba4	-0.14018112
198	0x3bb71c2f	0.0055880765
199	0x3bcd4898	0.0062647574
200	0xbb86b516	-0.0041109426
201	0xbe7f78f4	-0.24948484
202	0xb97a1e06	-0.00023853043
203	0x3c259d90	0.010108367
204	0xbe314be0	-0.173141
205	0x3c1ad02b	0.009449045
206	0x36565007	3.1935067e-06
207	0x3ed81f64	0.4221145
208	0xb7bdee56	-2.264154e-05
209	0x3a4c74c8	0.0007799384
210	0xbca3cd63	-0.019995397
211	0xbde9b304	-0.11411098
212	0xb665b100	-3.4226687e-06
213	0x3db5a92d	0.08870158
214	0xbe5266c5	-0.20547016
215	0xbd8b9369	-0.06815226
216	0x35e7a067	1.7257524e-06
217	0x3e369290	0.17829347
218	0x372c9b44	1.02881495e-05
219	0xbdb0c8b5	-0.08632032
220	0x37334e5a	1.0687474e-05
221	0xbb833440	-0.0040040314
222	0xb3974c0a	-7.045317e-08
223	0x34d9d152	4.05717e-07
224	0xb6828435	-3.889693e-06
225	0xb6891d4a	-4.086328e-06
226	0x3d09d8b6	0.033653937
227	0x3db38a89	0.08766658
228	0xbceb7420	-0.028741896
229	0xb6d21b23	-6.261647e-06
230	0x3da03717	0.078230076
231	0xbde14ce1	-0.110009916
232	0xbc61519c	-0.013752367
233	0x3d08f53d	0.033437002
234	0x3af7cd9e	0.0018905883
235	0xbd185585	-0.037190933
236	0x3af7b436	0.0018898312
237	0x3d18ac57	0.03727373
238	0x39d3e65f	0.00040416696
239	0x3cbffbc2	0.023435477
240	0xbd3e0ad6	-0.046397053
241	0xbd6ce797	-0.05783805
242	0xb6ccfcd6	-6.1091077e-06
243	0xbd013df0	-0.03155321
244	0xb6f9c15d	-7.4432887e-06
245	0x39ccfd1b	0.0003909849
246	0xbe9b9e55	-0.30394235
247	0xbedf5b71	-0.43624452
248	0xb663d53f	-3.3949761e-06
249	0xbdaf4952	-0.085589066
250	0xbc48dab7	-0.012259177
251	0xbda8ece0	-0.08248305
252	0xb78eff86	-1.7046706e-05
253	0x3edf5674	0.43620646
254	0xb6d1f01d	-6.2566382e-06
255	0xbd12358c	-0.035695598

features.denseblock1.denselayer2.norm2.weight f4 [48]
0	0x3ee5fdd8	0.4492023
1	0x3e68e9f3	0.22745495
2	0x3e76473a	0.24050608
3	0x3e049f37	0.1295136
4	0x3ef5d70d	0.48015633
5	0x3eacbcd2	0.33737808
6	0x3e8223a8	0.2541783
7	0x3eae4cb5	0.34042898
8	0x3e89f490	0.269444
9	0x3e6a4398	0.22877347
10	0x3ef01e58	0.4689815
11	0x3e11cbd7	0.14237915
12	0x3e320e5c	0.1738829
13	0x3e8e4a89	0.2779124
14	0x3a2d4284	0.0006609338
15	0x3e879713	0.26482448
16	0x3dab7992	0.08372797
17	0x3dbb805c	0.09155342
18	0x3e1c4c1f	0.15263413
19	0x3e8a6ab7	0.27034542
20	0x3e97d826	0.29657096
21	0x3e827115	0.254769
22	0x3e6f4590	0.2336638
23	0x3e86ccc8	0.2632811
24	0x3ef2be7b	0.4741095
25	0x3e8e55f9	0.27799967
26	0x3eadac89	0.33920696
27	0x3ea56bd8	0.3230884
28	0x3ebbda48	0.36689973
29	0x3eda688d	0.4265789
30	0x3e8ba8db	0.27277264
31	0x3e976349	0.29567936
32	0x3ea268b0	0.31720495
33	0x3e958aba	0.29207402
34	0x3da30bd0	0.079612374
35	0x3e9b2699	0.30302885
36	0x3e1c000b	0.15234391
37	0x3e8163e6	0.2527153
38	0x3de615c4	0.1123462
39	0x3df52be0	0.11971259
40	0x3d4a03c5	0.04932
41	0x3ed8fd77	0.42380878
42	0x3e4166a5	0.18886812
43	0x3e8d9977	0.27656147
44	0x3e72ef47	0.2372409
45	0x3e9fd054	0.3121363
46	0x3e90c453	0.28274783
47	0x3da033ec	0.07822403

features.denseblock1.denselayer2.norm2.bias f4 [48]
0	0xbf025a05	-0.5091861
1	0x3e7a9886	0.24472246
2	0xbe367e13	-0.17821531
3	0xbebd148c	-0.3692974
4	0xbeee60ae	-0.46558136
5	0x3eaad538	0.33365798
6	0x3ed068cc	0.40704954
7	0xbc03d9ba	-0.0080475155
8	0x3e47d929	0.19516434
9	0xbe70802a	-0.2348639
10	0xbef01457	-0.46890518
11	0xbdb8489a	-0.08998223
12	0x3d4b9104	0.049698845
13	0x3ee72e44	0.45152485
14	0xbbdde2de	-0.0067714294
15	0x3d75964d	0.05995779
16	0x3e4cd00d	0.2000124
17	0xbd0e6d1e	-0.03477203
18	0x39947149	0.00028313164
19	0x3e58d824	0.21176201
20	0x3ed488c6	0.415106
21	0x3ebeaa7f	0.37239453
22	0xbde84f1b	-0.11343213
23	0x3e27a3f9	0.16371144
24	0x3ef8429a	0.48488313
25	0x3ed44590	0.41459322
26	0x3ee915d4	0.45524466
27	0xbd4a7876	-0.049431287
28	0xbed93140	-0.42420387
29	0xbdf45668	-0.11930543
30	0xbe5cee3d	-0.21575256
31	0xbe394320	-0.18092012
32	0xbe26ed04	-0.16301352
33	0x3dae0891	0.08497728
34	0x3df156f8	0.11784166
35	0x3e158f6b	0.14605491
36	0x3dbd15c1	0.09232665
37	0x3e5aecef	0.21379445
38	0x3e0bdc73	0.13658313
39	0xbeb7c894	-0.35895216
40	0xbd9170d9	-0.07101602
41	0xbe5e14f2	-0.21687678
42	0x3e8c47a5	0.2739841
43	0xbc6a2e5b	-0.014293279
44	0xbdeff477	-0.1171655
45	0x3e0e7f24	0.13915688
46	0x3c868a79	0.01642345
47	0x3e2562bf	0.1615095

features.denseblock1.denselayer2.norm2.running_mean f4 [48]
0	0x3e5363d2	0.20643547
1	0xbd02df6f	-0.031951364
2	0xbac42e5e	-0.0014967432
3	0xbddc3082	-0.1075144
4	0xbd067f9d	-0.032836545
5	0x3e19ad39	0.15007485
6	0xbee7d3dc	-0.45278823
7	0x3d2eb6c5	0.04265477
8	0xba4a06c2	-0.00077066955
9	0xbd9ec406	-0.07752232
10	0x3d30db17	0.04317769
11	0xbd287180	-0.041123867
12	0xbd8140cb	-0.063111864
13	0xbec20fe4	-0.3790275
14	0x3b5203ed	0.0032045797
15	0x3e9ce9df	0.3064718
16	0xbcfe1f5f	-0.031020818
17	0x3d7c3808	0.061576873
18	0xbdbb36e8	-0.09141332
19	0xbe5f562a	-0.21810213
20	0x3bbc23d6	0.0057415767
21	0xbca41cd1	-0.020033272
22	0x3e8f0943	0.27936754
23	0x3ca3e68e	0.020007398
24	0xbed7bfd1	-0.42138532
25	0xbe81fde3	-0.25389013
26	0x3e178240	0.1479578
27	0x3ecb74d0	0.39737558
28	0x3e2bfb96	0.16795191
29	0x3e1cee32	0.1532524
30	0x3e089acc	0.133403
31	0x3e86ccf1	0.26328233
32	0x3e9e571b	0.3092583
33	0xbe2148b3	-0.15750389
34	0xbd74dd3c	-0.059781298
35	0xbdae85a6	-0.08521585
36	0x3de4a1dd	0.111636855
37	0xbdfab218	-0.12241
38	0x3b880b05	0.0041517043
39	0xbc133179	-0.008983963
40	0x3d0e7704	0.03478147
41	0x3e8c0471	0.2734714
42	0x3c040d5c	0.008059826
43	0xbcc97434	-0.024591543
44	0xbdc22d69	-0.094813175
45	0xbe2b5c1a	-0.16734353
46	0x3d221e04	0.039579406
47	0x3c127d8b	0.008941065

features.denseblock1.denselayer2.norm2.running_var f4 [48]
0	0x3c8952da	0.01676314
1	0x3d1c6891	0.03818566
2	0x3bb08f4d	0.0053881765
3	0x3cbcae22	0.023032252
4	0x3c350274	0.011047948
5	0x3d19db9b	0.037562948
6	0x3ccd6a0f	0.025074987
7	0x3caa1e93	0.020766532
8	0x3cfc55d3	0.030802643
9	0x3b685d76	0.0035456098
10	0x3c1e123b	0.009647901
11	0x3ad5d892	0.0016315153
12	0x3c0e4d73	0.0086854575
13	0x3cfd2608	0.030901924
14	0x36bb827e	5.5882256e-06
15	0x3cfabd76	0.03060792
16	0x3bdfbeb8	0.0068281554
17	0x3a68e351	0.00088839704
18	0x3b0161cd	0.0019742132
19	0x3ce7f522	0.02831513
20	0x3d3e1f2f	0.046416458
21	0x3cee892c	0.029118143
22	0x3bb1fc7e	0.0054317107
23	0x3cf26aa8	0.029591873
24	0x3dac276c	0.084059566
25	0x3d0751f0	0.033037126
26	0x3d2d359f	0.042287465
27	0x3c250771	0.010072575
28	0x3c3755bf	0.011189877
29	0x3c9489d4	0.018132128
30	0x3bc76dfa	0.0060861083
31	0x3c02dc71	0.007987128
32	0x3c06d8cf	0.008230402
33	0x3d22bf70	0.03973335
34	0x3bb4c3c6	0.005516502
35	0x3d19dd3f	0.037564512
36	0x3ba33e5e	0.0049818
37	0x3d0eef10	0.034895957
38	0x3c094735	0.0083787935
39	0x3cc87576	0.024470072
40	0x3a93e8b3	0.001128456
41	0x3c90401e	0.017608698
42	0x3c7e1cc5	0.015509789
43	0x3c10d0ff	0.008838891
44	0x3c06d947	0.008230514
45	0x3d4b0cb6	0.04957267
46	0x3c544847	0.012956685
47	0x3ba221c7	0.004947874
