models/densenet-cifar/40-12/checkpoint.pth.tar (torch_old, 775030 bytes, 197 tensors)

features.conv0.weight f4 [24, 3, 3, 3]
-0.0765814 -0.22067198 -0.101852626 0.07866928 0.6141986 0.08424202 -0.00015655509 -0.2196473
-0.019268494 -0.12022335 -0.111734256 -0.06550529 0.030410018 0.7690345 0.1322756 -0.05535126
-0.48536837 -0.07024011 -0.14612651 -0.19692197 -0.22976829 0.094790734 0.57716966 0.13824783
-0.06748384 -0.25339097 -0.030335143 -0.66568065 -1.059116 -0.75154054 0.07646191 0.10034657
0.11479462 0.5260989 1.2612278 0.65136653 0.14089985 0.12615536 0.16312663 -0.00039448307
-0.37118667 -0.012675689 0.0046236543 -0.0531809 -0.04838142 0.5275112 0.9629448 0.6140972
0.068691835 -0.2178721 0.05312803 -0.53899795 -0.9997321 -0.660973 -0.09400317 -0.09009854
-0.044584367 -0.065418124 0.039739348 -0.0029901508 -0.027513651 0.08210037 0.02006462 0.11821285
0.11514635 0.07255018 0.16823588 0.28475598 0.109532796 0.06323743 0.16701257 0.01037855
0.16579376 0.09960747 0.06851993 0.10529506 0.10269669 0.015520479 -0.034783047 -0.051950283
-0.100959726 0.036178723 0.074163295 0.069387436 -0.027815025 -0.13020514 -0.0023553832 -0.04406808
-0.057111785 0.00073471473 0.08673294 0.13369027 0.07994211 0.029573763 -0.0394271 0.020938914
0.0044662785 0.060010828 0.01855017 0.10590529 0.0977718 0.082480796 -0.027917096 -0.13980934
-0.040557384 0.023049025 -0.0037047374 0.019974794 0.3482893 -0.112273544 -0.43034682 0.75619864
-0.09425484 -0.6588447 0.38686648 0.09021199 -0.34516236 -0.02780236 0.05467725 0.047768112
-0.09048536 -0.14679047 0.0758213 -0.022681676 0.05411654 0.04296709 -0.28494394 0.19983052
0.3833769 -0.6044387 -0.10215572 0.5623299 -0.400513 -0.09184229 0.35511142 0.058298167
0.070025735 0.061440986 0.10256824 0.36559796 0.15841739 0.11455123 0.29197136 0.11485858
0.035225358 -0.021378826 0.0075019305 0.045042362 0.15737781 0.034946047 0.040753793 0.11798635
0.03155413 -0.0235098 -0.0590584 -0.05998033 -0.03689679 0.05303602 -0.03800188 -0.12866962
-0.11886544 -0.113094695 -0.045703728 0.35054198 0.007922413 0.42756277 -0.962018 0.34372407
0.03149324 0.13808626 -0.0337921 0.078683026 -0.029455338 -0.011199665 0.5087774 -1.3825065
0.39922848 0.05540211 0.42160928 0.15177713 -0.032462347 0.22574572 -0.0011252662 0.20326707
-0.74422187 0.17463912 -0.013754013 -0.039104175 0.002130109 0.4692042 0.7446773 0.49490613
0.058227886 -0.07928589 -0.0065139416 -0.32435274 -0.64251184 -0.40610376 -0.21376336 -0.23775825
-0.109201096 0.0089671295 0.024491046 0.09230091 0.043942075 0.20849635 0.14305887 -0.45080692
-0.6338193 -0.45973748 -0.0048922175 0.058847487 -0.025798675 0.3329525 0.6446576 0.35489264
0.1415561 0.11136691 -0.054782834 0.49408007 -0.010118708 -0.4607023 -0.033129018 -0.022734093
-0.024785032 0.30952045 0.09371868 -0.30600047 0.6329724 -0.028186537 -0.6713135 0.058402374
-0.0037129153 -0.09711781 0.110049844 0.0438074 -0.22600721 0.4297993 0.0042677163 -0.5352922
-0.0066221463 0.058985375 -0.036159217 -0.36062938 -0.6220167 -0.30813035 -0.059263747 -0.03700051
0.011147468 0.3115877 0.583628 0.29705906 -0.39184248 -0.64016044 -0.30634123 -0.0755551
00000000: b6d6 9cbd d6f7 61be 1c98 d0bd 5c1d a13d
00000010: 1f3c 1d3f 1587 ac3d f028 24b9 39eb 60be
00000020: f6d8 9dbc a937 f6bd eed4 e4bd a327 86bd
00000030: 6e1e f93c 72df 443f 4173 073e 01b8 62bd
00000040: 3482 f8be 0cda 8fbd 30a2 15be eaa5 49be
00000050: 6148 6bbe a521 c23d 64c1 133f d790 0d3e
00000060: f834 8abd 76bc 81be 6881 f8bc 0c6a 2abf
00000070: 1d91 87bf f664 40bf 1098 9c3d 8182 cd3d
00000080: 7119 eb3d 6bae 063f ea6f a13f f5bf 263f
00000090: 0d48 103e df2e 013e ab0a 273e 9fd2 ceb9
000000a0: 2e0c bebe b1ad 4fbc 0682 973b 37d4 59bd
000000b0: 992b 46bd f90a 073f 8d83 763f 7935 1d3f
000000c0: 4eae 8c3d dd19 5fbe c79c 593d c5fb 09bf
000000d0: 71ee 7fbf 8735 29bf bc84 c0bd 9585 b8bd
000000e0: 199e 36bd f0f9 85bd bac5 223d 68f6 43bb
000000f0: 4f64 e1bc 3d24 a83d 8f5e a43c 9419 f23d
00000100: d9d1 eb3d 3095 943d 0746 2c3e 89cb 913e
00000110: bb52 e03d a082 813d 5805 2b3e cb0a 2a3c
00000120: d7c5 293e 00ff cb3d 2d54 8c3d f0a4 d73d
00000130: a452 d23d 9b49 7e3c ab78 0ebd d2c9 54bd
00000140: f9c3 cebd 2430 143d ede2 973d 001b 8e3d
00000150: 56dc e3bc 7f54 05be c65c 1abb bb80 34bd
00000160: 0cee 69bd df99 403a 0aa1 b13d 1ae6 083e
00000170: b0b8 a33d ad44 f23c 507e 21bd 1688 ab3c
00000180: dc59 923b eacd 753d 87f6 973c dfe4 d83d
00000190: 953c c83d b1eb a83d 65b2 e4bc 2e2a 0fbe
000001a0: 801f 26bd 4fd1 bc3c 2ecb 72bb 2ea2 a33c
000001b0: fa52 b23e acef e5bd 6b56 dcbe 3c96 413f
000001c0: ae08 c1bd 0caa 28bf 5d13 c63e 10c1 b83d
000001d0: 1fb9 b0be c6c1 e3bc 41f5 5f3d 7fa8 433d
000001e0: 6350 b9bd 3e50 16be 3348 9b3d ecce b9bc
000001f0: 4ea9 5d3d 42fe 2f3d 2ce4 91be 5fa0 4c3e
00000200: fa49 c43e 7fbc 1abf 0537 d1bd daf4 0f3f
00000210: 0a10 cdbe cf17 bcbd 2ad1 b53e 0fca 6e3d
00000220: a769 8f3d 8ba9 7b3d 4c0f d23d a82f bb3e
00000230: 2b38 223e d699 ea3d 457d 953e fa3a eb3d
00000240: 7748 103d a622 afbc c1d2 f53b 577e 383d
00000250: a627 213e 9623 0f3d 73ed 263d d4a2 f13d
00000260: e73e 013d a097 c0bc 39e7 71bd efad 75bd
00000270: 1721 17bd 4c3c 593d dca7 1bbd f8c1 03be
00000280: b96f f3bd 319e e7bd d533 3bbd 3d7a b33e
00000290: 02cd 013c 82e9 da3e d046 76bf 9afc af3e
000002a0: 0eff 003d 7c66 0d3e 9669 0abd 9124 a13d
000002b0: 524c f1bc cd7e 37bc 3c3f 023f f9f5 b0bf
000002c0: ad67 cc3e 53ed 623d 2cdd d73e 776b 1b3e
000002d0: 3df7 04bd e329 673e ab7d 93ba 3e25 503e
000002e0: 5385 3ebf 99d4 323e 8358 61bc b32b 20bd
000002f0: 4c99 0b3b 883b f03e 2ca3 3e3f 5664 fd3e
00000300: 5d80 6e3d a460 a2bd e772 d5bb 9011 a6be
00000310: a87b 24bf d5ec cfbe c8e4 5abe e676 73be
00000320: d3a4 dfbd deea 123c 72a1 c83c 4208 bd3d
00000330: 9bfc 333d 1180 553e 067e 123e 2ad0 e6be
00000340: fb41 22bf b662 ebbe e54e a0bb 100a 713d
00000350: be57 d3bc c078 aa3e 4808 253f 7db4 b53e
00000360: 15f4 103e 5614 e43d f763 60bd 10f8 fc3e
00000370: f0c8 25bc 2ce1 ebbe 4bb2 07bd d93c babc
00000380: fb09 cbbc 7779 9e3e 94ef bf3d 18ac 9cbe
00000390: 7b0a 223f 74e7 e6bc 34db 2bbf 5437 6f3d
000003a0: 6254 73bb b4e5 c6bd d061 e13d 636f 333d
000003b0: 6f6e 67be a70e dc3e 33d8 8b3b e908 09bf
000003c0: 97fe d8bb a69a 713d b01b 14bd 6aa4 b8be
000003d0: 7d3c 1fbf 43c3 9dbe 8bbe 72bd d98d 17bd
000003e0: dfa3 363c 6c88 9f3e a568 153f 2018 983e
000003f0: 949f c8be 8ee1 23bf c2d8 9cbe a2bc 9abd

features.denseblock1.denselayer1.norm1.weight f4 [24]
0.36329538 0.31605783 0.21157789 0.14435196 0.2082806 0.50280786 0.28310558 0.17749761
0.17169736 0.4041132 0.27820385 0.31336507 0.29756892 0.22919445 0.31698412 0.16662547
0.3035654 0.35803348 0.40873933 0.348468 0.7049662 0.36875486 0.6473555 0.34940746
00000000: da01 ba3e 55d2 a13e e0a7 583e 00d1 133e
00000010: 8247 553e 04b8 003f 37f3 903e efc1 353e
00000020: 6fd1 2f3e ede7 ce3e bc70 8e3e 6371 a03e
00000030: f45a 983e f3b1 6a3e be4b a23e de9f 2a3e
00000040: ed6c 9b3e 2a50 b73e 4846 d13e 666a b23e
00000050: aa78 343f 70cd bc3e 17b9 253f 89e5 b23e

features.denseblock1.denselayer1.norm1.bias f4 [24]
0.24948147 0.58098966 0.07580092 0.07625434 0.36637592 -0.4500645 0.9307708 0.338533
-0.09897809 -0.035513923 0.5888708 -0.004825077 0.21050255 0.09306772 -0.2045441 0.03096249
-0.04858505 0.688951 -0.06953076 -0.030161291 -0.4900423 -0.10090355 -0.24196343 0.52680284
00000000: 1278 7f3e bdbb 143f 833d 9b3d 3c2b 9c3d
00000010: a095 bb3e db6e e6be ff46 6e3f 3354 ad3e
00000020: 06b5 cabd 0c77 11bd 3dc0 163f ae1b 9ebb
00000030: fb8d 573e 4a9a be3d 0274 51be 0ca5 fd3c
00000040: 1e01 47bd 185f 303f 2566 8ebd d014 f7bc
00000050: d3e6 fabe 85a6 cebd 43c5 77be 8ddc 063f

features.denseblock1.denselayer1.norm1.running_mean f4 [24]
-0.08883756 0.015216522 -0.292902 -0.07365159 0.023749538 -0.29443344 0.03471293 -0.029651804
0.00063689647 0.04314944 0.022279417 0.0084800245 0.0046476885 0.042379696 0.03939905 0.006519762
-0.16706727 -0.08776293 0.18858846 -0.032057364 0.5520552 0.033259384 0.49266577 -0.088543214
00000000: 77f0 b5bd b84e 793c 40f7 95be a5d6 96bd
00000010: 648e c23c fbbf 96be 252f 0e3d 57e8 f2bc
00000020: 66f5 263a 78bd 303d 5383 b63c cdef 0a3c
00000030: a34b 983b 5596 2d3d e660 213d baa3 d53b
00000040: af13 2bbe 0dbd b3bd 551d 413e 954e 03bd
00000050: 7d53 0d3f fe3a 083d b03e fc3e 2556 b5bd

features.denseblock1.denselayer1.norm1.running_var f4 [24]
1.077607 0.6749874 1.7667093 0.26047754 0.21006824 2.014053 0.9711499 0.3355653
2.9556122 7.4979086 0.424353 4.513983 2.4675732 0.89466673 9.916995 2.8049974
1.2745041 1.3695676 1.1832539 0.8880176 6.4250507 6.700466 5.6353292 0.8982501
00000000: 07ef 893f f9cb 2c3f 8823 e23f 505d 853e
00000010: 211c 573e 3fe6 0040 489d 783f 37cf ab3e
00000020: c028 3d40 deee ef40 cc44 d93e 8c72 9040
00000030: b8ec 1d40 e108 653f 03ac 1e41 1485 3340
00000040: f322 a33f fe4d af3f dd74 973f 1f55 633f
00000050: 049a cd40 386a d640 9e54 b440 b8f3 653f

features.denseblock1.denselayer1.conv1.weight f4 [48, 24, 1, 1]
-0.11263117 -0.096599884 -0.016427653 -0.012335216 0.025756627 0.005892281 -0.41849676 0.022578565
-0.080961615 0.13688123 -0.15059493 -0.06925778 0.012576677 -0.028238514 0.111952245 0.05642655
-0.051877104 0.005080007 -0.051768407 0.061704546 -0.17802712 -0.1257198 -0.08229981 -0.014899835
-0.12729406 0.0038093093 0.043261196 0.060674682 0.13038102 0.089675315 0.09188379 -0.076598
0.009988128 -0.29913533 -0.2080458 0.06339253 0.063460596 -0.0013040614 -0.13635777 -0.056769006
-0.14369175 -0.08271131 0.069679335 -0.12055742 0.097710915 -0.198726 -0.110326625 0.09005177
-0.016529761 -0.21067066 0.005839301 0.04411713 0.0744817 0.008528976 0.15196688 0.033357322
0.001843071 0.005873663 -0.15229742 -0.03971659 -0.053375546 -0.023036908 0.059569404 0.031729456
-0.012341048 -0.06564149 -0.10522617 -0.104472876 -0.12865411 -0.024741698 -0.08383839 0.029913543
0.05976332 -0.004253082 0.019195348 -0.008307511 0.18171579 0.032135133 -0.15002707 -0.06985294
-0.07107316 0.015580091 -0.51603895 -0.1780599 0.017983956 -0.096614935 -0.016944312 0.002733937
-0.017224532 -0.028456822 -0.06564976 -0.078655064 -0.023633596 -0.21482097 -0.13997264 -0.027879355
-0.018932806 0.006814329 0.08428089 0.04236067 0.010840018 0.016773462 0.17139083 0.055491477
0.023828123 0.040243626 0.11326382 0.06618461 -0.017697351 0.050664112 0.07996523 0.050562564
-0.00646167 0.05254104 0.050213754 -0.015772529 0.27751788 0.13701223 0.22734794 -0.0383873
0.11055274 0.067508526 -0.01196393 -0.054849207 0.029636621 0.090058975 -0.026303237 -0.020972133
-0.006009538 0.063773386 -0.08893588 0.0042481637 -0.053773705 -0.0674665 -0.014476329 -0.012264872
0.04285679 -0.12860875 0.041724373 0.041602746 0.03244224 0.007885692 -0.095863886 0.07852874
-0.03317046 -0.032412335 -0.037125167 -0.046350017 -0.17733546 0.15231073 -0.39289224 0.0013405886
-0.04969833 -0.0032173651 0.11656607 -0.076708585 0.033903107 -0.102388285 0.06532567 -9.050106e-05
0.032061554 -0.20493601 0.014358489 0.08441014 -0.07538515 -0.13626511 -0.19032438 0.18041153
0.08410752 0.0049273823 0.15432225 -0.08316911 -0.019607937 0.25364357 -0.1702992 0.032976884
-0.021504534 -0.022528447 -0.0369801 -0.09040749 -0.03174488 -0.06385326 -0.103286035 -0.10447857
0.18063629 0.05634282 0.07842555 -0.062488098 0.07970839 0.053358003 -0.023678998 -0.08524869
0.011800655 0.043209605 -0.072285265 0.0056961817 0.1480291 -0.07081589 0.017061204 -0.096229814
-0.034953497 0.020709852 -0.33149928 -0.09903836 -0.21456775 -0.09997611 -0.0038611041 0.023424244
-0.026423017 -0.09711036 0.0075214007 -0.07386096 0.00956422 -0.046237256 -0.013898965 0.02127839
-0.033890687 -0.045925114 0.03547255 0.036767136 -0.006766491 -0.08681976 0.081835985 0.050117195
0.01731924 0.011297795 -0.017995741 0.025927465 -0.20373692 -0.10486846 0.061086923 0.036107834
-0.044682194 -0.12123182 0.031803574 -0.056483068 -0.14460678 0.022322815 0.4188477 -0.03428217
0.036267195 -0.3037243 -0.12136038 -0.08155613 0.07040703 -0.07807018 0.035955243 0.12371198
-0.030839426 0.08258706 -0.24055977 -0.06940766 -0.031802066 -0.02953971 -0.08996013 -0.080081426
00000000: 2cab e6bd 29d6 c5bd 4993 86bc a519 4abc
00000010: 90ff d23c 0914 c13b 3545 d6be aff6 b83c
00000020: 34cf a5bd 982a 0c3e 8f35 1abe 06d7 8dbd
00000030: 680e 4e3c 7554 e7bc 3847 e53d 871f 673d
00000040: 167d 54bd 3076 a63b 1c0b 54bd e8bd 7c3d
00000050: be4c 36be b1bc 00be ce8c a8bd 701e 74bc
00000060: 6059 02be 9ba5 793b a732 313d 0486 783d
00000070: 9a82 053e b1a7 b73d 922d bc3d 6adf 9cbd
00000080: 3fa5 233c 4428 99be f509 55be f1d3 813d
00000090: a1f7 813d 0aed aaba 5fa1 0bbe 9e86 68bd
000000a0: ee23 13be 8c64 a9bd 0ab4 8e3d cfe6 f6bd
000000b0: a91c c83d d47e 4bbe edf2 e1bd 106d b83d
000000c0: 6c69 87bc 0dba 57be 9b57 bf3b 2ab4 343d
000000d0: dd89 983d 1ebd 0b3c 359d 1b3e b0a1 083d
000000e0: 3393 f13a db77 c03b dbf3 1bbe ddad 22bd
000000f0: 51a0 5abd e6b7 bcbc 0cff 733d bff6 013d
00000100: 1b32 4abc 0c6f 86bd d180 d7bd e0f5 d5bd
00000110: e7bd 03be 1aaf cabc 76b3 abbd 3f0d f53c
00000120: 62ca 743d 705d 8bbb 903f 9d3c 3a1c 08bc
00000130: b413 3a3e 21a0 033d b2a0 19be 0f0f 8fbd
00000140: ce8e 91bd a343 7f3c 211b 04bf 5655 36be
00000150: 1753 933c 0dde c5bd ccce 8abc da2b 333b
00000160: 761a 8dbc 481e e9bc 6273 86bd e815 a1bd
00000170: 3e9b c1bc 07fa 5bbe fd54 0fbe 3f63 e4bc
00000180: f918 9bbc bc4a df3b 769b ac3d 6282 2d3d
00000190: 559a 313c 8068 893c 1481 2f3e 084b 633d
000001a0: 3233 c33c 80d6 243d ddf6 e73d cc8b 873d
000001b0: 09fa 90bc 2c85 4f3d cfc4 a33d b11a 4f3d
000001c0: 6bbc d3bb 4635 573d f0ac 4d3d 6435 81bc
000001d0: d316 8e3e ef4c 0c3e e6cd 683e 003c 1dbd
000001e0: 7a69 e23d e941 8a3d 5c04 44bc 90a9 60bd
000001f0: 80c8 f23c d770 b83d e379 d7bc c0cd abbc
00000200: a9eb c4bb 9f9b 823d 0424 b6bd 2e34 8b3b
00000210: d141 5cbd e02b 8abd 202e 6dbc 9af2 48bc
00000220: 9a8a 2f3d 03b2 03be 2de7 2a3d a467 2a3d
00000230: 27e2 043d fd32 013c 4954 c4bd add3 a03d
00000240: c0dd 07bd ccc2 04bd 8f10 18bd 84d9 3dbd
00000250: 6d97 35be 58f7 1b3e 2c29 c9be b0b6 af3a
00000260: 7a90 4bbd 6eda 52bb 31ba ee3d 6419 9dbd
00000270: fcdd 0a3d f3b0 d1bd 77c9 853d 63cb bdb8
00000280: fa52 033d bfda 51be de3f 6b3c 39df ac3d
00000290: 8863 9abd 1589 0bbe 65e4 42be cdbd 383e
000002a0: 9040 ac3d e175 a13b a706 1e3e 9154 aabd
000002b0: d3a0 a0bc 92dd 813e ea62 2ebe c512 073d
000002c0: 472a b0bc 948d b8bc 7278 17bd 9027 b9bd
000002d0: eb06 02bd 7fc5 82bd a187 d3bd dcf8 d5bd
000002e0: b8f8 383e bbc7 663d 939d a03d 85f3 7fbd
000002f0: 273e a33d ec8d 5a3d 75fa c1bc dd96 aebd
00000300: 8957 413c 8efc 303d 4c0a 94bd 09a7 ba3b
00000310: f194 173e ec07 91bd f0c3 8b3c 2314 c5bd
00000320: 662b 0fbd b5a7 a93c 46ba a9be a0d4 cabd
00000330: a6b7 5bbe 46c0 ccbd 940a 7dbb 33e4 bf3c
00000340: 1575 d8bc cce1 c6bd 1576 f63b 6a44 97bd
00000350: 3fb3 1c3c 4763 3dbd 7cb8 63bc 0550 ae3c
00000360: f6d0 0abd f91b 3cbd aa4b 113d 2399 163d
00000370: 71b9 ddbb 8fce b1bd a099 a73d b047 4d3d
00000380: 14e1 8d3c 631a 393c ce6b 93bc d665 d43c
00000390: 69a0 50be 46c5 d6bd 4836 7a3d cfe5 133d
000003a0: ad04 37bd 6348 f8bd 7744 023d ca5a 67bd
000003b0: cd13 14be 56de b63c 3573 d63e 766b 0cbd
000003c0: e98c 143d c081 9bbe ca8b f8bd e606 a7bd
000003d0: 9031 903d 42e3 9fbd ce45 133d b55c fd3d
000003e0: f7a2 fcbc 6823 a93d 4d55 76be 9a25 8ebd
000003f0: e242 02bd 43fd f1bc 043d b8bd bb01 a4bd

features.denseblock1.denselayer1.norm2.weight f4 [48]
0.27173617 0.323672 0.12188572 0.33144483 0.35964504 0.09218182 0.252266 0.34464723
0.20263457 0.36592647 0.3366866 0.34957084 0.18250169 0.2874153 0.28069693 0.28981227
0.28607842 0.58557427 0.26601276 0.24724633 0.37154883 0.37058434 0.22290124 0.25020677
0.2531136 0.27693477 0.2655205 0.22530513 0.29605556 0.29644805 0.28085813 0.30614462
0.40864813 0.1378922 0.3324235 0.26090282 0.32512078 0.3117857 0.25027314 0.2913172
0.20967893 0.2613291 0.2566841 0.32335147 0.13843659 0.3633992 0.2565856 0.22051637
00000000: 0121 8b3e 56b8 a53e 389f f93d 23b3 a93e
00000010: 6523 b83e d2c9 bc3d 0229 813e 9a75 b03e
00000020: 707f 4f3e b75a bb3e 3062 ac3e f3fa b23e
00000030: b9e1 3a3e 1928 933e 82b7 8f3e 4662 943e
00000040: df78 923e 32e8 153f d332 883e 242e 7d3e
00000050: a63b be3e 3bbd bd3e 3940 643e 1a1b 803e
00000060: 1b98 813e 65ca 8d3e 4ef2 873e 63b6 663e
00000070: 9894 973e 0ac8 973e a3cc 8f3e fdbe 9c3e
00000080: 543a d13e 9d33 0d3e 6a33 aa3e 0e95 853e
00000090: 3b76 a63e 60a2 9f3e cd23 803e 8727 953e
000000a0: 13b6 563e eecc 853e 196c 833e 538e a53e
000000b0: 52c2 0d3e 760f ba3e 305f 833e 0bcf 613e

features.denseblock1.denselayer1.norm2.bias f4 [48]
0.3600563 0.023777165 0.12907211 0.121244445 -0.29192835 0.15048459 0.34126505 -0.30474037
0.0675327 -0.15098062 -0.14420041 -0.09177871 0.14795022 -0.34783188 0.21330458 0.5382226
0.14091209 -0.38373366 -0.20268081 -0.14039394 -0.3480711 0.07074091 0.19028544 -0.054286197
0.04560957 0.18570356 -0.004968 0.10877716 0.020746332 0.103791624 0.10147575 -0.026671655
-0.3363013 0.33112264 -0.13965112 0.2635961 0.4061378 0.17622927 0.0886556 -0.291098
0.04068037 -0.1259169 0.10966688 -0.15872234 0.22362162 0.033828203 -0.105466336 -0.14251827
00000000: 4d59 b83e 54c8 c23c 7b2b 043e 024f f83d
00000010: a277 95be a218 1a3e 4bba ae3e ee06 9cbe
00000020: 964e 8a3d aa9a 1abe 46a9 13be 7af6 bbbd
00000030: 4380 173e 0517 b2be 846c 5a3e f5c8 093f
00000040: 424b 103e bd78 c4be 8f8b 4fbe 6ec3 0fbe
00000050: 6036 b2be 9ce0 903d 30da 423e 345b 5ebd
00000060: 1ad1 3a3d 1329 3e3e 9bca a2bb 8fc6 de3d
00000070: 36f4 a93c b490 d43d 85d2 cf3d 847e dabc
00000080: af2f acbe e888 a93e b400 0fbe 11f6 863e
00000090: 4bf1 cf3e 7275 343e 1191 b53d cc0a 95be
000000a0: 76a0 263d 5cf0 00be 0799 e03d 1c88 22be
000000b0: 11fd 643e 718f 0a3d bcfe d7bd 4ff0 11be

features.denseblock1.denselayer1.norm2.running_mean f4 [48]
-0.59380996 -0.104698986 -0.13482074 -0.50635517 0.3821817 -0.06364436 -0.48315173 -0.14008336
-0.28832853 -0.06892395 -0.3605263 -0.19523717 -0.042065304 -0.005149394 0.17921181 0.65828633
-0.34364834 0.36762804 0.07757975 -0.23106806 -0.10054315 -0.037714124 -0.11580835 -0.2609779
0.21270376 0.05164555 -0.044728734 -0.12916005 -0.44684947 -0.058608036 -0.0044030054 -0.03714441
0.06120812 0.1195279 -0.26455784 -0.34644106 -0.441744 -0.066826396 0.14499891 0.15827347
0.099987686 -0.094071455 -0.1632617 0.022698073 -0.17167856 0.09099711 0.012589611 0.17047304
00000000: ee03 18bf 6c6c d6bd 730e 0abe 7ea0 01bf
00000010: 52ad c33e f957 82bd aa5f f7be 0372 0fbe
00000020: cc9f 93be 0028 8dbd e796 b8be 41ec 47be
00000030: ab4c 2cbd 3fbc a8bb 4d83 373e 7485 283f
00000040: adf2 afbe be39 bc3e 22e2 9e3d 1b9d 6cbe
00000050: 91e9 cdbd 207a 1abd ee2c edbd e59e 85be
00000060: 04cf 593e 498a 533d 7a35 37bd 8842 04be
00000070: 74c9 e4be fb0e 70bd 1647 90bb bd24 18bd
00000080: 5eb5 7a3d 0bcb f43d 2074 87be b960 b1be
00000090: 452c e2be 47dc 88bd 987a 143e 7112 223e
000000a0: 58c6 cc3d 89a8 c0bd 132e 27be 4ff1 b93c
000000b0: 81cc 2fbe b15c ba3d a844 4e3c 7c90 2e3e

features.denseblock1.denselayer1.norm2.running_var f4 [48]
0.025677457 0.025235297 0.010495748 0.03863594 0.025083074 0.009302443 0.044113148 0.010592935
0.015760254 0.016147494 0.022043258 0.024271041 0.018736258 0.009147427 0.051210385 0.019417679
0.048240475 0.06862226 0.007917998 0.01438819 0.013464431 0.06175004 0.030879974 0.016007744
0.023077887 0.06104897 0.010953673 0.01989688 0.034687776 0.039564975 0.02486 0.017421199
0.019240936 0.017989097 0.019002188 0.036661264 0.056798853 0.05390221 0.033135355 0.012731357
0.009528401 0.010876943 0.02277186 0.019329818 0.01953593 0.030350773 0.013212478 0.009869751
00000000: 8859 d23c 41ba ce3c 5cf6 2b3c b840 1e3d
00000010: 057b cd3c 4669 183c fdaf 343d fd8d 2d3c
00000020: a61b 813c c047 843c 1094 b43c 10d4 c63c
00000030: c87c 993c 17df 153c fbc1 513d d311 9f3c
00000040: ce97 453d d489 8c3d 7eba 013c 71bc 6b3c
00000050: eb99 5c3c 9ced 7c3d 00f8 fc3c ac22 833c
00000060: d60d bd3c 7c0e 7a3d 0977 333c c8fe a23c
00000070: c514 0e3d e20e 223d 33a7 cb3c e7b6 8e3c
00000080: 2b9f 9d3c df5d 933c 7aaa 9b3c 1f2a 163d
00000090: eaa5 683d 90c8 5c3d f0b8 073d 2e97 503c
000000a0: 031d 1c3c 3535 323c 0d8c ba3c 9159 9e3c
000000b0: d109 a03c 2fa2 f83c 2679 583c bcb4 213c

features.denseblock1.denselayer1.conv2.weight f4 [12, 48, 3, 3]
0.020727083 -0.12684688 0.04062757 0.024301521 0.27464458 0.012416952 -0.08440435 -0.15515257
-0.0742135 -0.11343226 -0.04475742 -0.049140666 -0.11685694 -0.19493856 -0.027090408 0.087436065
0.25833532 0.12937447 0.017164096 0.08699102 0.0047158613 -0.004641065 -0.051418737 -0.055066947
0.0067861713 -0.009182163 0.0025669357 0.08914997 -0.10520217 -0.043516733 0.068737514 0.11775036
0.0063120676 0.03432255 -0.046600915 0.018368112 -0.051373996 0.003348634 -0.04105616 0.018388906
-0.11057553 0.006693886 0.018185424 -0.0018096791 -0.04733271 0.023186695 0.0153677985 -0.01804262
0.0071118562 0.041583296 0.03459906 -0.056012623 -0.079432786 -0.050137524 -0.010012752 -0.12389535
0.009569757 -0.012855514 0.2573554 0.086981006 -0.081170656 -0.12811387 -0.01189611 0.09544899
0.07534563 0.09416316 0.031489138 0.29242954 -0.0035879728 -0.10111512 -0.16757967 -0.06530775
0.029068269 0.010861802 0.0062118764 -0.041855574 -0.06993446 0.02022016 -0.078093156 4.3945078e-05
-0.054473918 0.05048353 0.09336996 0.01328864 -0.0026316168 -0.11661907 -0.0005405373 0.009146505
0.037264112 -0.015406426 0.09944597 0.075000554 0.021103969 0.05348072 -0.049085964 -0.047878977
0.010317648 0.030179422 -0.045818638 0.023925813 -0.03762601 -0.08487347 0.034247715 -0.096414596
-0.049846146 -0.060018748 -0.016068762 0.03974949 0.014698486 -0.08392031 0.010167964 0.040401544
0.045976523 0.009780433 -0.02452802 -0.016808433 -0.0374604 0.021036949 0.03635325 0.050626196
0.0066365027 -0.013186054 0.031593714 0.044969972 0.030557135 -0.014537134 -0.06917071 0.08735984
-0.10248606 0.045669526 -0.21223006 0.097404145 -0.08595913 0.17185739 -0.0019598375 -0.055746533
0.22666517 -0.1127567 0.16636468 -0.16940401 0.21533138 -0.09288743 0.066625506 -0.14842582
0.061886154 0.11322586 0.04382896 -0.028246438 -0.11603166 -0.0029169933 -0.051519115 0.06508818
-0.025648696 -0.017323118 -0.041528467 -0.050940044 -0.08713893 -0.36686397 -0.06921959 0.078237236
-0.024285711 0.04385256 -0.038366586 -0.11957588 -0.10581232 0.006031085 -0.118944965 -0.03155619
0.030179162 0.057037536 0.054180153 0.11730794 0.12350093 0.09629984 -0.025784029 0.012044623
-0.03814497 0.046655606 0.110247165 0.055561256 0.0834298 0.11473696 0.09761181 -0.0094238855
0.33163032 0.012319136 -0.06746939 -0.18875086 -0.032897208 0.061308045 0.026649075 0.05033993
-0.026155092 0.16537467 -0.0013523712 0.0031940977 -0.13544926 0.09620373 -0.036885854 -0.17459014
-0.082170896 -0.03897087 0.11964518 -0.031388346 -0.067083456 -0.19663754 -0.0030744744 -0.03016323
-0.076212086 0.031569943 0.013750867 0.12884632 0.0002831691 -0.105714135 -0.13761036 -0.15437637
0.059380222 0.17858219 0.043011136 0.018540708 -0.16616665 0.027717486 0.03681083 0.08276923
-0.016501773 0.0053400793 -0.027691523 0.06477469 0.02669773 0.15462118 0.06452705 -0.019814001
-0.13966267 0.0009118935 -0.05400925 -0.039430585 -0.03190775 0.07638346 0.10817463 0.019519946
-0.0982325 -0.08926857 -0.08668 -0.07474742 -0.17512976 -0.04943449 0.09702842 0.16658466
-0.00036361293 -0.096964665 -0.17064449 -0.02975642 0.055133592 0.07719154 0.0077191 -0.0037315458
00000000: d8cb a93c 26e4 01be 1869 263d fc13 c73c
00000010: 379e 8c3e 7970 4b3c 30dc acbd 51e0 1ebe
00000020: 3ffd 97bd 2c4f e8bd 8e53 37bd b947 49bd
00000030: b152 efbd f99d 47be b4ec ddbc ae11 b33d
00000040: 8744 843e be7a 043e b89b 8c3c 5928 b23d
00000050: 8387 9a3b 1314 98bb 749c 52bd e18d 61bd
00000060: 885e de3b c870 16bc 093a 283b 4294 b63d
00000070: 3c74 d7bd 9a3e 32bd 41c6 8c3d 1a27 f13d
00000080: 76d5 ce3b cd95 0c3d 9ae0 3ebd b978 963c
00000090: 8a6d 52bd c274 5b3b 812a 28bd 55a4 963c
000000a0: 6c75 e2bd 6358 db3b 99f9 943c c132 edba
000000b0: f2df 41bd 06f2 bd3c 38c9 7b3c 1ece 93bc
000000c0: 930a e93b 3f53 2a3d beb7 0d3d 7e6d 65bd
000000d0: a8ad a2bd 015d 4dbd 870c 24bc d8bc fdbd
000000e0: 78ca 1c3c ef9f 52bc 16c4 833e 1923 b23d
000000f0: cd3c a6bd 4830 03be e7e7 42bc c37a c33d
00000100: cf4e 9a3d 9dd8 c03d c1fa 003d 53b9 953e
00000110: 3224 6bbb 7215 cfbd 019a 2bbe 12c0 85bd
00000120: 9420 ee3c b3f5 313c ff8c cb3b c070 2bbd
00000130: cc39 8fbd c0a4 a53c 4eef 9fbd ab51 3838
00000140: 0b20 5fbd d1c7 4e3d c038 bf3d 99b8 593c
00000150: 3477 2cbb fbd5 eebd d8b2 0dba 39db 153c
00000160: 41a2 183d 3c6b 7cbc 54aa cb3d e499 993d
00000170: 3be2 ac3c 990e 5b3d 5d0e 49bd bf1c 44bd
00000180: 5a0b 293c d63a f73c 53ac 3bbd 1100 c43c
00000190: bb1d 1abd 24d2 adbd 5547 0c3d 0475 c5bd
000001a0: 792b 4cbd 38d6 75bd a3a2 83bc 5cd0 223d
000001b0: ebd1 703c 69de abbd 8897 263c 177c 253d
000001c0: e151 3c3d 1c3e 203c fcee c8bc d7b1 89bc
000001d0: 1470 19bd ae55 ac3c 25e7 143d 6a5d 4f3d
000001e0: 0577 d93b 520a 58bc 6968 013d 6f32 383d
000001f0: f552 fa3c 292d 6ebc 60a9 8dbd b7e9 b23d
00000200: 36e4 d1bd f80f 3b3d d652 59be d37b c73d
00000210: 570b b0bd 62fb 2f3e 9e70 00bb 7a56 64bd
00000220: ea1a 683e fcec e6bd 815b 2a3e 3f78 2dbe
00000230: d47f 5c3e c43b bebd f472 883d f0fc 17be
00000240: 567c 7d3d f6e2 e73d ff85 333d 1365 e7bc
00000250: 02a2 edbd 072b 3fbb b505 53bd f44c 853d
00000260: 371d d2bc 36e9 8dbc c119 2abd 82a6 50bd
00000270: e575 b2bd 98d5 bbbe 00c3 8dbd d83a a03d
00000280: d4f2 c6bc be9e 333d 4826 1dbd 33e4 f4bd
00000290: 21b4 d8bd 68a0 c53b 6b99 f3bd 1041 01bd
000002a0: 4a3a f73c 31a0 693d 02ec 5d3d 253f f03d
000002b0: 0eee fc3d da38 c53d 0739 d3bc cf56 453c
000002c0: e63d 1cbd f319 3f3d 44c9 e13d 3394 633d
000002d0: 3edd aa3d 36fb ea3d b3e8 c73d a466 1abc
000002e0: 73cb a93e 34d6 493c 642d 8abd e847 41be
000002f0: 39bf 06bd 251e 7b3d 294f da3c 3e31 4e3d
00000300: 3443 d6bc fa57 293e 0c42 b1ba 1154 513b
00000310: 36b3 0abe 7606 c53d 9f15 17bd c2c7 32be
00000320: 3749 a8bd eb9f 1fbd 8808 f53d 1191 00bd
00000330: 0d63 89bd 5a5b 49be 1f7d 49bb e118 f7bc
00000340: 1515 9cbd 7c4f 013d 514b 613c 4af0 033e
00000350: 5076 9439 a780 d8bd bbe9 0cbe d714 1ebe
00000360: ad38 733d 40de 363e 722c 303d afe2 973c
00000370: 9727 2abe c80f e33c f4c6 163d ea82 a93d
00000380: ba2e 87bc d5fb ae3b 55d9 e2bc 98a8 843d
00000390: 33b5 da3c 0455 1e3e c226 843d f950 a2bc
000003a0: bb03 0fbe 230c 6f3a ce38 5dbd f781 21bd
000003b0: b3b1 02bd ee6e 9c3d a98a dd3d 4be8 9f3c
000003c0: 1f2e c9bd 71d2 b6bd 4985 b1bd 2d15 99bd
000003d0: 3755 33be d27b 4abd d6b6 c63d 2b95 2a3e
000003e0: 4da3 beb9 6995 c6bd 6ebd 2ebe bcc3 f3bc
000003f0: c3d3 613d 9916 9e3d 81f0 fc3b f38c 74bb

features.denseblock1.denselayer2.norm1.weight f4 [36]
0.23471329 1.567798e-06 0.40560654 0.01999126 0.12551226 0.004968532 0.358969 0.22387284
0.31887522 0.38309687 0.2291931 0.3152358 0.0658907 0.25652325 0.40672645 0.1980631
0.0075469553 0.00077921385 0.21219227 3.8856172e-07 0.35854483 0.43999192 0.0003610923 0.16892256
0.389921 0.23545569 0.6497178 1.4017645e-06 -0.0005563521 0.0035029068 0.00031985468 0.03234085
0.18589328 0.19471693 0.29047263 0.36408526
00000000: ae58 703e 216d d235 a9ab cf3e b6c4 a33c
00000010: 4986 003e 11cf a23b c9ca b73e ec3e 653e
00000020: 9d43 a33e 4625 c43e 99b1 6a3e 9666 a13e
00000030: b4f1 863d 0457 833e 733e d03e 0ed1 4a3e
00000040: 734c f73b 2844 4c3a ee48 593e 849b d034
00000050: 3093 b73e 9f46 e13e fd50 bd39 09fa 2c3e
00000060: baa3 c73e 4c1b 713e e853 263f 4324 bc35
00000070: 28d8 11ba 0691 653b 2bb2 a739 d777 043d
00000080: cf5a 3e3e e063 473e d4b8 943e 6269 ba3e

features.denseblock1.denselayer2.norm1.bias f4 [36]
0.54108447 -2.5653348e-05 -0.34158477 0.04780942 0.051947083 -0.016072994 0.7265225 -0.09709515
0.21788321 0.3066756 -0.15055755 0.2575427 0.046016518 -0.06720301 0.23183617 0.12463573
-0.030323178 -0.014908777 0.03812319 -3.5301075e-06 -0.12316016 0.34824327 -0.0008530917 -0.01504135
0.5111123 -0.11455288 -0.6330823 -2.1715707e-05 -0.005671589 -0.020946298 -0.0037795883 -0.01622804
0.06599952 0.035331406 0.029466813 0.64450264
00000000: 8384 0a3f 2532 d7b7 33e4 aebe cfd3 433d
00000010: 77c6 543d 83ab 83bc 61fd 393f d2d9 c6bd
00000020: c71c 5f3e 9604 9d3e c22b 1abe a3dc 833e
00000030: d17b 3c3d bba1 89bd 7666 6d3e 0541 ff3d
00000040: 5068 f8bc f143 74bc 1027 1c3d c9e6 6cb6
00000050: 653b fcbd f14c b23e 04a2 5fba ff6f 76bc
00000060: 41d8 023f b39a eabd ae11 22bf 202a b6b7
00000070: bdd8 b9bb 9297 abbc f8b2 77bb abf0 84bc
00000080: c22a 873d aab7 103d 6364 f13c 20fe 243f

features.denseblock1.denselayer2.norm1.running_mean f4 [36]
-0.08883756 0.015216522 -0.292902 -0.07365159 0.023749538 -0.29443344 0.03471293 -0.029651804
0.00063689647 0.04314944 0.022279417 0.0084800245 0.0046476885 0.042379696 0.03939905 0.006519762
-0.16706727 -0.08776293 0.18858846 -0.032057364 0.5520552 0.033259384 0.49266577 -0.088543214
-0.4696231 -0.32852346 0.9210105 0.40293804 0.07381023 -1.1133264 -0.10515405 -0.16085881
0.17581616 -0.38754544 -0.9321435 -0.09785574
00000000: 77f0 b5bd b84e 793c 40f7 95be a5d6 96bd
00000010: 648e c23c fbbf 96be 252f 0e3d 57e8 f2bc
00000020: 66f5 263a 78bd 303d 5383 b63c cdef 0a3c
00000030: a34b 983b 5596 2d3d e660 213d baa3 d53b
00000040: af13 2bbe 0dbd b3bd 551d 413e 954e 03bd
00000050: 7d53 0d3f fe3a 083d b03e fc3e 2556 b5bd
00000060: 7072 f0be 3a34 a8be 58c7 6b3f e54d ce3e
00000070: d129 973d 7b81 8ebf 025b d7bd 2cb8 24be
00000080: 2709 343e 5b6c c6be f5a0 6ebf 9768 c8bd

features.denseblock1.denselayer2.norm1.running_var f4 [36]
1.077607 0.6749874 1.7667093 0.26047754 0.21006824 2.014053 0.9711499 0.3355653
2.9556122 7.4979086 0.424353 4.513983 2.4675732 0.89466673 9.916995 2.8049974
1.2745041 1.3695676 1.1832539 0.8880176 6.4250507 6.700466 5.6353292 0.8982501
0.49686426 0.30773404 0.42022908 0.34185416 0.24514303 0.40019065 0.22948156 0.21370624
0.4031367 0.28392026 0.38681835 0.47353554
00000000: 07ef 893f f9cb 2c3f 8823 e23f 505d 853e
00000010: 211c 573e 3fe6 0040 489d 783f 37cf ab3e
00000020: c028 3d40 deee ef40 cc44 d93e 8c72 9040
00000030: b8ec 1d40 e108 653f 03ac 1e41 1485 3340
00000040: f322 a33f fe4d af3f dd74 973f 1f55 633f
00000050: 049a cd40 386a d640 9e54 b440 b8f3 653f
00000060: fe64 fe3e 518f 9d3e 4428 d73e 8207 af3e
00000070: c606 7b3e cae5 cc3e 37fd 6a3e cfd5 5a3e
00000080: ef67 ce3e ff5d 913e 0e0d c63e 4073 f23e

features.denseblock1.denselayer2.conv1.weight f4 [48, 36, 1, 1]
0.14241372 7.45322e-06 0.021763993 -0.025711082 0.0330764 -0.0006230395 -0.10609932 -0.058378313
0.03533808 -0.1927618 0.0862438 0.09870884 0.04435185 -0.016425708 -0.119104736 -0.0616477
-0.005144991 0.0013613289 0.06188108 1.7393415e-06 0.061734673 0.10145554 -0.00018223531 0.025524298
0.19393133 -0.11608007 -0.005552625 -5.2504656e-06 -0.0033531825 -0.0029124906 0.0018770535 -0.01120843
-0.096590035 -0.012378031 -0.32094195 0.06764034 0.030384218 3.858211e-06 0.14577092 -0.022773618
-0.08127533 0.0042462656 -0.22172008 0.061525527 -0.2531104 -0.17011516 -0.13866071 -0.38058388
-0.017192027 -0.03648846 0.0053936387 0.009138931 0.0004954956 0.0013930263 0.110998146 -2.3430027e-06
0.004771011 0.042637788 -8.643711e-05 0.026680117 0.09223828 -0.03801841 -0.0523815 1.693874e-06
-0.00017797164 -0.014664547 0.0003590585 -0.002935846 0.042796675 0.00057727244 0.048634302 -0.08748446
0.07757022 -4.2515812e-06 0.062978946 -0.031052044 -0.056977134 0.003258196 -0.22062391 0.0017547802
-0.26460442 0.037625805 -0.12525547 -0.22243084 0.005678847 -0.054799896 -0.19293708 -0.05763239
0.006365513 0.002564244 0.056065943 -1.9310951e-08 -0.08020344 0.10485143 -0.00014846801 0.0020434656
0.021515982 0.025878504 -0.13725479 4.6388714e-06 -0.000778355 -0.0024814706 -0.0017553507 -0.0049758125
-0.002227293 -0.014271777 0.06853909 -0.009113133 0.090923585 -3.3258884e-06 0.09210618 -0.028135935
0.040824823 0.0029089008 -0.0068590497 0.040653978 -0.031798948 0.050255917 -0.012444394 0.032085963
0.036286507 0.003964337 -0.3536691 -0.17932731 -0.0005106302 -0.008798302 0.11627061 -2.0195192e-07
0.11208587 -0.14567332 -0.0001803954 0.008030749 0.21252508 0.058647744 -0.21329637 7.112028e-06
0.0010617848 0.025018806 -0.00011641209 -0.0158277 -0.13436505 0.028481267 -0.09157041 -0.05717642
-0.021943904 2.0106292e-05 -0.037085053 -0.032878406 -0.070444 -0.0058194064 -0.07707346 -0.004090235
0.06527414 -0.10248231 -0.00023276324 0.09499011 -0.010057573 0.02328935 -0.08063789 -0.08299868
-0.005110818 0.0039159427 0.079368874 -1.1051683e-06 -0.0012082662 -0.45213366 0.00016187115 0.0038579456
-0.012314745 -0.011690305 -0.116386086 -4.7523436e-06 0.00027118312 0.0146184275 0.0007661841 -0.009636774
0.08342121 -0.00809281 0.0562219 -0.02966898 -0.08685665 2.862237e-06 0.08345988 0.002434216
0.037910797 0.0063926075 0.10492112 -0.04601224 0.079909705 0.104034185 -0.062112764 0.07954473
-0.007420456 -0.059173003 -0.33683845 -0.22287916 0.008755451 0.007221041 0.031224288 7.6463857e-07
0.049854413 -0.13046573 1.8738227e-05 0.059249848 -0.095848925 -0.1266495 -0.305157 -4.8523893e-06
0.0017697026 0.0031906962 0.00013980223 0.0022932403 0.07016317 0.057770777 -0.007765112 -0.10392258
0.20046563 -1.7593328e-06 0.115759686 -0.027636766 -0.04996253 0.0064426744 -0.15065135 0.09273387
-0.06569177 -0.11545071 0.072389 -0.021408627 -6.5608794e-05 -0.010996873 -0.21239358 -0.07719732
0.00089771335 -0.00041620812 -0.011880514 -7.4776165e-07 -0.049553126 0.10815053 -0.00016312244 0.01033874
0.25957838 0.046847656 0.008836293 8.286042e-06 -0.006048121 -0.032265857 0.0021579368 -0.018186066
-0.08399088 0.009773237 -0.1092119 0.027714815 0.018680468 -1.6591969e-06 0.0024304502 -0.004379573
00000000: e7d4 113e ac16 fa36 674a b23c 0ca0 d2bc
00000010: 1f7b 073d 7953 23ba 9a4a d9bd 191e 6fbd
00000020: aabe 103d 5963 45be 97a0 b03d dc27 ca3d
00000030: 49aa 353d 358f 86bc 2fed f3bd 4c82 7cbd
00000040: 5097 a8bb 9e6e b23a 0477 7d3d 5273 e935
00000050: 7fdd 7c3d ecc7 cf3d 6b16 3fb9 5518 d13c
00000060: ef95 463e 63bb edbd cbf2 b5bb 282d b0b6
00000070: 11c1 5bbb 7cdf 3ebb 7707 f63a 90a3 37bc
00000080: ffd0 c5bd 3acd 4abc 8152 a4be 0587 8a3d
00000090: 53e8 f83c c875 8136 f944 153e bd8f babc
000000a0: ae73 a6bd 4224 8b3b 970a 63be 3102 7c3d
000000b0: b097 81be ab32 2ebe 13fd 0dbe e4db c2be
000000c0: 4bd6 8cbc ec74 15bd 1fbd b03b 74bb 153c
000000d0: 26e4 013a 3596 b63a ff52 e33d 7b3c 1db6
000000e0: 2456 9c3b f6a4 2e3d 9245 b5b8 4390 da3c
000000f0: 6ce7 bc3d 31b9 1bbd fc8d 56bd 1159 e335
00000100: e69d 3ab9 9143 70bc 0440 bc39 5367 40bb
00000110: 914b 2f3d 1954 173a c334 473d 0d2b b3bd
00000120: 23dd 9e3d cea8 8eb6 1bfb 803d db60 febc
00000130: db60 69bd 7587 553b 3ceb 61be a700 e63a
00000140: 3b7a 87be 841d 1a3d f842 00be e9c4 63be
00000150: 9f15 ba3b db75 60bd 4c91 45be f10f 6cbd
00000160: cb95 d03b e00c 283b 67a5 653d 3be1 a5b2
00000170: b341 a4bd 59bc d63d 14ae 1bb9 aaeb 053b
00000180: 4942 b03c 28ff d33c 858c 0cbe 9aa7 9b36
00000190: 850a 4cba 2ba0 22bb cc13 e6ba 240c a3bb
000001a0: c7f7 11bb 2cd4 69bc 395e 8c3d 404f 15bc
000001b0: 2536 ba3d 5432 5fb6 2aa2 bc3d 557d e6bc
000001c0: ee37 273d 42a3 3e3b e1c1 e0bb c984 263d
000001d0: 9d3f 02bd 26d9 4d3d 92e3 4bbc 926c 033d
000001e0: 29a1 143d 45e7 813b 1e14 b5be 94a1 37be
000001f0: d0db 05ba c126 10bc 491f ee3d 1fd8 58b4
00000200: 478d e53d 632b 15be 8528 3db9 6793 033c
00000210: 2da0 593e 9e38 703d 5d6a 5abe dba3 ee36
00000220: 962b 8b3a 3df4 cc3c 4422 f4b8 18a9 81bc
00000230: fe96 09be 8c51 e93c 4489 bbbd d231 6abd
00000240: b4c3 b3bc efa9 a837 7fe6 17bd 82ab 06bd
00000250: f244 90bd b8b0 bebb b1d8 9dbd 6107 86bb
00000260: 73ae 853d 3fe2 d1bd e811 74b9 2d8a c23d
00000270: 85c8 24bc 4fc9 be3c 7a25 a5bd 36fb a9bd
00000280: a678 a7bb 4f51 803b 268c a23d 4b55 94b5
00000290: b05e 9eba 107e e7be f5bb 2939 96d5 7c3b
000002a0: c9c3 49bc b188 3fbc d45b eebd 5276 9fb6
000002b0: 952d 8e39 2182 6f3c bfd9 483a 8fe3 1dbc
000002c0: bdd8 aa3d b597 04bc ef48 663d 5c0c f3bc
000002d0: e6e1 b1bd db14 4036 03ed aa3d 5e87 1f3b
000002e0: 5a48 1b3d 1479 d13b e2e0 d63d 5577 3cbd
000002f0: b3a7 a33d e00f d53d f469 7ebd 59e8 a23d
00000300: 4c27 f3bb 645f 72bd 1776 acbe 6f3a 64be
00000310: 0673 0f3c 7b9e ec3b 14ca ff3c 9041 4d35
00000320: 2434 4c3d cf98 05be 0930 9d37 f8af 723d
00000330: 714c c4bd 68b0 01be 8a3d 9cbe b5d1 a2b6
00000340: 5ef5 e73a 001b 513b e097 1239 304a 163b
00000350: b5b1 8f3d 0da1 6c3d 7b72 febb 5dd5 d4bd
00000360: dd46 4d3e 3722 ecb5 6a13 ed3d 8066 e2bc
00000370: 83a5 4cbd 121d d33b 5944 1abe 41eb bd3d
00000380: 6889 86bd 6c71 ecbd af40 943d 2561 afbc
00000390: 7497 89b8 3a2c 34bc b47d 59be a119 9ebd
000003a0: 8654 6b3a 8236 dab9 7da6 42bc cab9 48b5
000003b0: 38f8 4abd 067e dd3d d90b 2bb9 d263 293c
000003c0: 75e7 843e 54e3 3f3d 19c6 103c 4804 0b37
000003d0: 512f c6bb 3429 04bd 2c6c 0d3b f2fa 94bc
000003e0: 6903 acbd ed1f 203c 7daa dfbd 2e0a e33c
000003f0: c807 993c 92b1 deb5 3048 1f3b 8582 8fbb

features.denseblock1.denselayer2.norm2.weight f4 [48]
0.3281513 0.3467696 0.28633162 0.26651055 0.30122235 0.33387512 0.3347166 0.23607427
0.33342224 0.31394482 0.27526367 0.31952855 0.38441473 0.30901283 0.11948841 0.27652878
0.35038444 0.32312596 0.25759867 0.18510216 0.2766508 0.2593558 0.486405 0.2782953
0.23404028 0.31207952 0.2691854 0.16594644 0.385049 0.19687082 0.2904795 0.25721464
0.25926983 0.014970539 0.22704747 0.37146422 0.30986604 0.49144885 0.23286556 0.008400053
0.32862207 0.24394742 0.26962453 0.1898259 0.36734587 0.23739633 0.40041012 0.27473795
00000000: 7203 a83e c98b b13e 0f9a 923e 1274 883e
00000010: d139 9a3e aef1 aa3e f95f ab3e 74bd 713e
00000020: 52b6 aa3e 60bd a03e 5cef 8c3e 3f99 a33e
00000030: 02d2 c43e ee36 9e3e 57b6 f43d 2e95 8d3e
00000040: 9765 b33e c470 a53e f9e3 833e 6c8b 3d3e
00000050: 2ca5 8d3e 49ca 843e 130a f93e b97c 8e3e
00000060: 41a8 6f3e e3c8 9f3e abd2 893e dded 293e
00000070: 2425 c53e 8198 493e bbb9 943e a3b1 833e
00000080: 04bf 843e fe46 753c 227f 683e 8f30 be3e
00000090: c3a6 9e3e 2f9f fb3e 4f74 6e3e 60a0 093c
000000a0: 2741 a83e 5acd 793e 3a0c 8a3e b961 423e
000000b0: c214 bc3e 0618 733e 8e02 cd3e 74aa 8c3e

features.denseblock1.denselayer2.norm2.bias f4 [48]
0.15344682 0.044217728 0.16226159 0.091716856 0.029751236 0.03504592 0.020523258 -0.11232845
-0.19343367 0.19456862 -0.0020203928 0.10559456 -0.18258548 0.15593626 0.008998071 0.062509954
0.092688106 -0.0050723897 0.058555674 -0.0672921 0.123085395 -0.18493247 -0.21805474 -0.00022434222
-0.07782692 -0.16786285 0.014593411 -0.07334128 -0.21266055 -0.10575192 -0.12958097 0.2067819
0.079527594 0.006412231 -0.015518281 -0.10064897 -0.16795214 0.4878315 0.06700583 -0.008280381
-0.1594088 -0.038953323 0.06496868 0.091513164 -0.24992149 0.08462118 0.04076797 -0.038574707
00000000: 2a21 1d3e a61d 353d e727 263e 0cd6 bb3d
00000010: ddb8 f33c 508c 0f3d 6420 a83c 750c e6bd
00000020: 7a13 46be ff3c 473e 9168 04bb f641 d83d
00000030: b0f7 3abe c1ad 1f3e a56c 133c 3805 803d
00000040: 43d3 bd3d 4a36 a6bb 13d8 6f3d 71d0 89bd
00000050: 3214 fc3d f05e 3dbe be49 5fbe 683d 6bb9
00000060: b863 9fbd 3de4 2bbe 3419 6f3c f433 96bd
00000070: b0c3 59be 7694 d8bd e0b0 04be a2be 533e
00000080: 5ddf a23d b11d d23b 6340 7ebc 0c21 cebd
00000090: a5fb 2bbe 0dc5 f93e 5a3a 893d 6faa 07bc
000000a0: 0f3c 23be 858d 1fbd 4d0e 853d 416b bb3d
000000b0: 6beb 7fbe df4d ad3d 51fc 263d 8300 1ebd

features.denseblock1.denselayer2.norm2.running_mean f4 [48]
0.07608819 -0.3576555 -0.27551022 -0.05914755 -0.29887918 -0.20902051 0.042882215 0.015390638
0.19682786 -0.12306691 -0.11400804 -0.0020976737 -0.10141646 0.5465991 -0.124353364 0.2195485
-0.56363016 -0.2499021 -0.4383903 0.067145094 -0.054021437 -0.18150029 0.090971 -0.22783433
0.11995909 0.12664923 -0.28409332 -0.037396677 -0.36535835 0.018900083 -0.0075262208 0.39425445
-0.1421957 0.012173181 0.07181171 -0.33962244 0.026313674 -0.510359 -0.097943686 0.018503098
0.2302994 0.072505206 -0.17163295 -0.0413482 0.2610591 -0.18252915 -0.40254033 -0.2735481
00000000: 20d4 9b3d 9f1e b7be ad0f 8dbe b444 72bd
00000010: b106 99be 7909 56be 43a5 2f3d 0429 7c3c
00000020: 3e8d 493e 810a fcbd 0c7d e9bd 2079 09bb
00000030: 6fb3 cfbd ebed 0b3f faac febd 52d1 603e
00000040: 114a 10bf 56e6 7fbe b274 e0be 5e83 893d
00000050: 9545 5dbd 36db 39be 014f ba3d 674d 69be
00000060: 1dad f53d 56b0 013e ae74 91be 422d 19bd
00000070: 4010 bbbe 59d4 9a3c 849e f6bb b8db c93e
00000080: c09b 11be 0672 473c 0512 933d fee2 adbe
00000090: c68f d73c e3a6 02bf b396 c8bd cf93 973c
000000a0: 9bd3 6b3e 9c7d 943d 8cc0 2fbe bb5c 29bd
000000b0: 8aa9 853e ece8 3abe c419 cebe 7f0e 8cbe

features.denseblock1.denselayer2.norm2.running_var f4 [48]
0.0155511275 0.050427873 0.044603568 0.038468808 0.04276741 0.046560723 0.031460628 0.008804007
0.009271327 0.06277399 0.017211927 0.035854187 0.015545353 0.06695192 0.0061138216 0.028316017
0.0625139 0.04323558 0.045337077 0.0045620087 0.030693553 0.0071950336 0.027027838 0.021140698
0.007872153 0.007784896 0.022953521 0.0017644056 0.018391611 0.003241407 0.0103251785 0.043691833
0.022230899 0.00026478106 0.017548103 0.014704436 0.017803138 0.095040254 0.02283508 0.00020098916
0.01580006 0.015666291 0.030112594 0.01028748 0.014926373 0.03730075 0.07854392 0.0131062
00000000: 28ca 7e3c 758d 4e3d 3bb2 363d 7891 1d3d
00000010: e12c 2f3d 75b6 3e3d dcdc 003d af3e 103c
00000020: c4e6 173c a68f 803d 0700 8d3c d7db 123d
00000030: f0b1 7e3c 171e 893d 7456 c83b fef6 e73c
00000040: 4a07 803d cb17 313d 5fb3 393d e77c 953b
00000050: 0c71 fb3c 51c4 eb3b 7c69 dd3c 422f ad3c
00000060: 34fa 003c 7118 ff3b 0609 bc3c a143 e73a
00000070: 01aa 963c c96d 543b f02a 293c 35f6 323d
00000080: 931d b63c 50d2 8a39 0ac1 8f3c e0ea 703c
00000090: e3d7 913c 77a4 c23d a210 bb3c 9ec0 5239
000000a0: 216f 813c 9856 803c b0ae f63c d28c 283c
000000b0: bf8d 743c acc8 183d a2db a03d 63bb 563c

features.denseblock1.denselayer2.conv2.weight f4 [12, 48, 3, 3]
-0.13851257 -0.09252676 -0.1211363 0.07169183 -0.0151002165 0.008322505 -0.00079515966 0.06207459
0.036667798 0.0023663803 0.0070278607 -0.02228631 -0.046675943 -0.043361466 -0.005718679 -0.048129994
-0.015762212 -0.0632273 0.024697995 -0.019409366 -0.09117446 -0.0061526857 0.00938632 0.011899604
-0.039517276 0.007577917 -0.040181033 -0.025798827 0.026679868 0.019705985 0.07053002 0.052439284
0.07358913 -0.0055229957 0.034239687 0.0366221 -0.07259631 -0.04320178 0.051009677 0.015348588
-0.053576514 0.015103308 -0.07117014 -0.057249367 -0.0069879377 0.01895373 0.023455717 0.07797792
0.040603526 0.0168858 0.03827009 -0.050954856 -0.03751235 0.010637108 -0.08681043 -0.0470601
-0.0960752 0.056761283 -0.03046161 0.0018330754 0.019560441 0.05653166 0.03970888 -0.017860232
-0.037723873 -0.020708632 -0.021755029 -0.016494837 -0.014201093 -0.014695041 -0.023716317 -0.0075663766
-0.021101076 0.010406926 0.002584201 0.053370636 0.05471559 0.00029216587 0.040456776 0.053259544
0.02597022 -0.09191904 -0.029067963 -0.032586947 0.08303651 -0.048056636 -0.0031979731 -0.01439389
-0.005906431 -0.010151525 -0.020271214 -0.048469998 -0.04500639 -0.10871564 -0.08740499 -0.044227682
-0.08956415 -0.043413218 -0.05600374 -0.034560945 0.013015067 0.026503911 0.014264046 -0.040076464
-0.016026167 0.031800255 0.042024057 0.04816304 0.0214904 -0.025883794 0.021017656 -0.0060328487
0.014957588 0.0005589655 0.018655129 -0.010811369 -0.011416361 -0.098937616 -0.1093779 -0.06601901
-0.1609334 -0.019142335 -0.1578791 -0.106009685 -0.079507135 -0.06935832 0.0049399044 0.007942591
0.020391587 0.013348956 0.013416892 0.026699591 -0.0080923755 -0.00011100826 0.012219355 0.04034699
-0.015425911 0.012638127 -0.037343293 0.011559463 -0.042506475 -0.05848478 -0.04338455 -0.02320852
-0.09903785 -0.029755197 -0.019861484 0.0013094511 -0.08166363 -0.1049071 -0.08758599 -0.026984746
-0.08010007 0.039592624 0.036782328 0.031777415 0.04733689 0.01603422 -0.005674062 0.074359074
0.03309352 0.00608947 -0.0026812535 -0.009423451 -0.074257255 -0.011481496 -0.07051619 -0.05464319
-0.07761601 -0.034529604 -0.08887724 0.010258913 0.0073045543 0.019536808 0.052073363 0.01414852
0.02877923 0.03397167 0.008146759 0.00786868 -0.032189816 -0.024221139 -0.00063226 -0.08931658
0.0006175136 -0.023870671 0.0051912353 -0.032049127 -0.021351334 -0.023267834 -0.010555079 -0.06812338
-0.036677923 -0.045452815 -0.038406145 -0.062015906 -0.03005375 -0.046809968 -0.08204005 -0.109932706
-0.07250992 -0.06239393 -0.06309557 -0.03998289 -0.06202908 -0.07136166 -0.04244929 0.010936423
-0.017700426 -0.037840754 -0.08374366 -0.03926189 -0.038564377 -0.065654226 -0.034562465 -0.0811371
0.002108779 -0.009051061 0.010293842 0.052799784 0.013034491 0.03137369 0.027050987 1.6602933e-05
0.0081069935 0.066409335 0.06427215 0.02637367 0.059081428 0.071427085 0.039908048 0.06894608
0.070601575 0.07924559 0.019792778 0.0065541863 0.014269046 0.031452674 0.03089074 0.05711901
0.005223979 0.022877378 0.044354066 0.048451036 0.053809673 0.038831376 0.056066595 0.0374955
0.028583871 0.02116626 0.04059173 0.028093087 -0.10288278 -0.0342459 -0.11877915 -0.076468505
00000000: 3dd6 0dbe ac7e bdbd 4f16 f8bd 2bd3 923d
00000010: e666 77bc 1e5b 083c 4372 50ba ed41 7e3d
00000020: f930 163d 4615 1b3b f849 e63b c891 b6bc
00000030: 462f 3fbd cb9b 31bd c263 bbbb f523 45bd
00000040: c11f 81bc 517d 81bd 7353 ca3c 6400 9fbc
00000050: adb9 babd 789c c9bb 14c9 193c 8ff6 423c
00000060: dedc 21bd 2d50 f83b de94 24bd 1058 d3bc
00000070: bd8f da3c 726e a13c 0b72 903d 93ca 563d
00000080: e6b5 963d 3ffa b4bb ea3e 0c3d 0e01 163d
00000090: 60ad 94bd 5af4 30bd 86ef 503d a578 7b3c
000000a0: 0c73 5bbd dd73 773c a6c1 91bd 507e 6abd
000000b0: 12fb e4bb da44 9b3c 3426 c03c e3b2 9f3d
000000c0: e24f 263d 1754 8a3c 19c1 1c3d 0ab6 50bd
000000d0: 8da6 19bd 4447 2e3c abc9 b1bd 17c2 40bd
000000e0: 13c3 c4bd 857e 683d a08a f9bc ce43 f03a
000000f0: 383d a03c be8d 673d c7a5 223d 9f4f 92bc
00000100: 5984 1abd 26a5 a9bc 9a37 b2bc 2e20 87bc
00000110: b4ab 68bc 78c3 70bc b948 c2bc 5eef f7bb
00000120: 2adc acbc d081 2a3c b35b 293b 2b9b 5a3d
00000130: 741d 603d d72d 9939 01b6 253d ae26 5a3d
00000140: 80bf d43c 0d40 bcbd f01f eebc e479 05bd
00000150: 0c0f aa3d 09d7 44bd 1695 51bb 5ad4 6bbc
00000160: bc8a c1bb 9552 26bc d10f a6bc 7a88 46bd
00000170: 9f58 38bd 4ea6 debd 6301 b3bd 1628 35bd
00000180: 696d b7bd 0fd2 31bd 2d64 65bd c78f 0dbd
00000190: 263d 553c bb1e d93c bfb3 693c 3827 24bd
000001a0: 4f49 83bc fc40 023d 6b21 2c3d 9c46 453d
000001b0: a30c b03c 400a d4bc 382d ac3c 34af c5bb
000001c0: ac10 753c 8a87 123a a4d2 983c 2b22 31bc
000001d0: b00b 3bbc ce9f cabd 8501 e0bd fa34 87bd
000001e0: bacb 24be 63d0 9cbc 0fab 21be 9b1b d9bd
000001f0: a3d4 a2bd bc0b 8ebd ecde a13b a421 023c
00000200: 420c a73c 94b5 5a3c 86d2 5b3c 1ab9 da3c
00000210: e295 04bc 1bcd e8b8 b133 483c e342 253d
00000220: f6bc 7cbc 2610 4f3c 48f5 18bd e763 3d3c
00000230: 451b 2ebd bd8d 6fbd ffb3 31bd cb1f bebc
00000240: 5bd4 cabd 2cc1 f3bc 8db4 a2bc e3a1 ab3a
00000250: 433f a7bd 89d9 d6bd 4960 b3bd 1d0f ddbc
00000260: 810b a4bd e02b 223d 11a9 163d 0929 023d
00000270: 54e4 413d 325a 833c 7bed b9bb 9249 983d
00000280: 128d 073d 2d8a c73b f8b7 2fbb d164 1abc
00000290: 3014 98bd e21c 3cbc cb6a 90bd 8ad1 5fbd
000002a0: 25f5 9ebd ea6e 0dbd 4505 b6bd 0015 283c
000002b0: 0b5b ef3b a80b a03c e14a 553d 32cf 673c
000002c0: 6bc2 eb3c e125 0b3d fc79 053c a3eb 003c
000002d0: 78d9 03bd 696b c6bc 40be 25ba 9ceb b6bd
000002e0: a3e0 213a 6d8c c3bc 3d1b aa3b f245 03bd
000002f0: fee8 aebc 2f9c bebc 36ef 2cbc 4584 8bbd
00000300: 973b 16bd bb2c 3abd c34f 1dbd 6404 7ebd
00000310: 4833 f6bc cfbb 3fbd 9d04 a8bd 6624 e1bd
00000320: 1580 94bd c790 7fbd 4038 81bd 19c5 23bd
00000330: 3412 7ebd 1026 92bd 4fdf 2dbd af2e 333c
00000340: 7c00 91bc e8fe 1abd cc81 abbd 13d1 20bd
00000350: aef5 1dbd b975 86bd 5f91 0dbd 352b a6bd
00000360: 7133 0a3b e74a 14bc 81a7 283c 9644 583d
00000370: 9e8e 553c b381 003d 089a dd3c 8746 8b37
00000380: 32d3 043c 9e01 883d 1ea1 833d 980d d83c
00000390: 5eff 713d 5d48 923d 9f76 233d 9a33 8d3d
000003a0: 8f97 903d 834b a23d 7724 a23c 80c4 d63b
000003b0: b7c8 693c 85d4 003d 940e fd3c 9ff5 693d
000003c0: e92d ab3b 5769 bb3c 9cac 353d 9874 463d
000003d0: 8867 5c3d a60d 1f3d 16a6 653d e294 193d
000003e0: b928 ea3c dd64 ad3c 8443 263d 7923 e63c
000003f0: 35b4 d2bd 6e45 0cbd 7c42 f3bd 859b 9cbd

features.denseblock1.denselayer3.norm1.weight f4 [48]
0.10742405 0.3255525 0.259027 0.1679717 0.23505683 0.14870271 0.22400138 0.21498494
0.008368689 0.2248363 0.15532091 0.045417927 0.2516138 0.17071718 0.31471166 0.23934005
0.0027797085 0.14432657 0.25740552 0.20381199 0.08905161 0.20853318 0.46037555 0.15359989
0.3453126 0.36925146 0.37209436 0.23736225 0.21131386 0.31315503 0.19858 0.22643803
0.361813 0.25416023 0.26576057 0.2903968 0.2666205 0.44621697 0.34079823 0.35451385
0.3914157 0.35503396 0.09538346 0.2977873 0.3121757 0.14537767 0.333744 0.3430734
00000000: 2401 dc3d d1ae a63e 309f 843e c600 2c3e
00000010: bdb2 703e 8645 183e 9e60 653e 0325 5c3e
00000020: d31c 093c 7d3b 663e 720c 1f3e 2608 3a3d
00000030: 86d3 803e 7cd0 2e3e e321 a13e 8f15 753e
00000040: c52b 363b 58ca 133e a8ca 833e 17b4 503e
00000050: b160 b63d b989 553e 58b6 eb3e 4a49 1d3e
00000060: d0cc b03e 870e bd3e 2783 be3e 170f 733e
00000070: a962 583e db55 a03e 8e58 4b3e 5fdf 673e
00000080: 8e3f b93e 4a21 823e c511 883e e4ae 943e
00000090: 7b82 883e 8d76 e43e 1b7d ae3e d782 b53e
000000a0: a367 c83e 03c7 b53e 6758 c33d 9477 983e
000000b0: 7ed5 9f3e e2dd 143e 7ee0 aa3e 51a7 af3e

features.denseblock1.denselayer3.norm1.bias f4 [48]
-0.01214728 0.18258253 -0.07350963 -0.02203039 -0.116143174 0.047989 0.1401738 0.2755793
0.009112798 -0.037146952 -0.055662848 0.015152193 0.08410914 0.14641775 0.03327984 0.001930325
-0.0005842219 -0.069865584 -0.16536276 -0.1622495 -0.025000995 -0.026078608 -0.18297864 -0.018913502
-0.052125473 -0.07014304 -0.26654732 0.04341357 -0.033397004 0.21624532 0.37490296 0.34158474
-0.066754855 0.14983934 0.3007302 0.2933872 0.050043993 0.057360265 0.05934162 0.043896236
-0.14306597 0.16894177 0.044869628 -0.022169258 -0.014142161 0.06254298 0.34064108 0.33904272
00000000: 6305 47bc eaf6 3a3e 388c 96bd 1479 b4bc
00000010: 79dc edbd 1d90 443d b889 0f3e bb18 8d3e
00000020: d84d 153c 6727 18bd bafe 63bd e740 783c
00000030: 6a41 ac3d 89ee 153e 7150 083d f502 fd3a
00000040: 7826 19ba b015 8fbd db54 29be bc24 26be
00000050: e3ce ccbc cea2 d5bc c15e 3bbe 7df0 9abc
00000060: 8581 55bd 27a7 8fbd e478 88be 6dd2 313d
00000070: 4ccb 08bd 6a6f 5d3e 48f3 bf3e 32e4 ae3e
00000080: c5b6 88bd 7c6f 193e 4ff9 993e d936 963e
00000090: eefa 4c3d 99f2 6a3d 3310 733d 8acc 333d
000000a0: e37f 12be 12ff 2c3e 37c9 373d 4e9c b5bc
000000b0: 86b4 67bc 8916 803d 8268 ae3e 0297 ad3e

features.denseblock1.denselayer3.norm1.running_mean f4 [48]
-0.08883756 0.015216522 -0.292902 -0.07365159 0.023749538 -0.29443344 0.03471293 -0.029651804
0.00063689647 0.04314944 0.022279417 0.0084800245 0.0046476885 0.042379696 0.03939905 0.006519762
-0.16706727 -0.08776293 0.18858846 -0.032057364 0.5520552 0.033259384 0.49266577 -0.088543214
-0.4696231 -0.32852346 0.9210105 0.40293804 0.07381023 -1.1133264 -0.10515405 -0.16085881
0.17581616 -0.38754544 -0.9321435 -0.09785574 -0.89827704 -0.3707132 0.07961959 -0.3677108
0.0023633381 -0.2628619 -0.23629422 -0.05455462 -0.19370879 -0.5219809 -0.05896746 0.32116315
00000000: 77f0 b5bd b84e 793c 40f7 95be a5d6 96bd
00000010: 648e c23c fbbf 96be 252f 0e3d 57e8 f2bc
00000020: 66f5 263a 78bd 303d 5383 b63c cdef 0a3c
00000030: a34b 983b 5596 2d3d e660 213d baa3 d53b
00000040: af13 2bbe 0dbd b3bd 551d 413e 954e 03bd
00000050: 7d53 0d3f fe3a 083d b03e fc3e 2556 b5bd
00000060: 7072 f0be 3a34 a8be 58c7 6b3f e54d ce3e
00000070: d129 973d 7b81 8ebf 025b d7bd 2cb8 24be
00000080: 2709 343e 5b6c c6be f5a0 6ebf 9768 c8bd
00000090: 7cf5 65bf 1fce bdbe 980f a33d 9744 bcbe
000000a0: 3ce2 1a3b d695 86be 1df7 71be aa74 5fbd
000000b0: 995b 46be 8aa0 05bf dd87 71bd 7f6f a43e
