models/densenet-cifar/40-12/model_best.pth.tar (torch_old, 775030 bytes, 197 tensors)

features.conv0.weight f4 [24, 3, 3, 3]
0	0xbd9b017e	-0.07568644
1	0xbe6189a9	-0.2202517
2	0xbdd042de	-0.10169004
3	0x3da1dcbd	0.079034306
4	0x3f1d8614	0.6153271
5	0x3dade213	0.08490386
6	0x3a11d238	0.0005562636
7	0xbe60adb5	-0.21941264
8	0xbc9bb22d	-0.01900586
9	0xbdf51a7b	-0.119679414
10	0xbde42dff	-0.111415856
11	0xbd85f04c	-0.065399736
12	0x3cfc36b7	0.030787809
13	0x3f4536b0	0.7703657
14	0x3e083307	0.13300715
15	0xbd603a1c	-0.054742917
16	0xbef895f5	-0.48551908
17	0xbd8fa385	-0.07013611
18	0xbe155d06	-0.14586267
19	0xbe4995ea	-0.19686094
20	0xbe6b8f6d	-0.23003931
21	0x3dc2f871	0.09520043
22	0x3f140876	0.5782541
23	0x3e0e3e92	0.13891056
24	0xbd88c5ff	-0.0667839
25	0xbe81a0f3	-0.25318107
26	0xbcf6e52d	-0.030138576
27	0xbf2aaa2b	-0.66665906
28	0xbf87aaf5	-1.0599047
29	0xbf407ba7	-0.7518868
30	0x3d9c55d1	0.07633556
31	0x3dcdb973	0.10045137
32	0x3dec986c	0.1155251
33	0x3f06eccf	0.5270509
34	0x3fa1ab81	1.2630464
35	0x3f271fa8	0.6528268
36	0x3e0fcca1	0.14042903
37	0x3e0145a4	0.12624222
38	0x3e2736ef	0.16329549
39	0xba81ea93	-0.0009911828
40	0xbebe6871	-0.37189057
41	0xbc49efe6	-0.012325263
42	0x3b936e95	0.0044992664
43	0xbd599d22	-0.05312837
44	0xbd445b88	-0.047938854
45	0x3f07344c	0.52814174
46	0x3f76e497	0.9644255
47	0x3f1d7d3c	0.6151922
48	0x3d8cc90f	0.068742864
49	0xbe5f2c9b	-0.2179436
50	0x3d5c07bd	0.053718317
51	0xbf0a151c	-0.5393846
52	0xbf800ec6	-1.0004508
53	0xbf294ba2	-0.6613103
54	0xbdc06f85	-0.09396271
55	0xbdb891fc	-0.09012219
56	0xbd376f85	-0.044784088
57	0xbd859793	-0.06523051
58	0x3d23daeb	0.0400037
59	0xbb465d68	-0.0030268077
60	0xbcdf2a5a	-0.027241874
61	0x3da91877	0.082566194
62	0x3ca462e0	0.020066679
63	0x3df24dce	0.11831246
64	0x3debdc1c	0.11516592
65	0x3d93ffad	0.07226501
66	0x3e2c8c32	0.16850355
67	0x3e91fae6	0.28511733
68	0x3de015cf	0.1094166
69	0x3d81d56b	0.06339534
70	0x3e2b6221	0.16736652
71	0x3c26f691	0.010190622
72	0x3e2a11a4	0.16608292
73	0x3dcc4582	0.09974195
74	0x3d8bf0e1	0.068330534
75	0x3dd87266	0.10568695
76	0x3dd30358	0.10303372
77	0x3c7d1955	0.015447934
78	0xbd0d5484	-0.03450443
79	0xbd53ac0d	-0.051677752
80	0xbdcf1311	-0.101110585
81	0x3d13e728	0.03610912
82	0x3d97bd70	0.07409179
83	0x3d8e0ad6	0.069356605
84	0xbce3a71d	-0.027789647
85	0xbe058e03	-0.13042454
86	0xbb24d97a	-0.002515404
87	0xbd346b04	-0.04404737
88	0xbd6a5a8d	-0.057215262
89	0x3a28d3b9	0.00064402405
90	0x3db1f218	0.08688754
91	0x3e090981	0.13382532
92	0x3da3fe0b	0.08007439
93	0x3cf447f4	0.029819466
94	0xbd217ab8	-0.039423674
95	0x3cabc1d9	0.020966457
96	0x3b99b139	0.004690316
97	0x3d766d25	0.060162682
98	0x3c98660f	0.018603353
99	0x3dd95ae3	0.106130384
100	0x3dc88b13	0.09792151
101	0x3da94727	0.08265524
102	0xbce2cf81	-0.027686836
103	0xbe0f34cb	-0.13984983
104	0xbd2625b5	-0.040563304
105	0x3cbf2372	0.023332331
106	0xbb6b9659	-0.0035947768
107	0x3ca42ad1	0.020039948
108	0x3eb2b2d0	0.34902048
109	0xbde59f11	-0.1121198
110	0xbedc69bf	-0.43049428
111	0x3f41f6ca	0.75767195
112	0xbdc0b0b8	-0.094087064
113	0xbf28c5bb	-0.6592671
114	0x3ec6b30c	0.38808477
115	0x3db97a49	0.09056527
116	0xbeb0b8a9	-0.34515885
117	0xbce060c3	-0.02738989
118	0x3d61c0a0	0.055115342
119	0x3d45b948	0.0482724
120	0xbdb7e1b2	-0.08978595
121	0xbe160814	-0.14651519
122	0x3d9c6d81	0.07638074
123	0xbcb3dc73	-0.021955704
124	0x3d5f863d	0.05457138
125	0x3d329445	0.043598432
126	0xbe91c5f7	-0.28471348
127	0x3e4d574b	0.20052831
128	0x3ec4cf66	0.38439482
129	0xbf1aab88	-0.60417986
130	0xbdd026dd	-0.101636626
131	0x3f10483f	0.5636024
132	0xbeccd5fa	-0.40007
133	0xbdbad822	-0.09123255
134	0x3eb68022	0.35644633
135	0x3d6fe8bf	0.058571573
136	0x3d8f93bb	0.07010599
137	0x3d7a9ea5	0.06118645
138	0x3dd298e0	0.10283065
139	0x3ebb70cd	0.36609498
140	0x3e225a2f	0.15854715
141	0x3dea8e43	0.114529155
142	0x3e95a97d	0.29230872
143	0x3deb3646	0.11484961
144	0x3d11227e	0.035433285
145	0xbcafd050	-0.021461636
146	0x3beba649	0.0071914536
147	0x3d396647	0.045263555
148	0x3e2175f7	0.15767656
149	0x3d0f13ea	0.0349311
150	0x3d26a1b8	0.04068157
151	0x3df204bd	0.1181731
152	0x3d00d7f2	0.03145594
153	0xbcbeb22e	-0.023278322
154	0xbd71ffd7	-0.05908188
155	0xbd770f12	-0.060317107
156	0xbd164c55	-0.03669389
157	0x3d5a1d1d	0.05325042
158	0xbd1be9ee	-0.03806489
159	0xbe03e0a7	-0.12878667
160	0xbdf3620b	-0.118839346
161	0xbde7f610	-0.113262296
162	0xbd41a5b5	-0.04727717
163	0x3eb3aee9	0.35094383
164	0x3beb8af1	0.007188194
165	0x3edacbb7	0.42733547
166	0xbf76b527	-0.96370167
167	0x3eb00950	0.34382105
168	0x3cf4c9a1	0.0298813
169	0x3e0c69e8	0.13712275
170	0xbd089441	-0.03334451
171	0x3da02615	0.078197636
172	0xbced6c2d	-0.028982246
173	0xbc3db9e9	-0.011579969
174	0x3f02467e	0.5088881
175	0xbfb130f7	-1.3843068
176	0x3eccb764	0.39983666
177	0x3d5cf216	0.05394181
178	0x3ed7e332	0.42165524
179	0x3e1c8298	0.15284193
180	0xbd054dec	-0.032545015
181	0x3e682485	0.22670181
182	0xba2fbb17	-0.0006703599
183	0x3e50152a	0.20320573
184	0xbf3ebc0e	-0.745057
185	0x3e338efb	0.17535011
186	0xbc78fc38	-0.015196852
187	0xbd209c0e	-0.039211325
188	0x3b496acc	0.0030733822
189	0x3ef09ede	0.46996206
190	0x3f3ee39b	0.7456605
191	0x3efd9bf3	0.49533042
192	0x3d6fec04	0.05857469
193	0xbda27b12	-0.0793363
194	0xbbd85d0a	-0.006602888
195	0xbea6336f	-0.32461116
196	0xbf24b775	-0.64342433
197	0xbed01ec1	-0.40648463
198	0xbe5a82e7	-0.21338998
199	0xbe7318ca	-0.23739925
200	0xbddf1bec	-0.108939976
201	0x3c1c6691	0.009545938
202	0x3ccc0e7e	0.024909254
203	0x3dbde25e	0.09271692
204	0x3d363cba	0.044491507
205	0x3e55fc27	0.2089697
206	0x3e1337ea	0.14376798
207	0xbee6f75d	-0.45110598
208	0xbf225487	-0.6341023
209	0xbeeb70a2	-0.4598437
210	0xbb97673a	-0.00462046
211	0x3d72b867	0.05925789
212	0xbccfcf5e	-0.025367435
213	0x3eaadc45	0.33371177
214	0x3f254ec5	0.6457332
215	0x3eb64651	0.35600522
216	0x3e10bab3	0.1413372
217	0x3de36ea9	0.11105091
218	0xbd624bed	-0.05524819
219	0x3efd1654	0.49431098
220	0xbc2cb29f	-0.010540633
221	0xbeec60b8	-0.4616754
222	0xbd094e57	-0.033521976
223	0xbcbcef47	-0.023063315
224	0xbccd6d26	-0.02507646
225	0x3e9e8c98	0.3096664
226	0x3dbfc1c9	0.093631335
227	0xbe9ced14	-0.30649626
228	0x3f222de1	0.63351256
229	0xbce8e590	-0.028429776
230	0xbf2c1aa3	-0.67228144
231	0x3d6ea949	0.05826691
232	0xbb7bae23	-0.0038403354
233	0xbdc72076	-0.09722988
234	0x3de0db16	0.10979287
235	0x3d31f383	0.04344512
236	0xbe680b43	-0.22660546
237	0x3edc19e3	0.429885
238	0x3b753d11	0.0037420432
239	0xbf09516e	-0.53639877
240	0xbbe68e78	-0.0070360266
241	0x3d7034a0	0.058643937
242	0xbd155d37	-0.03646585
243	0xbeb90dec	-0.36143434
244	0xbf1fa44c	-0.6236007
245	0xbe9e6b14	-0.3094107
246	0xbd7555ad	-0.05989616
247	0xbd1bed34	-0.03806801
248	0x3c25ac2f	0.010111853
249	0x3e9f79d8	0.31147647
250	0x3f1554c9	0.58332497
251	0x3e97ca34	0.29646456
252	0xbec8dffc	-0.39233387
253	0xbf242ed8	-0.6413398
254	0xbe9d400e	-0.30712932
255	0xbd9b3baf	-0.07579743

features.denseblock1.denselayer1.norm1.weight f4 [24]
0	0x3eb9959f	0.36246964
1	0x3ea28c09	0.31747463
2	0x3e591354	0.2119878
3	0x3e1401b1	0.1445377
4	0x3e551e13	0.20812254
5	0x3f00f7be	0.50378025
6	0x3e90ee9d	0.28307047
7	0x3e3512c6	0.17682943
8	0x3e2ff8bf	0.17184733
9	0x3ecf4a20	0.4048624
10	0x3e8eb3c7	0.27871534
11	0x3ea09c2f	0.3136916
12	0x3e98bc13	0.2983099
13	0x3e6b5e20	0.22985125
14	0x3ea25816	0.3170783
15	0x3e2ac393	0.16676168
16	0x3e9b43fc	0.30325305
17	0x3eb809ef	0.3594508
18	0x3ed1bdbc	0.40965068
19	0x3eb24704	0.34819806
20	0x3f34b4c2	0.70588315
21	0x3ebd174c	0.36931837
22	0x3f2607d9	0.64855725
23	0x3eb2e079	0.34936884

features.denseblock1.denselayer1.norm1.bias f4 [24]
0	0x3e802196	0.25025624
1	0x3f14eeb5	0.5817674
2	0x3d9a16e7	0.075238995
3	0x3d9b7b3e	0.07591866
4	0x3ebbbddd	0.36668292
5	0xbee67bf2	-0.45016438
6	0x3f6e8cb7	0.93183464
7	0x3ead9deb	0.33909544
8	0xbdcafa3e	-0.09911011
9	0xbd11cb30	-0.035594165
10	0x3f16ce32	0.5890838
11	0xbbb0656a	-0.0053831832
12	0x3e58a69b	0.21157305
13	0x3dbfbdc2	0.09362365
14	0xbe52057c	-0.20509905
15	0x3cfe9edc	0.03108161
16	0xbd49f636	-0.04930707
17	0x3f3074a8	0.68928003
18	0xbd8e729e	-0.06955455
19	0xbcfbe485	-0.030748615
20	0xbefb10b0	-0.4903617
21	0xbdcf260d	-0.101146795
22	0xbe76f992	-0.24118641
23	0x3f072cfd	0.5280302

features.denseblock1.denselayer1.norm1.running_mean f4 [24]
0	0xbdb7c356	-0.08972804
1	0x3c1e5c5e	0.009665577
2	0xbe8fee8e	-0.2811169
3	0xbd9450dc	-0.07241985
4	0x3cabbfcf	0.020965485
5	0xbe9b8e8b	-0.3038219
6	0x3d079b09	0.033106837
7	0xbd05db7f	-0.03268003
8	0xbbd0c536	-0.0063711656
9	0x3d88e364	0.06683996
10	0x3cd98175	0.026550988
11	0x3bfdce96	0.007745574
12	0x3d7d7245	0.061876554
13	0x3d29eed2	0.041487522
14	0x3c6cceb4	0.014453579
15	0xbc052a7a	-0.008127803
16	0xbe0b0f29	-0.13580002
17	0xbde6cb4c	-0.112692446
18	0x3e4eb5b7	0.20186506
19	0xbd661fcc	-0.056182668
20	0x3f0d4522	0.55183613
21	0x3d1befa9	0.038070355
22	0x3ee5c85d	0.44879428
23	0xbd85739a	-0.0651619

features.denseblock1.denselayer1.norm1.running_var f4 [24]
0	0x3f874b4f	1.0569857
1	0x3f19f44b	0.60138386
2	0x3fe2d9cc	1.7722716
3	0x3e853c4e	0.2602257
4	0x3e51efd2	0.2050164
5	0x4000c0fe	2.0117793
6	0x3f763719	0.9617782
7	0x3e9e7f7e	0.30956644
8	0x4043f00e	3.0615268
9	0x40f38f1a	7.6112185
10	0x3ed3b9a7	0.4135258
11	0x40958192	4.6720667
12	0x40124e7c	2.2860403
13	0x3f419c23	0.7562887
14	0x41210f64	10.066257
15	0x4035e81e	2.8422923
16	0x3fa207a5	1.2658583
17	0x3f883fd0	1.0644474
18	0x3f891bc3	1.0711597
19	0x3f4be18a	0.7964102
20	0x40ce60c0	6.4493103
21	0x40dda67e	6.9265738
22	0x40b606cf	5.688331
23	0x3f43f69e	0.7654818

features.denseblock1.denselayer1.conv1.weight f4 [48, 24, 1, 1]
0	0xbde74b33	-0.1129364
1	0xbdc7eed7	-0.09762352
2	0xbc85f158	-0.016350433
3	0xbc481e1f	-0.012214213
4	0x3cd45d79	0.025923477
5	0x3bc18d05	0.0059067034
6	0xbed65246	-0.41859645
7	0x3cbb7c8e	0.02288654
8	0xbda5cb0c	-0.08095369
9	0x3e0b9d91	0.13634326
10	0xbe1a6c3a	-0.15080348
11	0xbd8d8580	-0.06910229
12	0x3c4ae59e	0.012383847
13	0xbce8fd11	-0.028440984
14	0x3de5b3e2	0.112159505
15	0x3d675596	0.056478105
16	0xbd559157	-0.05214056
17	0x3bb07af7	0.0053857523
18	0xbd55a43f	-0.05215859
19	0x3d7d0924	0.061776295
20	0xbe36fe1d	-0.17870374
21	0xbe0101dd	-0.12598367
22	0xbda9660a	-0.082714155
23	0xbc740453	-0.014893609
24	0xbe023c48	-0.12718308
25	0x3b80b668	0.0039279945
26	0x3d334a0e	0.043771796
27	0x3d793423	0.060840737
28	0x3e054fc6	0.13018712
29	0x3db81c65	0.08989791
30	0x3dbc44ad	0.09192786
31	0xbd9ce278	-0.07660383
32	0x3c261a17	0.010138056
33	0xbe99625d	-0.29957858
34	0xbe552338	-0.20814216
35	0x3d82906d	0.06375203
36	0x3d82498b	0.063616835
37	0xbaab7852	-0.0013082123
38	0xbe0c0ffa	-0.1367797
39	0xbd697d5c	-0.057004318
40	0xbe13024e	-0.14356348
41	0xbdaa3576	-0.08310978
42	0x3d8e2424	0.06940487
43	0xbdf6db54	-0.12053552
44	0x3dc7b69e	0.09751628
45	0xbe4babfb	-0.19889824
46	0xbde29fbd	-0.11065624
47	0x3dba25b4	0.090892226
48	0xbc883589	-0.01662709
49	0xbe5837b0	-0.21114993
50	0x3bbc4680	0.005745709
51	0x3d34daab	0.04415385
52	0x3d98c40e	0.074592695
53	0x3c09587f	0.0083829155
54	0x3e1bd845	0.15219219
55	0x3d089ae7	0.03335085
56	0x3af728f5	0.0018856811
57	0x3bbb0290	0.0057070926
58	0xbe1c0e61	-0.1523986
59	0xbd228449	-0.03967694
60	0xbd5b1f6c	-0.053496763
61	0xbcbb63e5	-0.022874782
62	0x3d74a005	0.05972292
63	0x3d025dd3	0.03182776
64	0xbc4c5226	-0.012470758
65	0xbd861f2a	-0.06548913
66	0xbdd7c827	-0.10536223
67	0xbdd69165	-0.104769506
68	0xbe03b147	-0.12860595
69	0xbcca43c5	-0.024690518
70	0xbdab8d26	-0.08376531
71	0x3cf2a249	0.0296184
72	0x3d74c281	0.059755806
73	0xbb993e98	-0.004676651
74	0x3ca0531c	0.01957088
75	0xbc057a7d	-0.008146879
76	0x3e3a3902	0.18185809
77	0x3d0363f0	0.03207773
78	0xbe196e9b	-0.14983599
79	0xbd8eacd6	-0.069665596
80	0xbd91b4c7	-0.07114559
81	0x3c806f25	0.015677998
82	0xbf044082	-0.5166093
83	0xbe364d01	-0.17802812
84	0x3c96fe0c	0.018431686
85	0xbdc63dcf	-0.09679758
86	0xbc8bc086	-0.017059576
87	0x3b20a7f0	0.002451416
88	0xbc8b736d	-0.017022813
89	0xbce482df	-0.027894435
90	0xbd875716	-0.06608407
91	0xbda21790	-0.079146504
92	0xbcc3c927	-0.023899628
93	0xbe5c73ec	-0.21528596
94	0xbe0fd6ef	-0.14046834
95	0xbce451bb	-0.027871003
96	0xbc9abd50	-0.0188891
97	0x3bd15047	0.0063877436
98	0x3dacdf03	0.084409736
99	0x3d2ddbb7	0.042445865
100	0x3c325417	0.010884306
101	0x3c89c4a6	0.016817402
102	0x3e2fb6d7	0.17159592
103	0x3d642e86	0.05570843
104	0x3cc3d86a	0.023906905
105	0x3d240951	0.040047947
106	0x3de7a0a3	0.11309936
107	0x3d87adec	0.0662497
108	0xbc901365	-0.017587373
109	0x3d4fe813	0.050758433
110	0x3da3e528	0.080026925
111	0x3d4f799c	0.050653085
112	0xbbd385fd	-0.0064551816
113	0x3d5732fb	0.052538853
114	0x3d4e4280	0.050356388
115	0xbc825346	-0.015908848
116	0x3e8e439c	0.27785957
117	0x3e0ceade	0.1376147
118	0x3e68efb0	0.22747684
119	0xbd1ce896	-0.03830775
120	0x3de284a1	0.11060453
121	0x3d8a040c	0.06739053
122	0xbc440bd1	-0.011965708
123	0xbd60a376	-0.05484339
124	0x3cf2f81b	0.029659322
125	0x3db87569	0.09006769
126	0xbcd6d9da	-0.026226927
127	0xbcab0a41	-0.020878913
128	0xbbc5b8e4	-0.0060340036
129	0x3d8292d2	0.0637566
130	0xbdb657e3	-0.08903482
131	0x3b883b49	0.004157458
132	0xbd5cbb1f	-0.05388939
133	0xbd8a6efa	-0.06759448
134	0xbc6caa1e	-0.014444856
135	0xbc48a1d2	-0.012245612
136	0x3d2fbd90	0.04290539
137	0xbe03f533	-0.12886505
138	0x3d2afb02	0.041743286
139	0x3d2ab448	0.041675836
140	0x3d049729	0.03237072
141	0x3c02cdaf	0.007983609
142	0xbdc4e710	-0.09614384
143	0x3da1642a	0.07880433
144	0xbd098583	-0.033574592
145	0xbd065b97	-0.03280219
146	0xbd189137	-0.037247863
147	0xbd3ddb28	-0.04635158
148	0xbe35b405	-0.17744453
149	0x3e1c13bf	0.15241908
150	0xbec94e21	-0.3931742
151	0x3ab5c995	0.001386928
152	0xbd4c0cbf	-0.049816843
153	0xbb7478d4	-0.0037303464
154	0x3def460c	0.11683282
155	0xbd9dc281	-0.07703114
156	0x3d0a6d69	0.033795748
157	0xbdd1c0e7	-0.10241871
158	0x3d85fe17	0.065426044
159	0xb884af55	-6.3269086e-05
160	0x3d0238c2	0.03179241
161	0xbe523959	-0.20529689
162	0x3c6c96e1	0.014440269
163	0x3dad6154	0.084658295
164	0xbd9aa5cc	-0.075511545
165	0xbe0b896d	-0.13626643
166	0xbe434f3b	-0.19073193
167	0x3e38f9ec	0.18064088
168	0x3dacccd3	0.084375046
169	0x3ba6ddaa	0.0050923424
170	0x3e1e0800	0.1543274
171	0xbdaaced5	-0.08340231
172	0xbca12ba7	-0.019674135
173	0x3e82357d	0.25431433
174	0xbe2e7d8c	-0.1704008
175	0x3d07a19c	0.033113107
176	0xbcaf74c1	-0.021417977
177	0xbcba0e19	-0.0227118
178	0xbd17f969	-0.03710309
179	0xbdb8a6bf	-0.09016179
180	0xbd0538f6	-0.032525025
181	0xbd834f19	-0.06411571
182	0xbdd3b8e1	-0.10337997
183	0xbdd65df6	-0.104671404
184	0x3e38bb12	0.18040112
185	0x3d68445d	0.05670582
186	0x3da0e1eb	0.078555904
187	0xbd7d00fd	-0.06176852
188	0x3da35bfa	0.079765275
189	0x3d5b130c	0.05348496
190	0xbcc24de6	-0.023718785
191	0xbdaf13de	-0.08548711
192	0x3c43c703	0.011949304
193	0x3d304ba4	0.043040887
194	0xbd940375	-0.07227222
195	0x3bbc4d81	0.005746544
196	0x3e17cb99	0.1482376
197	0xbd91b2a5	-0.07114152
198	0x3c8cd56b	0.01719161
199	0xbdc4bd4a	-0.096064165
200	0xbd0f1d6a	-0.03494016
201	0x3ca8e2c3	0.02061594
202	0xbeaa020d	-0.3320469
203	0xbdcab240	-0.0989728
204	0xbe5c1f89	-0.21496405
205	0xbdcd3779	-0.10020346
206	0xbb7f8c0c	-0.0038993387
207	0x3cbed163	0.023293203
208	0xbcd8e580	-0.026476622
209	0xbdc60337	-0.09668582
210	0x3be906fa	0.0071114274
211	0xbd973cda	-0.073846534
212	0x3c184d8b	0.009295831
213	0xbd3e5623	-0.046468865
214	0xbc6951b8	-0.014240675
215	0x3cadfffc	0.021240227
216	0xbd0b3cbc	-0.033993468
217	0xbd3c923c	-0.046037897
218	0x3d10b81b	0.035331827
219	0x3d16660a	0.036718406
220	0xbbe273e4	-0.006910788
221	0xbdb2313d	-0.08700798
222	0x3da801b3	0.08203449
223	0x3d4d52ed	0.050127912
224	0x3c8e9ea7	0.017409636
225	0x3c348fdb	0.011020626
226	0xbc90c0a7	-0.017669989
227	0x3cd5027f	0.026002167
228	0xbe50dd8d	-0.20397015
229	0xbdd6cc17	-0.10488146
230	0x3d7a22b1	0.06106824
231	0x3d13a7d6	0.036048733
232	0xbd378ac1	-0.04481006
233	0xbdf7e280	-0.12103748
234	0x3d017727	0.031607773
235	0xbd69c014	-0.057067946
236	0xbe142c3c	-0.14469999
237	0x3cb7c7d4	0.022434153
238	0x3ed6b94a	0.4193824
239	0xbd0f38b2	-0.03496618
240	0x3d132d92	0.03593213
241	0xbe9bd68a	-0.30437118
242	0xbdf8b7ed	-0.12144456
243	0xbda6c544	-0.08143094
244	0x3d906d77	0.07052129
245	0xbda01479	-0.07816405
246	0x3d13e93a	0.036111094
247	0x3dfda067	0.1238411
248	0xbcfc38a7	-0.030788733
249	0x3da8610f	0.082216375
250	0xbe769efc	-0.24084085
251	0xbd8e1a88	-0.06938654
252	0xbd046fcf	-0.03233319
253	0xbcf0bbbe	-0.029386397
254	0xbdb80ad2	-0.08986439
255	0xbda3dd5e	-0.08001207

features.denseblock1.denselayer1.norm2.weight f4 [48]
0	0x3e8b335c	0.27187622
1	0x3ea5e46d	0.32400838
2	0x3dfa1a05	0.12211994
3	0x3ea9fac5	0.33199134
4	0x3eb851e8	0.3599999
5	0x3dbccb24	0.092184335
6	0x3e81bb28	0.253381
7	0x3eb109dc	0.34577835
8	0x3e4f7db6	0.20262799
9	0x3ebb20e0	0.3654852
10	0x3eaccfd4	0.3375231
11	0x3eb3a32f	0.35085437
12	0x3e3a0587	0.18166171
13	0x3e92b676	0.28654832
14	0x3e8fc817	0.28082344
15	0x3e9450e9	0.2896798
16	0x3e92d0fd	0.2867507
17	0x3f15e899	0.5855804
18	0x3e88180a	0.2658084
19	0x3e7cd9fc	0.2469253
20	0x3ebe84a8	0.37210584
21	0x3ebdfe83	0.3710824
22	0x3e64b34e	0.22334024
23	0x3e7fd12f	0.24982141
24	0x3e81bda2	0.2533999
25	0x3e8e275a	0.27764398
26	0x3e87e849	0.26544407
27	0x3e673268	0.22577822
28	0x3e978f58	0.2960155
29	0x3e985d9d	0.2975892
30	0x3e8fba25	0.28071705
31	0x3e9cdfac	0.30639398
32	0x3ed192ba	0.40932256
33	0x3e0d2b63	0.13786082
34	0x3eaa4a32	0.33259732
35	0x3e85fa97	0.26167747
36	0x3ea6f1b4	0.3260628
37	0x3e9f3c3f	0.31100652
38	0x3e801c7b	0.2502173
39	0x3e953956	0.29145306
40	0x3e56a1be	0.20960137
41	0x3e85cd8b	0.2613338
42	0x3e83bd95	0.25730577
43	0x3ea5bc20	0.3237009
44	0x3e0c946b	0.13728492
45	0x3eba5946	0.36396235
46	0x3e83793f	0.2567844
47	0x3e61f211	0.22064997

features.denseblock1.denselayer1.norm2.bias f4 [48]
0	0x3eb8ece2	0.36118227
1	0x3cc725ae	0.02430996
2	0x3e041344	0.12897974
3	0x3df873f1	0.12131489
4	0xbe95af22	-0.29235178
5	0x3e1a7284	0.15082747
6	0x3eaefece	0.34178776
7	0xbe9bf57b	-0.30460724
8	0x3d8a8f18	0.06765574
9	0xbe1b06fd	-0.15139385
10	0xbe13f375	-0.1444834
11	0xbdbaea33	-0.09126701
12	0x3e17c5c6	0.14821538
13	0xbeb27811	-0.34857228
14	0x3e5ab1bc	0.21356863
15	0x3f09fad9	0.5389839
16	0x3e105a6e	0.14096996
17	0xbec4df43	-0.38451585
18	0xbe501776	-0.2032145
19	0xbe103304	-0.14081961
20	0xbeb26825	-0.3484508
21	0x3d91d4c7	0.07120662
22	0x3e432478	0.1905688
23	0xbd63502a	-0.055496372
24	0x3d3bc38d	0.04584079
25	0x3e3e7af0	0.18601584
26	0xbbaf344b	-0.00534681
27	0x3de05c7f	0.10955142
28	0x3cae061f	0.021243153
29	0x3dd496ca	0.10380323
30	0x3dcf22e0	0.10114074
31	0xbcdafb32	-0.026731107
32	0xbeac5dca	-0.33665305
33	0x3ea99160	0.33118725
34	0xbe0fa67d	-0.14028354
35	0x3e87791e	0.26459593
36	0x3ed0cc3a	0.40780813
37	0x3e35c469	0.17750706
38	0x3db2db04	0.0873318
39	0xbe952b5a	-0.29134637
40	0x3d261602	0.040548332
41	0xbe0132b6	-0.12617001
42	0x3ddfa1af	0.109195106
43	0xbe226c81	-0.15861703
44	0x3e65b23b	0.22431271
45	0x3d0e76f2	0.034781404
46	0xbdd84821	-0.105606325
47	0xbe123660	-0.14278555

features.denseblock1.denselayer1.norm2.running_mean f4 [48]
0	0xbf187932	-0.5955993
1	0xbdd61088	-0.10452372
2	0xbe0acf65	-0.13555677
3	0xbf01db98	-0.507257
4	0x3ec44a90	0.38338137
5	0xbd82f863	-0.06395032
6	0xbef83f17	-0.48485634
7	0xbe0fd5a3	-0.1404634
8	0xbe93f664	-0.2889892
9	0xbd8cb77d	-0.06870935
10	0xbeb8d817	-0.36102363
11	0xbe4862b3	-0.19568901
12	0xbd2e2edb	-0.042525154
13	0xbbacb745	-0.005270871
14	0x3e380c63	0.17973475
15	0x3f290fd7	0.66039795
16	0xbeb04d8b	-0.3443416
17	0x3ebd23e5	0.36941448
18	0x3da0cb34	0.07851258
19	0xbe6cbadf	-0.2311816
20	0xbdce9f99	-0.100890346
21	0xbd1d73be	-0.03844046
22	0xbdef3599	-0.11680145
23	0xbe85f625	-0.26164356
24	0x3e5a6bf3	0.21330242
25	0x3d507e42	0.05090166
26	0xbd39cd4b	-0.0453618
27	0xbe053347	-0.13007842
28	0xbee59b26	-0.4484493
29	0xbd725a94	-0.059168413
30	0xbb847654	-0.004042426
31	0xbd1a9f7f	-0.037749764
32	0x3d7ec14a	0.062196054
33	0x3df67181	0.12033368
34	0xbe8813aa	-0.26577502
35	0xbeb1a6ae	-0.3469748
36	0xbee322b7	-0.44362423
37	0xbd8b3496	-0.06797139
38	0x3e14e379	0.14539899
39	0x3e232ed3	0.15935831
40	0x3dcd58fa	0.100267366
41	0xbdc0fc0b	-0.094230734
42	0xbe279de7	-0.16368829
43	0x3cbefe83	0.02331472
44	0xbe30ed67	-0.17278062
45	0x3db8b137	0.09018176
46	0x3c550615	0.013001938
47	0x3e2f3919	0.17111625

features.denseblock1.denselayer1.norm2.running_var f4 [48]
0	0x3cd5cb09	0.026097791
1	0x3cd26902	0.025684837
2	0x3c2fcbe2	0.010729762
3	0x3d1ec434	0.038761333
4	0x3cd4da69	0.025983052
5	0x3c1466ed	0.009057743
6	0x3d3583fc	0.044315323
7	0x3c2f2146	0.010689085
8	0x3c7ca6a0	0.015420586
9	0x3c8810c4	0.016609557
10	0x3cb19787	0.0216787
11	0x3cc57752	0.024104748
12	0x3c9802e7	0.018556071
13	0x3c13cccd	0.009020996
14	0x3d4bd6fb	0.04976557
15	0x3c9e0300	0.01928854
16	0x3d4336aa	0.047659554
17	0x3d917f61	0.07104374
18	0x3c0563c9	0.008141466
19	0x3c6c2766	0.01441369
20	0x3c5dcb66	0.0135372635
21	0x3d7c9fa6	0.06167569
22	0x3cf0f3a8	0.02941306
23	0x3c82ba6a	0.01595803
24	0x3cbfc708	0.023410335
25	0x3d792074	0.060821965
26	0x3c3471c1	0.011013449
27	0x3ca391f6	0.01996706
28	0x3d0d8477	0.034550156
29	0x3d1e79b1	0.038690273
30	0x3cc5a6c8	0.024127379
31	0x3c91d7c0	0.017803073
32	0x3c9e4f60	0.019324958
33	0x3c92a072	0.017898772
34	0x3c9cb070	0.0191271
35	0x3d16fe66	0.036863707
36	0x3d6d5574	0.057942823
37	0x3d5a2dca	0.053266324
38	0x3d083d06	0.03326132
39	0x3c5810d3	0.013187605
40	0x3c1cbd06	0.009566551
41	0x3c2bde41	0.010490001
42	0x3cba1f70	0.022720069
43	0x3c9d93cb	0.019235512
44	0x3ca0888c	0.01959636
45	0x3cf80cb5	0.030279497
46	0x3c5856b6	0.013204267
47	0x3c2791c8	0.010227628

features.denseblock1.denselayer1.conv2.weight f4 [12, 48, 3, 3]
0	0x3ca9f142	0.020744924
1	0xbe025283	-0.12726788
2	0x3d25fb0c	0.04052262
3	0x3cc6dd48	0.024275437
4	0x3e8cc205	0.27491775
5	0x3c4b7127	0.012417114
6	0xbdad3093	-0.084565304
7	0xbe1f4da6	-0.15556964
8	0xbd98eaa0	-0.07466626
9	0xbde84862	-0.11341931
10	0xbd37cec0	-0.044874907
11	0xbd4a21b3	-0.049348544
12	0xbdefa0dc	-0.11700603
13	0xbe4833a9	-0.19550957
14	0xbce44639	-0.027865516
15	0x3db33ad0	0.08751452
16	0x3e8437b0	0.25823736
17	0x3e046c2f	0.12931894
18	0x3c8cd999	0.017193602
19	0x3db24c92	0.08706011
20	0x3b94304e	0.00452236
21	0xbb956e6b	-0.004560282
22	0xbd52f49b	-0.051502805
23	0xbd625a53	-0.05526192
24	0x3bd6ebae	0.006558857
25	0xbc1a7bf4	-0.009428967
26	0x3b21883b	0.002464785
27	0x3db66228	0.089054406
28	0xbdd87233	-0.10568657
29	0xbd32b095	-0.043625433
30	0x3d8c10c4	0.06839135
31	0x3df0ad19	0.11751766
32	0x3bc35370	0.0059608743
33	0x3d0bdba3	0.03414501
34	0xbd40f27e	-0.04710626
35	0x3c92fc49	0.017942565
36	0xbd52c058	-0.051452965
37	0x3b546fac	0.0032415194
38	0xbd28048e	-0.04101997
39	0x3c964812	0.018344913
40	0xbde28f98	-0.110625446
41	0x3be17a8c	0.006881064
42	0x3c93f081	0.018059017
43	0xbafc586f	-0.001925243
44	0xbd42c4b9	-0.04755089
45	0x3cbe028b	0.023194572
46	0x3c7be944	0.015375439
47	0xbc941ee7	-0.018081142
48	0x3be84d1f	0.0070892717
49	0x3d2a9358	0.041644424
50	0x3d0e0f8a	0.034682788
51	0xbd65381c	-0.055961713
52	0xbda2aabe	-0.07942723
53	0xbd4d628c	-0.05014281
54	0xbc241d74	-0.010016788
55	0xbdfe830f	-0.12427341
56	0x3c19823e	0.009369431
57	0xbc544941	-0.012956918
58	0x3e83ecb1	0.2576652
59	0x3db27a3f	0.08714723
60	0xbda65469	-0.08121569
61	0xbe0355ff	-0.12825774
62	0xbc458481	-0.012055517
63	0x3dc417dd	0.09574864
64	0x3d9a902b	0.07547029
65	0x3dc19130	0.094515204
66	0x3d01255d	0.031529773
67	0x3e96029b	0.29298863
68	0xbb5e36ed	-0.003390725
69	0xbdcf2fb3	-0.1011652
70	0xbe2bb4d6	-0.16768202
71	0xbd85be24	-0.06530407
72	0x3cee8e94	0.02912072
73	0x3c3421d1	0.010994391
74	0x3bcfddae	0.006343565
75	0xbd2b9f79	-0.04190013
76	0xbd8faf30	-0.07015836
77	0x3ca43866	0.020046424
78	0xbda060a7	-0.07830935
79	0xb8c5fc30	-9.4406656e-05
80	0xbd5fa71f	-0.05460274
81	0x3d4e677d	0.050391663
82	0x3dbf53c8	0.09342152
83	0x3c59fc47	0.0133047765
84	0xbb2e14d0	-0.0026562698
85	0xbdef662f	-0.11689412
86	0xba149da2	-0.0005669241
87	0x3c103be9	0.008803346
88	0x3d177402	0.036975868
89	0xbc7fe6e6	-0.015619015
90	0x3dcbd0ef	0.0995196
91	0x3d996c68	0.0749138
92	0x3cac71ca	0.021050353
93	0x3d5b3c52	0.053524323
94	0xbd49777f	-0.049186226
95	0xbd44083d	-0.04785942
96	0x3c29ec5c	0.010371294
97	0x3cf60910	0.030033618
98	0xbd3c930b	-0.04603867
99	0x3cc5645b	0.024095705
100	0xbd1aefc7	-0.037826326
101	0xbdadcb85	-0.08486084
102	0x3d0c8d44	0.03431441
103	0xbdc62ab5	-0.096761145
104	0xbd4d7410	-0.050159514
105	0xbd773f0d	-0.060362864
106	0xbc867df2	-0.016417477
107	0x3d223ffb	0.039611798
108	0x3c732696	0.014840743
109	0xbdabd250	-0.08389723
110	0x3c291abc	0.010321315
111	0x3d243e51	0.040098492
112	0x3d3b6e27	0.045759346
113	0x3c1e7625	0.009671723
114	0xbcc82641	-0.024432303
115	0xbc88b7a8	-0.016689137
116	0xbd19e617	-0.037572946
117	0x3cac8b1e	0.02106243
118	0x3d14b2ea	0.03630344
119	0x3d4f54f4	0.050618127
120	0x3bddb0da	0.006765467
121	0xbc55777e	-0.013028977
122	0x3d028236	0.03186246
123	0x3d3786e9	0.044806395
124	0x3cf82337	0.03029023
125	0xbc722ee7	-0.01478169
126	0xbd8e156e	-0.06937681
127	0x3db32e58	0.08749074
128	0xbdd2218c	-0.10260305
129	0x3d3b4ee2	0.045729525
130	0xbe59811c	-0.21240658
131	0x3dc71e66	0.09722595
132	0xbdafaa26	-0.08577375
133	0x3e304983	0.17215542
134	0xbaf0b157	-0.0018363398
135	0xbd668753	-0.0562814
136	0x3e685ff6	0.22692856
137	0xbde7e813	-0.113235615
138	0x3e2a7337	0.16645513
139	0xbe2d7abb	-0.16941349
140	0x3e5c6761	0.21523811
141	0xbdbec0e5	-0.093141355
142	0x3d88844a	0.06665857
143	0xbe1850ae	-0.14874527
144	0x3d7dd278	0.061968297
145	0x3de82784	0.11335662
146	0x3d332f0d	0.043746043
147	0xbce4fd9a	-0.027952958
148	0xbded8531	-0.1159767
149	0xbb423a58	-0.0029636826
150	0xbd538def	-0.05164903
151	0x3d850bc9	0.064963885
152	0xbcd3a843	-0.02583707
153	0xbc8ef685	-0.017451534
154	0xbd2bbd7f	-0.041928764
155	0xbd50c8c0	-0.0509727
156	0xbdb2a38b	-0.087225996
157	0xbebbf676	-0.36711472
158	0xbd8d0854	-0.06886354
159	0x3d9fd28f	0.07803833
160	0xbcc9ca65	-0.024632642
161	0x3d31a81a	0.043373205
162	0xbd1d731c	-0.038439855
163	0xbdf52b29	-0.11971123
164	0xbdd8ac1d	-0.10579703
165	0x3bc5fa84	0.0060418267
166	0xbdf3d307	-0.11905485
167	0xbd01004a	-0.031494416
168	0x3cf71d16	0.030165236
169	0x3d693bea	0.056941904
170	0x3d5d6676	0.054052792
171	0x3df05cde	0.11736463
172	0x3dfd1eda	0.123594
173	0x3dc57601	0.09641648
174	0xbcd0b403	-0.025476461
175	0x3c4ae843	0.012384477
176	0xbd1b51d5	-0.037919838
177	0x3d3f75c7	0.04674318
178	0x3de21b3c	0.11040351
179	0x3d645d4e	0.055753045
180	0x3dab9942	0.08378841
181	0x3deb70a5	0.114960946
182	0x3dc863f3	0.09784689
183	0xbc197003	-0.009365085
184	0x3eaa17c8	0.3322127
185	0x3c4e027d	0.012573835
186	0xbd8a4820	-0.06752038
187	0xbe417169	-0.18890919
188	0xbd0696c2	-0.032858618
189	0x3d7d258e	0.061803393
190	0x3cddc709	0.027072446
191	0x3d502a50	0.050821602
192	0xbcd67b9a	-0.026181985
193	0x3e29beb4	0.16576654
194	0xba94df64	-0.001135808
195	0x3b4d6f5f	0.00313469
196	0xbe0aaea2	-0.1354318
197	0x3dc58c07	0.09645849
198	0xbd1731fc	-0.036912903
199	0xbe331052	-0.17486694
200	0xbda8d934	-0.08244553
201	0xbd208708	-0.039191276
202	0x3df4f82c	0.119613975
203	0xbd014f4c	-0.031569764
204	0xbd89c6c1	-0.067273624
205	0xbe49a69e	-0.19692466
206	0xbb5973a7	-0.0033180506
207	0xbcf5d134	-0.030006982
208	0xbd9c26ec	-0.07624611
209	0x3d0220da	0.03176961
210	0x3c5cf627	0.013486422
211	0x3e04256a	0.12904897
212	0x39f65a9b	0.00046988283
213	0xbdd8626c	-0.105656475
214	0xbe0d00e5	-0.13769872
215	0xbe1e6db5	-0.15471537
216	0x3d73901f	0.059463616
217	0x3e374336	0.17896733
218	0x3d308497	0.043095198
219	0x3c978fa7	0.018501116
220	0xbe2a3a94	-0.16623908
221	0x3ce1b6a2	0.027552906
222	0x3d15f933	0.036614608
223	0x3da9b5b6	0.08286612
224	0xbc85ef3e	-0.016349431
225	0x3bb0fa04	0.005400898
226	0xbce33934	-0.027737238
227	0x3d84cd13	0.06484427
228	0x3cdb809c	0.026794724
229	0x3e1e9ad3	0.15488748
230	0x3d847247	0.06467109
231	0xbca37064	-0.019951053
232	0xbe0f299f	-0.13980721
233	0x3a4f37ee	0.00079047575
234	0xbd5d4f4b	-0.054030698
235	0xbd222cba	-0.039593436
236	0xbd01e38d	-0.03171115
237	0x3d9c2a6c	0.07625279
238	0x3dddee84	0.10836509
239	0x3ca02c45	0.01955236
240	0xbdc9839b	-0.09839555
241	0xbdb6fa45	-0.08934454
242	0xbdb1d283	-0.0868273
243	0xbd99532a	-0.074865654
244	0xbe33ca25	-0.17557581
245	0xbd4c421a	-0.049867727
246	0x3dc6a560	0.096995115
247	0x3e2aaee8	0.16668284
248	0xb9798e41	-0.00023799484
249	0xbdc69fab	-0.09698423
250	0xbe2ee1ff	-0.17078398
251	0xbcf4a60e	-0.029864337
252	0x3d62608f	0.055267867
253	0x3d9e6f32	0.077360526
254	0x3bfdf860	0.007750556
255	0xbb625b29	-0.00345392

features.denseblock1.denselayer2.norm1.weight f4 [36]
0	0x3e708536	0.23488316
1	0x35d2a81b	1.5695144e-06
2	0x3ed097fd	0.40740958
3	0x3ca77ae3	0.02044434
4	0x3e013bc4	0.12620455
5	0x3ba2fac0	0.0049737394
6	0x3eb83736	0.35979623
7	0x3e654c33	0.22392349
8	0x3ea35e97	0.31908104
9	0x3ec40aaf	0.382894
10	0x3e6a3c91	0.22874667
11	0x3ea12509	0.31473568
12	0x3d85fc05	0.065422095
13	0x3e838bcb	0.2569259
14	0x3ed1324e	0.40858692
15	0x3e4bd351	0.1990483
16	0x3bf7a013	0.007556924
17	0x3a4c71fa	0.0007798966
18	0x3e59d899	0.21274032
19	0x34d0c956	3.888951e-07
20	0x3eb79f3e	0.3586368
21	0x3ee11ccb	0.4396728
22	0x39bd7ec2	0.0003614333
23	0x3e2d2c2a	0.16911379
24	0x3ec803c2	0.39065367
25	0x3e718903	0.23587422
26	0x3f263e0a	0.64938414
27	0x35bc55a3	1.4032015e-06
28	0xba11fc89	-0.00055689417
29	0x3b65f425	0.0035088148
30	0x39a7dffd	0.00032019606
31	0x3d043693	0.03227861
32	0x3e3e1bff	0.18565367
33	0x3e46ed4d	0.1942646
34	0x3e94f9ba	0.29096776
35	0x3ebb22ac	0.3654989

features.denseblock1.denselayer2.norm1.bias f4 [36]
0	0x3f0aa9d7	0.54165405
1	0xb7d75fe8	-2.5674657e-05
2	0xbeaea47a	-0.3410986
3	0x3d43fe20	0.047849774
4	0x3d55e9b6	0.052224837
5	0xbc83d968	-0.016094878
6	0x3f3a3ce0	0.7274914
7	0xbdc75c9b	-0.0973446
8	0x3e5f4a54	0.21805698
9	0x3e9ccdf1	0.3062587
10	0xbe1a5bf1	-0.15074135
11	0x3e844a62	0.25838
12	0x3d3d3ee7	0.046202566
13	0xbd89422d	-0.06702075
14	0x3e6d5c3d	0.23179717
15	0x3dffd257	0.12491291
16	0xbcf8c2b7	-0.030366285
17	0xbc749f95	-0.014930625
18	0x3d19daff	0.037562367
19	0xb66d426d	-3.5354417e-06
20	0xbdfcbcae	-0.12340675
21	0x3eb24fde	0.3482656
22	0xba5fd00d	-0.0008537777
23	0xbc7d422d	-0.015457672
24	0x3f032d69	0.51241165
25	0xbdea96a7	-0.11454516
26	0xbf226c3b	-0.63446397
27	0xb7b657de	-2.1737007e-05
28	0xbbba06ac	-0.005677065
29	0xbcabc583	-0.020968204
30	0xbb780e9c	-0.0037850505
31	0xbc857b60	-0.016294181
32	0x3d86ecfd	0.06588171
33	0x3d0f54d8	0.034993023
34	0x3cf0d270	0.02939722
35	0x3f2525b0	0.6451063

features.denseblock1.denselayer2.norm1.running_mean f4 [36]
0	0xbdb7c356	-0.08972804
1	0x3c1e5c5e	0.009665577
2	0xbe8fee8e	-0.2811169
3	0xbd9450dc	-0.07241985
4	0x3cabbfcf	0.020965485
5	0xbe9b8e8b	-0.3038219
6	0x3d079b09	0.033106837
7	0xbd05db7f	-0.03268003
8	0xbbd0c536	-0.0063711656
9	0x3d88e364	0.06683996
10	0x3cd98175	0.026550988
11	0x3bfdce96	0.007745574
12	0x3d7d7245	0.061876554
13	0x3d29eed2	0.041487522
14	0x3c6cceb4	0.014453579
15	0xbc052a7a	-0.008127803
16	0xbe0b0f29	-0.13580002
17	0xbde6cb4c	-0.112692446
18	0x3e4eb5b7	0.20186506
19	0xbd661fcc	-0.056182668
20	0x3f0d4522	0.55183613
21	0x3d1befa9	0.038070355
22	0x3ee5c85d	0.44879428
23	0xbd85739a	-0.0651619
24	0xbef37d91	-0.47556737
25	0xbea8f37c	-0.32998264
26	0x3f6ceee5	0.92552024
27	0x3ecdd990	0.4020505
28	0x3d8c9bbd	0.06865642
29	0xbf8fa64a	-1.1222622
30	0xbdd3bd06	-0.10338788
31	0xbe24b9da	-0.16086522
32	0x3e338738	0.1753205
33	0xbec7cfe4	-0.39025795
34	0xbf709bda	-0.9398781
35	0xbdc494ea	-0.095987156

features.denseblock1.denselayer2.norm1.running_var f4 [36]
0	0x3f874b4f	1.0569857
1	0x3f19f44b	0.60138386
2	0x3fe2d9cc	1.7722716
3	0x3e853c4e	0.2602257
4	0x3e51efd2	0.2050164
5	0x4000c0fe	2.0117793
6	0x3f763719	0.9617782
7	0x3e9e7f7e	0.30956644
8	0x4043f00e	3.0615268
9	0x40f38f1a	7.6112185
10	0x3ed3b9a7	0.4135258
11	0x40958192	4.6720667
12	0x40124e7c	2.2860403
13	0x3f419c23	0.7562887
14	0x41210f64	10.066257
15	0x4035e81e	2.8422923
16	0x3fa207a5	1.2658583
17	0x3f883fd0	1.0644474
18	0x3f891bc3	1.0711597
19	0x3f4be18a	0.7964102
20	0x40ce60c0	6.4493103
21	0x40dda67e	6.9265738
22	0x40b606cf	5.688331
23	0x3f43f69e	0.7654818
24	0x3efa796a	0.48920757
25	0x3ea41a18	0.32051158
26	0x3ed70f39	0.420038
27	0x3eb7aeac	0.35875452
28	0x3e8285ac	0.2549261
29	0x3ece537d	0.40298072
30	0x3e6c6873	0.23086719
31	0x3e57a7d0	0.21060109
32	0x3ed3553a	0.4127596
33	0x3e9241b3	0.2856575
34	0x3eccdf0b	0.40013918
35	0x3ef666ff	0.48125455

features.denseblock1.denselayer2.conv1.weight f4 [48, 36, 1, 1]
0	0x3e11faa2	0.14255765
1	0x36fa7250	7.4638883e-06
2	0x3cb46a80	0.02202344
3	0xbcd33522	-0.025782172
4	0x3d074f4e	0.033034615
5	0xba23814e	-0.00062372244
6	0xbdd847e2	-0.105605856
7	0xbd6de291	-0.0580774
8	0x3d11be93	0.035582136
9	0xbe44213d	-0.19153304
10	0x3db03a8d	0.08604918
11	0x3dcb381d	0.09922812
12	0x3d34f2f5	0.044177014
13	0xbc88143a	-0.016611207
14	0xbdf65e37	-0.12029689
15	0xbd7ec474	-0.06219907
16	0xbba8c5f9	-0.0051505533
17	0x3ab29c70	0.0013626944
18	0x3d7ddbb2	0.061977096
19	0x35e9cef6	1.7420086e-06
20	0x3d7d3038	0.061813563
21	0x3dd0071a	0.101576045
22	0xb93f443d	-0.000182406
23	0x3cd1285b	0.025531938
24	0x3e46f941	0.1943102
25	0xbdee7c28	-0.11644775
26	0xbba6fd69	-0.005096127
27	0xb6b05afa	-5.2558e-06
28	0xbb5beee3	-0.0033559136
29	0xbb3f0dd8	-0.0029152539
30	0x3af6631b	0.0018797846
31	0xbc37a785	-0.011209373
32	0xbdc5fc3b	-0.0966725
33	0xbc4fb3f5	-0.012677182
34	0xbea4b5bc	-0.32169902
35	0x3d8b2237	0.06793635
36	0x3cfb5c82	0.03068376
37	0x3681a39a	3.8635453e-06
38	0x3e1560b7	0.14587675
39	0xbcbadd84	-0.022810705
40	0xbda701c9	-0.08154637
41	0x3b8b5214	0.004251728
42	0xbe638e87	-0.22222339
43	0x3d7c1f39	0.061553214
44	0xbe81b57f	-0.25333783
45	0xbe2e3d24	-0.17015511
46	0xbe0dee96	-0.13860545
47	0xbec2fdb3	-0.38084182
48	0xbc8dbb13	-0.017301118
49	0xbd16e580	-0.036839962
50	0x3bace529	0.0052763415
51	0x3c15bb5c	0.009138908
52	0x3a020c82	0.000496097
53	0x3ab6c407	0.0013943919
54	0x3de3678b	0.11103734
55	0xb61d6a4d	-2.3456698e-06
56	0x3b93b258	0.004507344
57	0x3d30a2c4	0.043123975
58	0xb8b57364	-8.652246e-05
59	0x3cdcb98d	0.026943946
60	0x3dbdbf1c	0.09264967
61	0xbd1c1cde	-0.038113467
62	0xbd56ed55	-0.05247243
63	0x35e386e3	1.6952075e-06
64	0xb93acbc2	-0.00017814248
65	0xbc709eef	-0.01468633
66	0x39bc6dd6	0.00035939988
67	0xbb420eee	-0.002961095
68	0x3d30dc14	0.043178633
69	0x3a774f3a	0.0009434108
70	0x3d48fd58	0.049069732
71	0xbdb326b0	-0.087476134
72	0x3d9f5690	0.07780182
73	0xb68ed6a0	-4.2569154e-06
74	0x3d813906	0.063097045
75	0xbcfeb5a3	-0.03109247
76	0xbd69781c	-0.05699931
77	0x3b55b549	0.0032609275
78	0xbe625297	-0.22101818
79	0x3adf6455	0.0017043451
80	0xbe878f85	-0.26476684
81	0x3d194765	0.037421603
82	0xbe0066c5	-0.12539203
83	0xbe63e808	-0.22256482
84	0x3bb7a818	0.005604755
85	0xbd621187	-0.055192497
86	0xbe45d7df	-0.1932063
87	0xbd6c73ca	-0.057727613
88	0x3bd0c3b9	0.006370988
89	0x3b283ab2	0.002566975
90	0x3d65b519	0.05608091
91	0xb2a60f0d	-1.9331788e-08
92	0xbda48a1c	-0.08034155
93	0x3dd72e7d	0.10506914
94	0xb91bdbe6	-0.0001486387
95	0x3b11af2a	0.002222965
96	0x3cb42ede	0.021995004
97	0x3cd2d532	0.025736425
98	0xbe0c91af	-0.13727449
99	0x369bd56c	4.6442055e-06
100	0xba4c3857	-0.0007790378
101	0xbb22ce0b	-0.002484205
102	0xbae66f70	-0.0017580818
103	0xbba293bd	-0.0049614594
104	0xbb02d141	-0.001996115
105	0xbc63b7f5	-0.013898839
106	0x3d8d107d	0.068879105
107	0xbc14b1cf	-0.009075596
108	0x3dba4c49	0.090965815
109	0xb65f6026	-3.3285555e-06
110	0x3dbd0041	0.09228564
111	0xbce6ebec	-0.028188668
112	0x3d27cc6b	0.040966433
113	0x3b3ed114	0.002911632
114	0xbbe7cace	-0.0070737367
115	0x3d27062d	0.040777374
116	0xbd01bea9	-0.03167597
117	0x3d4e4fd7	0.05036911
118	0xbc4baf5c	-0.012431946
119	0x3d0429ff	0.032266613
120	0x3d14eb7d	0.03635739
121	0x3b7e4c91	0.0038802961
122	0xbeb54aa0	-0.35408497
123	0xbe37db9e	-0.17954871
124	0xba060951	-0.00051130826
125	0xbc105493	-0.008809227
126	0x3deef391	0.1166755
127	0xb45905f1	-2.0211861e-07
128	0x3de6a32e	0.11261593
129	0xbe14dadc	-0.14536613
130	0xb93d5657	-0.00018056609
131	0x3c041bcb	0.008063267
132	0x3e5a1236	0.2129601
133	0x3d705178	0.058671445
134	0xbe5a6a5f	-0.2132964
135	0x36eeff7f	7.1226964e-06
136	0x3a8b5968	0.0010631504
137	0x3ccd221f	0.025040684
138	0xb8f47de8	-0.000116582785
139	0xbc818bdb	-0.015813759
140	0xbe09d96e	-0.13461849
141	0x3ceaa9de	0.028645452
142	0xbdbb8dd9	-0.09157915
143	0xbd697095	-0.056992132
144	0xbcb4d28a	-0.02207305
145	0x37a8d7c1	2.0127629e-05
146	0xbd16aca7	-0.036785748
147	0xbd070116	-0.03296002
148	0xbd90856b	-0.070566975
149	0xbbbede8a	-0.0058248686
150	0xbd9e358c	-0.07725057
151	0xbb85604a	-0.0040703164
152	0x3d864435	0.06555978
153	0xbdd0ff7b	-0.10204979
154	0xb93af9b8	-0.0001783137
155	0x3dc33ec9	0.0953346
156	0xbc26cffc	-0.010181423
157	0x3cbf97d6	0.02338783
158	0xbda6413c	-0.08117911
159	0xbdaa983a	-0.08329816
160	0xbba7a61b	-0.005116237
161	0x3b807f21	0.003921405
162	0x3da3220d	0.07965479
163	0xb594831d	-1.1065018e-06
164	0xba4b6fbb	-0.00077604846
165	0xbee7b7f7	-0.45257542
166	0x3929e9c7	0.00016204185
167	0x3b783e0c	0.003787878
168	0xbc4cac49	-0.012492248
169	0xbc3abe07	-0.011397845
170	0xbdee1fe2	-0.11627175
171	0xb69fa424	-4.7576777e-06
172	0x398e5b68	0.00027152454
173	0x3c6fdda3	0.014640245
174	0x3a490791	0.0007668669
175	0xbc1e09f6	-0.00964593
176	0x3dab6b26	0.08370046
177	0xbc0649e6	-0.00819633
178	0x3d653ac3	0.055964243
179	0xbcf8de43	-0.03037942
180	0xbdb29c50	-0.087212205
181	0x364042ad	2.864904e-06
182	0x3dab4b00	0.083639145
183	0x3b1d5999	0.0024009703
184	0x3d1ba7be	0.03800177
185	0x3bd1a6e6	0.0063980697
186	0x3dd68f70	0.10476577
187	0xbd3cf859	-0.04613528
188	0x3da48710	0.08033574
189	0x3dd59d1f	0.10430359
190	0xbd7e1850	-0.062034905
191	0x3da3ae86	0.07992272
192	0xbbf0efc1	-0.0073527996
193	0xbd722bce	-0.059123807
194	0xbeaca4c4	-0.33719456
195	0xbe648265	-0.22315367
196	0x3c0fa0cb	0.008766363
197	0x3becfa1f	0.007231965
198	0x3d02007a	0.031738736
199	0x354d6f62	7.6530534e-07
200	0x3d4f9970	0.05068344
201	0xbe05b3b0	-0.13056827
202	0x379d5dda	1.8759561e-05
203	0x3d734106	0.059388183
204	0xbdc54d74	-0.09633914
205	0xbe01f39e	-0.12690589
206	0xbe9c353e	-0.3050937
207	0xb6a2ff87	-4.8577235e-06
208	0x3ae850f0	0.0017724317
209	0x3b514996	0.003193473
210	0x3912c5b2	0.00013997292
211	0x3b16bafb	0.0022999633
212	0x3d8f25a4	0.06989601
213	0x3d6b72d3	0.05748255
214	0xbc030856	-0.007997593
215	0xbdd59bcc	-0.104301065
216	0x3e4d79fd	0.20066066
217	0xb5ec7dbc	-1.7619964e-06
218	0x3dee336f	0.11630904
219	0xbce25664	-0.027629085
220	0xbd4d4bc8	-0.0501211
221	0x3bd34ae4	0.0064481366
222	0xbe1a1a74	-0.15049154
223	0x3dbe7c91	0.09301103
224	0xbd867412	-0.065651074
225	0xbdeca517	-0.11554926
226	0x3d939933	0.07206955
227	0xbcae95bd	-0.021311635
228	0xb904f877	-0.00012681061
229	0xbc360bd2	-0.011111217
230	0xbe59f133	-0.21283416
231	0xbd9e8a34	-0.07741204
232	0x3a6ba95d	0.00089897757
233	0xb9da6454	-0.0004165495
234	0xbc474cb6	-0.012164285
235	0xb548e79c	-7.484284e-07
236	0xbd4bd010	-0.04975897
237	0x3ddd87fb	0.10816952
238	0xb92b39ab	-0.00016329314
239	0x3c299ecc	0.0103528015
240	0x3e84f928	0.2597134
241	0x3d3fd8f5	0.046837766
242	0x3c12c826	0.008958852
243	0x370b321a	8.296711e-06
244	0xbbc65d23	-0.006053583
245	0xbd045706	-0.032309555
246	0x3b0d99fe	0.002160668
247	0xbc952363	-0.01820535
248	0xbdac51d7	-0.08414047
249	0x3c212452	0.00983532
250	0xbde02b25	-0.10945729
251	0x3ce679a4	0.028134175
252	0x3c991c94	0.018690385
253	0xb5dedf64	-1.6605304e-06
254	0x3b1d2e52	0.0023983908
255	0xbb900979	-0.0043956605

features.denseblock1.denselayer2.norm2.weight f4 [48]
0	0x3ea8b9ec	0.32954347
1	0x3eb1cfb5	0.3472878
2	0x3e93000b	0.2871097
3	0x3e88ecf9	0.26743296
4	0x3e9a5799	0.30144957
5	0x3eab250e	0.33426708
6	0x3eac05aa	0.3359807
7	0x3e722116	0.23645434
8	0x3eaaa9d7	0.33332703
9	0x3ea0f11d	0.31433955
10	0x3e8cf5df	0.27531335
11	0x3ea38fa0	0.31945515
12	0x3ec4cde3	0.3843833
13	0x3e9ef795	0.31048265
14	0x3df4f9aa	0.11961682
15	0x3e8dc004	0.2768556
16	0x3eb3874d	0.35064164
17	0x3ea57d38	0.32322097
18	0x3e8401af	0.25782534
19	0x3e3e34b5	0.18574794
20	0x3e8dda97	0.27705833
21	0x3e84f624	0.2596904
22	0x3ef967fe	0.48712152
23	0x3e8e5c21	0.27804664
24	0x3e6ffcd0	0.23436284
25	0x3ea03f82	0.31298453
26	0x3e8a0be6	0.26962203
27	0x3e2a6dfd	0.1664352
28	0x3ec506e5	0.38481823
29	0x3e49ca4c	0.19706076
30	0x3e946c10	0.28988695
31	0x3e84064e	0.2578606
32	0x3e851902	0.25995642
33	0x3c769b11	0.015051619
34	0x3e6893a7	0.22712575
35	0x3ebdc8bd	0.37067214
36	0x3e9eb129	0.30994537
37	0x3efc5cd8	0.49289584
38	0x3e6ea739	0.23305978
39	0x3c09be28	0.008407153
40	0x3ea84072	0.32861668
41	0x3e7a55c8	0.24446785
42	0x3e8a2e07	0.2698824
43	0x3e42d4b9	0.1902646
44	0x3ebbcdac	0.36680353
45	0x3e73228b	0.23743646
46	0x3ecd29f7	0.4007108
47	0x3e8cc01f	0.27490327

features.denseblock1.denselayer2.norm2.bias f4 [48]
0	0x3e1cb6c5	0.15304096
1	0x3d3557d0	0.044273198
2	0x3e266277	0.16248499
3	0x3dbc014f	0.09179937
4	0x3cf30a5f	0.029668031
5	0x3d0dba7a	0.034601666
6	0x3caae1e0	0.020859659
7	0xbde63e48	-0.11242348
8	0xbe46f68e	-0.1942999
9	0x3e47beee	0.19506428
10	0xbb3010bf	-0.002686545
11	0x3dd9869b	0.10621377
12	0xbe3bab94	-0.1832717
13	0x3e1fbc1e	0.15599105
14	0x3c15de92	0.009147303
15	0x3d81a591	0.063304074
16	0x3dbbee8a	0.09176357
17	0xbb9d7f92	-0.0048064673
18	0x3d6f6865	0.058449168
19	0xbd8929f0	-0.06697452
20	0x3dfc6182	0.12323286
21	0xbe3d8a31	-0.18509747
22	0xbe5f82c8	-0.21827233
23	0xba016476	-0.00049359293
24	0xbd9f9fb5	-0.077941336
25	0xbe2b895e	-0.1675162
26	0x3c76f137	0.015072159
27	0xbd95f5b0	-0.07322252
28	0xbe5a8a99	-0.21341933
29	0xbdd879d3	-0.10570111
30	0xbe053cc0	-0.13011456
31	0x3e538b27	0.20658551
32	0x3da2a18f	0.07940971
33	0x3bd37d25	0.0064541274
34	0xbc805055	-0.015663305
35	0xbdcfeb98	-0.10152358
36	0xbe2c672b	-0.1683623
37	0x3efa2d43	0.48862657
38	0x3d8809ee	0.06642519
39	0xbc085a66	-0.008322334
40	0xbe23c82b	-0.15994327
41	0xbd1f6ad2	-0.03892023
42	0x3d852d62	0.06502797
43	0x3dbc7201	0.09201432
44	0xbe805416	-0.25064152
45	0x3dad3213	0.084568165
46	0x3d2440de	0.040100925
47	0xbd1c434a	-0.03815011

features.denseblock1.denselayer2.norm2.running_mean f4 [48]
0	0x3d9e7371	0.077368625
1	0xbeb748c1	-0.35797694
2	0xbe8d4bbb	-0.2759684
3	0xbd705076	-0.058670484
4	0xbe9972e3	-0.29970464
5	0xbe570455	-0.20997746
6	0x3d323523	0.043507706
7	0x3c7981a4	0.015228663
8	0x3e4a2c6b	0.19743507
9	0xbdfbeb27	-0.12300711
10	0xbde88c58	-0.113548934
11	0xba86e228	-0.0010290788
12	0xbdcf9f49	-0.10137803
13	0x3f0c41c3	0.54787844
14	0xbdff7ac6	-0.12474589
15	0x3e609b7c	0.21934313
16	0xbf1087d3	-0.5645725
17	0xbe803953	-0.25043735
18	0xbee0f8f2	-0.4393993
19	0x3d8962eb	0.0670832
20	0xbd5b5b5d	-0.053553928
21	0xbe39c8db	-0.18143027
22	0x3dbb2abe	0.09139012
23	0xbe6999e8	-0.22812617
24	0x3df58253	0.11987748
25	0x3e038720	0.12844515
26	0xbe91a658	-0.28447223
27	0xbd1816a0	-0.037130952
28	0xbebb4a4f	-0.3658013
29	0x3c9a4ed2	0.018836413
30	0xbbf23dec	-0.0073926356
31	0x3eca92f9	0.39565256
32	0xbe120881	-0.14261056
33	0x3c484dc0	0.012225568
34	0x3d94b1cc	0.072604746
35	0xbeae8a64	-0.3408996
36	0x3cd6c2fa	0.026216019
37	0xbf030d73	-0.51192397
38	0xbdcaf6e1	-0.0991037
39	0x3c97ec04	0.018545158
40	0x3e6c72f0	0.2309072
41	0x3d951cfa	0.072809175
42	0xbe318494	-0.17335731
43	0xbd2a37ea	-0.04155723
44	0x3e86327d	0.26210395
45	0xbe3b6732	-0.18301085
46	0xbeceaa7a	-0.40364438
47	0xbe8ca8d5	-0.2747256

features.denseblock1.denselayer2.norm2.running_var f4 [48]
0	0x3c7d30a9	0.015453496
1	0x3d4f3ba7	0.050594
2	0x3d37abe4	0.044841662
3	0x3d1e5cb4	0.038662627
4	0x3d302c50	0.04301101
5	0x3d408653	0.0470031
6	0x3d01cb4a	0.031688012
7	0x3c105383	0.008808973
8	0x3c17efc0	0.009273469
9	0x3d81d120	0.063387156
10	0x3c8cdb44	0.017194398
11	0x3d137b45	0.03600623
12	0x3c7f7251	0.01559122
13	0x3d8adf63	0.06780889
14	0x3bc9cea1	0.0061586653
15	0x3cea2f65	0.028587053
16	0x3d81c8df	0.06337141
17	0x3d327766	0.0435709
18	0x3d3b8ce4	0.04578866
19	0x3b977a6e	0.004622749
20	0x3cfcd762	0.030864421
21	0x3bf02e32	0.0073297257
22	0x3cdd512b	0.027016243
23	0x3cad4834	0.021152593
24	0x3c02666d	0.0079589905
25	0x3c01a0ef	0.007911905
26	0x3cbd2461	0.023088636
27	0x3ae7801c	0.0017662081
28	0x3c9948dd	0.018711502
29	0x3b541c27	0.0032365413
30	0x3c2b23a1	0.010445506
31	0x3d3436b9	0.0439975
32	0x3cb81d3e	0.022474881
33	0x398bd38e	0.00026669767
34	0x3c913501	0.01772547
35	0x3c73a624	0.014871154
36	0x3c93603d	0.017990226
37	0x3dc3c65e	0.0955932
38	0x3cbbaaab	0.02290853
39	0x39535d2d	0.00020157239
40	0x3c830c06	0.015996944
41	0x3c80e45a	0.015733887
42	0x3cf7c38f	0.030244617
43	0x3c2a0d70	0.01037918
44	0x3c782224	0.0151448585
45	0x3d1a3bc1	0.037654642
46	0x3da26061	0.07928539
47	0x3c595216	0.0132642

features.denseblock1.denselayer2.conv2.weight f4 [12, 48, 3, 3]
0	0xbe0dfffd	-0.13867183
1	0xbdbd9113	-0.09256186
2	0xbdf86556	-0.12128703
3	0x3d9338e9	0.07188589
4	0xbc78c6d8	-0.015184127
5	0x3c08abef	0.008341773
6	0xba7ea8de	-0.0009714494
7	0x3d7e1f81	0.062041763
8	0x3d16b3a9	0.03679243
9	0x3b1f53a1	0.0024311321
10	0x3be549f8	0.006997343
11	0xbcb78326	-0.022401404
12	0xbd3f100c	-0.046646163
13	0xbd328f44	-0.04359366
14	0xbbbe0f15	-0.0058001378
15	0xbd459ae0	-0.048243403
16	0xbc825e70	-0.015914172
17	0xbd81a720	-0.06330705
18	0x3ccb26df	0.024798809
19	0xbc9ffc5d	-0.019529516
20	0xbdbafc2e	-0.09130131
21	0xbbc8ca54	-0.006127635
22	0x3c17ae5a	0.009257877
23	0x3c429726	0.011876857
24	0xbd2249f1	-0.039621297
25	0x3bf594d6	0.0074945493
26	0xbd24a959	-0.040200565
27	0xbcd3ec69	-0.025869565
28	0x3cda7afa	0.026669968
29	0x3ca0b360	0.019616783
30	0x3d90ca5f	0.07069849
31	0x3d571245	0.052507658
32	0x3d97000c	0.07373056
33	0xbbb759c2	-0.0055954168
34	0x3d0c8e26	0.03431525
35	0x3d169884	0.036766544
36	0xbd94d774	-0.07267657
37	0xbd30bff1	-0.0431518
38	0x3d514492	0.051090784
39	0x3c7d579a	0.01546278
40	0xbd5b3498	-0.053516954
41	0x3c77d208	0.015125759
42	0xbd919399	-0.0710823
43	0xbd6a3b90	-0.05718571
44	0xbbe66eaf	-0.0070322375
45	0x3c99d717	0.01877932
46	0x3cbef93c	0.023312204
47	0x3d9f5278	0.077794015
48	0x3d25de6a	0.040495314
49	0x3c89a2a1	0.01680118
50	0x3d1c40dd	0.038147796
51	0xbd51774c	-0.05113916
52	0xbd1a1db8	-0.037626
53	0x3c2c65e7	0.010522342
54	0xbdb1ea4a	-0.08687265
55	0xbd40f276	-0.04710623
56	0xbdc4f963	-0.09617879
57	0x3d694b35	0.05695649
58	0xbcf9c00d	-0.030487085
59	0x3af7d85a	0.0018909082
60	0x3c9fa934	0.019489862
61	0x3d67e667	0.056616213
62	0x3d23afe3	0.03996266
63	0xbc91f871	-0.017818661
64	0xbd1a57ac	-0.037681267
65	0xbca95806	-0.020671856
66	0xbcb20ff5	-0.021736125
67	0xbc86dd1c	-0.016462855
68	0xbc688426	-0.014191663
69	0xbc71c739	-0.014756971
70	0xbcc2eaa8	-0.023793533
71	0xbbf9ea52	-0.00762681
72	0xbcabd452	-0.020975266
73	0x3c2c25d6	0.010507068
74	0x3b302218	0.002687579
75	0x3d5b61f9	0.05356023
76	0x3d60d9be	0.054895155
77	0x39cdb2e6	0.00039233937
78	0x3d261082	0.040543087
79	0x3d5abe07	0.05340388
80	0x3cd5a99f	0.026081858
81	0xbdbc03f4	-0.091804415
82	0xbcecba59	-0.028897451
83	0xbd050e9d	-0.03248464
84	0x3daada3d	0.08342407
85	0xbd44f3aa	-0.04808394
86	0xbb4c3a5e	-0.003116272
87	0xbc6adbf8	-0.014334671
88	0xbbc20026	-0.005920428
89	0xbc25b492	-0.010113852
90	0xbca63fbc	-0.020294063
91	0xbd473cf5	-0.048642118
92	0xbd38e19e	-0.04513704
93	0xbddf02af	-0.10889184
94	0xbdb37698	-0.08762854
95	0xbd35b4d0	-0.04436189
96	0xbdb7aa60	-0.08968043
97	0xbd327666	-0.043569945
98	0xbd65f5e7	-0.056142714
99	0xbd0d4f42	-0.034499414
100	0x3c584e52	0.013202267
101	0x3cdab3d5	0.026697079
102	0x3c6abf22	0.014327796
103	0xbd247805	-0.040153522
104	0xbc829b0d	-0.015943075
105	0x3d0226f7	0.03177544
106	0x3d2bd2b9	0.041949008
107	0x3d458f1c	0.048232183
108	0x3cb1085c	0.021610431
109	0xbcd3481e	-0.025791224
110	0x3cad935a	0.021188427
111	0xbbc1f326	-0.005918878
112	0x3c777648	0.015103884
113	0x3a36d5f2	0.00069746294
114	0x3c98423c	0.01858627
115	0xbc31d97d	-0.010855076
116	0xbc3b360c	-0.01142646
117	0xbdcb487f	-0.09925937
118	0xbde0955e	-0.109659895
119	0xbd8762ea	-0.06610663
120	0xbe252dce	-0.16130754
121	0xbc9c80b7	-0.019104345
122	0xbe220504	-0.15822226
123	0xbdd9baf1	-0.10631359
124	0xbda37209	-0.07980735
125	0xbd8e709a	-0.06955071
126	0x3ba13622	0.004919783
127	0x3c019c53	0.007910806
128	0x3ca65b37	0.020307167
129	0x3c5a65e1	0.013329954
130	0x3c5b1e6b	0.013373951
131	0x3cda855b	0.026674917
132	0xbc05e4c3	-0.008172217
133	0xb92f3dd4	-0.00016712333
134	0x3c47a803	0.012186053
135	0x3d241ed9	0.04006848
136	0xbc800554	-0.01562754
137	0x3c4f17f5	0.012639989
138	0xbd19f512	-0.037587233
139	0x3c3f4523	0.011674198
140	0xbd2f34f8	-0.042775124
141	0xbd705427	-0.058674004
142	0xbd326b21	-0.043559197
143	0xbcbfba99	-0.023404406
144	0xbdcaadbd	-0.09896419
145	0xbcf38935	-0.029728511
146	0xbca372a4	-0.019952126
147	0x3ada31d2	0.0016646928
148	0xbda7ba7c	-0.08189866
149	0xbdd71919	-0.10502834
150	0xbdb37aa0	-0.08763623
151	0xbcde0838	-0.027103528
152	0xbda41d8c	-0.08013448
153	0x3d22cdc8	0.03974703
154	0x3d17755f	0.03697717
155	0x3d031861	0.03200567
156	0x3d423dc9	0.047422204
157	0x3c84af76	0.016196948
158	0xbbb64bf2	-0.0055632526
159	0x3d98b88f	0.07457077
160	0x3d08463d	0.03327011
161	0x3bca1a6a	0.0061676996
162	0xbb2682ac	-0.0025407476
163	0xbc19b87f	-0.009382366
164	0xbd985879	-0.0743875
165	0xbc380c5b	-0.0112334145
166	0xbd90bbdf	-0.070670836
167	0xbd602443	-0.054722082
168	0xbd9f0e4f	-0.07766401
169	0xbd0de754	-0.03464444
170	0xbdb62e57	-0.088955574
171	0x3c294cb6	0.010333231
172	0x3bf0f82e	0.007353804
173	0x3ca0535e	0.019571003
174	0x3d5603ac	0.052249596
175	0x3c69b64c	0.014264654
176	0x3cecd6be	0.02891099
177	0x3d0b8a97	0.034067716
178	0x3c078581	0.008271576
179	0x3c02c4e8	0.007981516
180	0xbd047c7d	-0.032345284
181	0xbcc817c7	-0.0244254
182	0xba2cf215	-0.00065973523
183	0xbdb7642b	-0.089546524
184	0x39f82aea	0.0004733422
185	0xbcc4cbb1	-0.024022909
186	0x3ba4ffd8	0.0050353818
187	0xbd0454e4	-0.03230752
188	0xbcaff0d9	-0.02147715
189	0xbcbe9899	-0.023266124
190	0xbc2e05ba	-0.0106214825
191	0xbd8bcc4a	-0.068260744
192	0xbd15fa4a	-0.036615647
193	0xbd3a6d99	-0.045514677
194	0xbd1dac5f	-0.038494464
195	0xbd7e65fa	-0.06210897
196	0xbcf6eb37	-0.030141456
197	0xbd40071a	-0.046881773
198	0xbda7bb75	-0.081900515
199	0xbde0e38d	-0.10980902
200	0xbd9448e5	-0.07240466
201	0xbd7f4986	-0.062325977
202	0xbd810e2c	-0.06301531
203	0xbd237c43	-0.039913427
204	0xbd7eb7bd	-0.062186945
205	0xbd927851	-0.07151855
206	0xbd2e821d	-0.042604554
207	0x3c33c66a	0.010972599
208	0xbc91fb84	-0.017820127
209	0xbd1b4fde	-0.037917964
210	0xbdabb17d	-0.083834626
211	0xbd216189	-0.039399657
212	0xbd1e5049	-0.038650785
213	0xbd86934b	-0.06571063
214	0xbd0e0e85	-0.034681816
215	0xbda66540	-0.08124781
216	0x3b0ebae6	0.002177888
217	0xbc135036	-0.008991292
218	0x3c29b280	0.010357499
219	0x3d58f5ed	0.052968908
220	0x3c57d8d8	0.013174258
221	0x3d011ffb	0.03152464
222	0x3cde63aa	0.027147133
223	0x393eb226	0.00018186177
224	0x3c06b724	0.008222375
225	0x3d879e80	0.06622028
226	0x3d837c96	0.06420247
227	0x3cd7d39c	0.02634602
228	0x3d71c16b	0.05902235
229	0x3d9292f0	0.07156932
230	0x3d23801c	0.039917096
231	0x3d8d0a76	0.06886761
232	0x3d90ca6a	0.070698574
233	0x3da292a9	0.079381295
234	0x3ca2cf3b	0.019874206
235	0x3bd73275	0.0065672942
236	0x3c680835	0.014162113
237	0x3d0130cb	0.031540673
238	0x3cfd2a92	0.030904088
239	0x3d6a4347	0.057193067
240	0x3ba9bc11	0.00517989
241	0x3cbb5c4d	0.02287116
242	0x3d36141b	0.044452768
243	0x3d46cdd1	0.048536126
244	0x3d5cc1db	0.053895812
245	0x3d1f8090	0.038940966
246	0x3d663764	0.05620517
247	0x3d1a04ee	0.037602358
248	0x3ceb8384	0.028749235
249	0x3cada983	0.021198994
250	0x3d268bd9	0.040660713
251	0x3ce729f6	0.02821825
252	0xbdd2b518	-0.10288447
253	0xbd0c727d	-0.034288872
254	0xbdf3a723	-0.11897113
255	0xbd9c4e13	-0.07632079
